versions/88.04/model.pth (torch_old, 287554 bytes, 9 tensors)

lstm.weight_ih_l0 f4 [400, 50]
000000 36 31 88 bd 63 8d b9 be e6 85 42 3e da 99 a3 3d
       -0.06650011 -0.36240682 0.1899639 0.07988329
000010 5d 19 a3 bc 02 07 3a be 9a 7b 0c be b4 65 95 bd
       -0.019909555 -0.18166736 -0.13719025 -0.07294789
000020 de 51 04 3e ab 55 f0 bc 6f ac 81 3d f8 3f 30 bd
       0.12921855 -0.029337725 0.06331717 -0.043029755
000030 a6 42 88 bc b8 86 1c be 05 cf 31 3c 4c 63 e0 3d
       -0.016633343 -0.15285766 0.01085258 0.109564394
000040 c6 1d 7f be 98 07 6e 3d 6e fa 82 bb 2d e0 14 3e
       -0.24913701 0.05811271 -0.0039971387 0.14538641
000050 e1 5d 69 3e 7f 0e 50 be 77 29 7c 3b 5f f0 4e 3d
       0.22789718 -0.2031803 0.0038476863 0.050522204
000060 1a 6b 44 bd 51 6c b6 bd a0 39 37 3e b4 b1 12 3d
       -0.047953703 -0.089073785 0.17893076 0.035814002
000070 bb ae 92 3a bf ba 99 3d 07 75 95 bd e7 12 db 3c
       0.001119099 0.07506322 -0.07297712 0.026742412
000080 d7 49 72 bd ba b1 89 3e 8d 18 12 be ed ab 80 be
       -0.05915245 0.26893407 -0.14267178 -0.2513117
000090 b4 1b ad bd 93 5d d4 be 95 25 27 be 46 45 bc 3d
       -0.084525496 -0.4147764 -0.1632293 0.091929
0000a0 18 93 24 3b 2d 5c c6 bd e9 31 8d bd b5 75 99 bd
       0.0025112089 -0.0968555 -0.06894285 -0.07493154
0000b0 23 6c f8 3d c9 4c 36 be cd 36 92 be 9e b9 f1 3e
       0.121300004 -0.17802729 -0.28557435 0.47211927
0000c0 6e c4 68 3d fa e7 55 3d a5 2b 9f bd f9 93 15 be
       0.056827955 0.052223183 -0.077719964 -0.14607228
0000d0 5d c7 2c be 57 d7 85 bd 69 7f 9f bc f1 4a a2 3c
       -0.16872926 -0.065352134 -0.019469934 0.019811125
0000e0 22 bc 06 3f 60 b3 12 be 16 0f 50 be 0b dc 7e 3e
       0.5263082 -0.14326239 -0.20318255 0.24888627
0000f0 fc 4c 97 be c4 7e 00 bd 1c 3c 44 3d 05 36 70 3e
       -0.29550922 -0.031370893 0.047908887 0.23458107
000100 96 21 2f be c9 52 c4 be 1b d6 cb bd 83 3d 47 3d
       -0.17102656 -0.3834441 -0.09952947 0.048642647
000110 67 7d a8 3e 4e 7f 95 3e 33 ac 37 3f 56 53 65 3e
       0.32908174 0.29198688 0.7174713 0.22395071
000120 b9 8a df be 7f 36 0b 3e 07 67 49 bd 52 64 9e 3d
       -0.43660524 0.13595007 -0.04917052 0.07733978
000130 6b bc 0c 3d 2c b0 4c be c3 3b bb be cc 20 36 3e
       0.034359377 -0.19989079 -0.36569032 0.17785949
000140 29 8e 6b be 13 82 0a bf 12 e8 29 3d e5 71 71 be
       -0.23003449 -0.5410473 0.041481085 -0.23578604
000150 5d d1 a1 be f9 85 d8 3d 90 cd 7d be bd 8d 86 be
       -0.31605044 0.10572428 -0.24785447 -0.26280013
000160 82 ae 64 be 0f 23 62 bd 2d be 09 bd 72 f3 f7 3e
       -0.22332194 -0.055209216 -0.03362863 0.48427922
000170 5f 50 e1 bc 26 5f 6f be 1e e9 ad bb c1 dc 3f bf
       -0.027504144 -0.2337614 -0.0053073307 -0.7494622
000180 fc 29 dd 3d f3 bd 82 bd d0 12 0e be 3c d6 69 3d
       0.107990235 -0.06383886 -0.13874364 0.057089075
000190 c1 b5 24 bf 59 2c a6 bd 35 5a e9 bb 4c f3 06 3e
       -0.64339834 -0.081139274 -0.007121349 0.13178748
0001a0 88 a8 4c 3d ec 94 be 3c a1 89 3b 3e ab 65 5f bc
       0.04996541 0.02326437 0.1831422 -0.013635079
0001b0 28 63 04 3e eb d3 ed bd ba 2c c3 3e 05 a0 50 3e
       0.1292845 -0.11612686 0.3812006 0.20373543
0001c0 a8 88 44 be 17 68 14 bf 65 4c 6c 3d fd fd d8 bd
       -0.19192755 -0.5797133 0.057690043 -0.105953194
0001d0 3d 18 38 3e e4 5f 98 be 7c c8 1d 3e 13 f9 2d 3e
       0.17977996 -0.2976066 0.1540851 0.16989546
0001e0 3e 1c 6f be b6 e2 ea bd 1a 7c 25 3e f6 7f 0d 3e
       -0.23350617 -0.11469023 0.16160622 0.13818344
0001f0 9a e2 6c be 15 2a c8 3b 50 6b 43 3e c1 71 95 be
       -0.23133317 0.006108532 0.19083905 -0.2918835
000200 f4 92 e2 3d cf aa 8d 3d 8d 86 c3 3c 16 89 07 3e
       0.11063185 0.06917345 0.02386787 0.13235888
000210 63 ae ba 3d 0b 33 6b 3e c9 08 c9 bd 16 48 80 3e
       0.09115293 0.2296869 -0.09816129 0.25054997
000220 7d 48 e0 3e b3 ac ba 3d f8 6d 98 3e 11 bf cf 3d
       0.43805304 0.09114971 0.297714 0.10143865
000230 40 14 3d 3e 1f 88 0c bf 72 e8 04 3f 7a e4 77 3e
       0.18464756 -0.54895204 0.51917183 0.2420825
000240 15 7b bb 3b ed 4d ca be cd 26 1c be 8a 54 0e 3e
       0.0057214596 -0.39512578 -0.15249176 0.13899437
000250 1c 93 80 3f cf 13 bc 3b a4 3f bd 3d c0 7a d3 be
       1.0044894 0.005739666 0.09240654 -0.41304588
000260 d0 af 15 be c5 bb 0d 3e b8 23 54 3c b0 37 a2 3e
       -0.14617848 0.1384116 0.012947969 0.3168311
000270 e9 93 a1 3e a2 d6 3a 3f 70 35 d6 3d 16 61 9b 3d
       0.3155816 0.72983754 0.10459411 0.07586877
000280 8a 4e d3 bc 36 2a db be 74 f6 9f 3d 13 46 cf bc
       -0.025794286 -0.42805642 0.07810679 -0.025301969
000290 b0 79 e3 bc ce 57 1f be c2 41 93 3e 2b 01 ee 3d
       -0.027767986 -0.15560839 0.28761107 0.116213165
0002a0 d4 57 2d 3e d5 f9 2f 3d 6f 4f ca be 9e 4b 31 be
       0.16928035 0.042962868 -0.39513728 -0.17314002
0002b0 d9 57 e5 ba 4b 47 ce 3d 27 6c 31 3e 2c c8 b5 3d
       -0.0017497494 0.10072192 0.17326413 0.088760704
0002c0 8b 5d 3e be 37 fc 4c bc a4 eb 06 3e 59 f3 93 3e
       -0.18590371 -0.012511305 0.13175827 0.28896597
0002d0 fe dd 58 bc d3 cb 16 3e b3 48 dc 3e 93 2b e8 bd
       -0.013236521 0.1472619 0.43024215 -0.11336436
0002e0 30 d8 04 be 23 8d 73 3f be 7c 13 bf d0 82 ef 3d
       -0.12973094 0.9513723 -0.57612216 0.116948724
0002f0 fb 30 a0 bd 10 cc bb bd c5 81 05 bf da f9 74 be
       -0.07821842 -0.09169781 -0.5215114 -0.23923436
000300 0b c7 74 be 1b e6 12 3d 48 f4 1e 3c df ec 64 3d
       -0.23904054 0.035863977 0.009701796 0.05588996
000310 5c dc a9 3c bb 4a a9 3d 5d 97 52 3e 79 46 f0 be
       0.020734958 0.08266207 0.20565553 -0.46928766
000320 d5 3a a6 3c 6f 0a 68 be 08 73 92 3e 85 fe 5c be
       0.020291725 -0.2266023 0.28603387 -0.21581466
000330 6e 2d 6e be 86 87 1a bd f4 d0 82 3d 61 55 e7 bc
       -0.23259518 -0.0377269 0.06387511 -0.028238954
000340 80 7d 2a be d3 df 9f be 79 9f 1a be b7 f3 78 bb
       -0.16649437 -0.31225452 -0.15099896 -0.0037987062
000350 77 36 04 bd e8 3b c5 3d c0 1a 80 bc 85 8c 1e 3e
       -0.032278504 0.09630567 -0.015637755 0.15483291
000360 12 0c 07 be eb 0f bf bd dd 8c d3 3c c5 47 5d 3c
       -0.13188198 -0.09329208 0.025824005 0.013505881
000370 88 5b a6 3e 8f 05 a2 bd 0f c8 3e bc 09 0d 79 bc
       0.32491708 -0.079112165 -0.011644377 -0.015200862
000380 02 e5 b3 bc c5 73 04 be 5d f0 28 3e 5e 7d 96 bd
       -0.021959785 -0.12934788 0.16497941 -0.07348131
000390 c5 61 6a bd e0 61 cb bb 68 2c d3 3d 26 46 6e 3d
       -0.057222147 -0.006206736 0.10311204 0.058172368
0003a0 27 5e a6 be c3 70 71 3d ec 8e e3 be 87 9a 05 be
       -0.32493708 0.05894543 -0.44444978 -0.13047229
0003b0 b1 42 bf 3d 34 e9 81 be 2f 8b 3f bd 24 47 05 3e
       0.09338892 -0.25373232 -0.046763595 0.13015419
0003c0 ef 0e ab be cf a6 15 3e 75 e1 cf 3d c9 4d da be
       -0.3340983 0.14614414 0.101504244 -0.4263747
0003d0 34 62 ce 3d eb a4 ac be 11 9d 08 3e 59 00 5e bc
       0.100773245 -0.33719572 0.13341166 -0.013549888
0003e0 1a 51 29 be 60 98 a2 3d db bd 2e be 27 33 2b 3f
       -0.16534844 0.079392195 -0.17064612 0.6687493
0003f0 8a 45 0b be 50 f2 1e 3e c4 f2 cf be 13 b0 9f 3a
       -0.13600746 0.15522122 -0.40614903 0.0012183212

lstm.weight_hh_l0 f4 [400, 100]
000000 6f 4d 27 bd fc 78 15 3e ac b9 5f be 5a 23 53 3e
       -0.04084533 0.14596933 -0.21848172 0.20618954
000010 f5 7b 05 3e 86 a6 38 3e 8b ae 1d be 15 b3 d6 3c
       0.13035567 0.18032274 -0.15398614 0.02620844
000020 97 f0 56 be 92 b4 37 bc 87 42 9a be d9 81 24 3e
       -0.20990215 -0.011212485 -0.3012888 0.16065158
000030 86 b8 5a bd 41 4b c1 3d 7d 3b d7 3d f1 06 8f be
       -0.05339863 0.09438182 0.10509393 -0.27934983
000040 40 c3 b3 3d f0 94 1a 3e 10 78 d5 bd cd 90 e9 3d
       0.08777475 0.15095878 -0.10423291 0.11404572
000050 7f 5f 8f bd 38 1c 3e 3e 4f c5 77 bb c4 bb 9d 3d
       -0.07000636 0.18565452 -0.0037806814 0.07701829
000060 86 5f 36 3e 5a 0e 1d 3d 44 e3 7e be 83 57 bd bd
       0.17809877 0.038343765 -0.24891382 -0.09245207
000070 36 68 49 3d 8b 6b c6 bc ce da 8d 3d 8c f6 22 bd
       0.04917165 -0.024221202 0.06926499 -0.039785907
000080 c2 46 07 3e a0 83 8c bd 4d d2 24 be c9 ac 62 3e
       0.13210586 -0.06861043 -0.16095848 0.22136225
000090 df d3 39 3d 9d 62 c7 3b 2e 9e 49 3e 6b bf 26 bd
       0.04536807 0.0060847537 0.19689247 -0.040709894
0000a0 34 15 70 bd e2 86 78 be 57 3a cc 3d 57 c2 db 3d
       -0.05861397 -0.24270204 0.09972065 0.10730427
0000b0 33 97 91 bc 07 1d 33 be be 99 d7 3d 11 cb 3a 3d
       -0.017772293 -0.17491542 0.10527371 0.045603815
0000c0 28 df 05 3d fe da 82 bd 06 1c 3d 3d d3 8b 9d bd
       0.03268352 -0.06389426 0.046169303 -0.07692685
0000d0 d2 03 de bd ca 2b ef 3c 96 48 a1 3c f5 1b ba 3d
       -0.108405724 0.029195685 0.019687932 0.09087364
0000e0 fa 0b e4 3d 63 3c 7b bd 52 72 97 bd 80 c3 0a 3d
       0.11135097 -0.061336886 -0.07394852 0.03387785
0000f0 b3 66 d5 3d ab f6 b4 3e 55 99 a5 3b fd 98 e4 3d
       0.10419979 0.35344443 0.005053679 0.11161993
000100 1b 73 88 bd 8f a0 e9 3c a2 82 ae bc ee 09 96 3d
       -0.066625796 0.028518943 -0.021302525 0.07326113
000110 a9 fc 23 3e 82 c8 5e 3e 1c 68 84 3b 4e d1 27 3e
       0.16014351 0.21756175 0.004040731 0.16388437
000120 73 3b 2a be 1b d3 16 3e 07 08 31 bd 6e 43 2d 3e
       -0.1662424 0.14728968 -0.043220546 0.16920254
000130 42 b5 e2 bd ba 07 76 bd c3 67 1a 3c f4 92 b6 3d
       -0.110697284 -0.060065962 0.009424153 0.08914748
000140 ba 77 ac 3d 63 1b 65 3d 87 e7 06 3e 8a 81 69 3d
       0.084212735 0.05593432 0.13174258 0.057008304
000150 c7 0c 1a 3e 2b 59 b9 3d 10 4d 95 3c 24 9b d0 bd
       0.15043937 0.090502106 0.018225223 -0.10185841
000160 27 a6 5c 3d 8a c6 a5 3d 1d 71 df bd 57 73 81 3b
       0.053869393 0.08094509 -0.109102465 0.003950517
000170 9a 67 9f 3d 5a 42 88 3d 33 39 a2 3d 0f 0d 79 3c
       0.07783432 0.066532806 0.07921066 0.015200867
000180 25 4c 9b 3d eb b5 29 3d fe ed 1b 3e f2 1e 9d 3d
       0.07582883 0.041433256 0.15227506 0.07671918
000190 4d b0 ff bd 0f a5 cb 3d a5 b4 89 be f2 93 e0 3e
       -0.124847986 0.09943592 -0.26895633 0.43862873
0001a0 a2 f7 c5 3e a7 5d 67 be f3 bd 54 3d 0a 5d d8 3d
       0.3866549 -0.2259432 0.051938962 0.10564621
0001b0 15 25 78 be 52 74 70 bd 21 10 5c be ce 6b 7d 3c
       -0.24232896 -0.05870468 -0.21490528 0.015467597
0001c0 f3 0a 46 be e8 50 f4 3d 3d c8 84 be cf d8 be be
       -0.19340114 0.11929494 -0.2593402 -0.37274787
0001d0 2e c0 80 3e 5d d8 38 be 8a d5 12 be 04 40 b1 bd
       0.2514662 -0.18051286 -0.14339271 -0.08654788
0001e0 ab a2 35 be 7d a1 06 be a8 1b 3f bd 77 4e 7f 3e
       -0.17737834 -0.1314754 -0.046657234 0.24932276
0001f0 2a 5c d7 3d 8d b5 45 3e 67 f0 dc be 3b ba 4e 3e
       0.10515626 0.19307537 -0.43152162 0.20188229
000200 1b 50 33 3b 29 5a 1b be 7d 0b 3d 3e 25 d4 da bc
       0.002736098 -0.15171112 0.18461414 -0.026712487
000210 52 9a 54 3e 1d f2 57 be 30 97 77 3e 31 7a 7f 3d
       0.20761994 -0.21088453 0.24178767 0.06237239
000220 45 bb e1 3e 17 d3 0b 3e d7 b5 9e 3e 96 dc d3 bd
       0.44088188 0.13654743 0.30998108 -0.10344808
000230 97 60 01 be 33 73 95 bd fc 4a 36 bd 26 64 95 3e
       -0.12634502 -0.07297363 -0.044505104 0.2917797
000240 2e 18 1d 3e 7f e2 3c be 18 2e ad bd 21 2e cb 3d
       0.15341255 -0.18445776 -0.08456057 0.09920908
000250 ad 36 81 be c2 69 e4 be bf 70 33 3e c0 50 5c be
       -0.25237027 -0.44611937 0.17523478 -0.21515179
000260 bd a5 e2 bd 30 e7 6a 3e 67 01 69 3e f8 9e c3 3c
       -0.11066768 0.22939754 0.22754441 0.023879513
000270 6f 6d 6b bd 48 c2 d9 3e 55 06 e9 bc a8 a4 6a 3e
       -0.05747741 0.42531037 -0.028445402 0.22914374
000280 5d 37 a2 3e 09 1f 19 3e ed 32 0b 3e 83 28 a5 bd
       0.31682864 0.14953245 0.13593645 -0.080643676
000290 30 ed 8a be e1 ab 0d 3f 27 85 94 b9 52 5c 83 bd
       -0.27134085 0.5534039 -0.00028327966 -0.06414093
0002a0 ec 7b 7e be fa 8c 68 bd 51 02 36 3e 1e d4 54 3e
       -0.2485196 -0.05677507 0.17774321 0.20784041
0002b0 ed fb 99 be 47 4e a5 3e f0 12 1e 3e 74 a2 df 3d
       -0.30075017 0.32286283 0.15436912 0.10919657
0002c0 50 18 02 3d 75 66 23 3e 8d c3 a0 3e 4d c6 ae 3d
       0.031761467 0.15957053 0.31399193 0.085339166
0002d0 57 52 47 3e 36 5f 8b be b4 45 35 bd ef ab fb 3d
       0.19465004 -0.27221078 -0.044255927 0.12288653
0002e0 5f 28 ab bd d8 b3 7e 3e 86 bc 10 3e 0f b1 a3 3c
       -0.083573096 0.24873292 0.14134416 0.019981889
0002f0 06 f2 dd bd b3 f4 60 bd 62 1f 06 3e 19 1d 91 be
       -0.10837178 -0.054920863 0.13097909 -0.28342512
000300 ac 34 47 3e 82 7b 04 3e 9c de 8d be 74 0a b3 3e
       0.19453686 0.1293774 -0.277089 0.34968913
000310 78 03 20 be b6 74 52 3e 8f bf 83 3e 65 d6 41 3d
       -0.15626323 0.20552334 0.25732085 0.047323603
000320 b3 b4 c5 bd 53 68 08 be ec 9b 05 3e 00 db c2 3d
       -0.09653606 -0.13321047 0.1304776 0.09514427
000330 44 51 e1 3a 45 30 34 3d 0a af 8f bb c7 ee 4e bd
       0.0017190357 0.043991346 -0.00438488 -0.050520685
000340 be 91 b0 be 85 82 4a bd 7c ec 30 bd 8c b9 1a be
       -0.34486192 -0.04944088 -0.04319428 -0.15109843
000350 92 7b 03 bd 75 af 76 be 0d 77 d1 3d 91 17 5c be
       -0.032100268 -0.24090369 0.10227785 -0.21493365
000360 ea 25 20 3d a7 0b 12 be 08 01 dc 3c d6 28 92 bd
       0.039098658 -0.14262258 0.02685596 -0.07136695
000370 0c 9b 4b be cc f6 b8 be fe d8 c5 be 42 79 01 be
       -0.19883364 -0.3612579 -0.38642114 -0.12643912
000380 d0 ce 21 bd 32 5f 74 bd 03 5d e7 bd 8b 9c f6 3d
       -0.039503872 -0.059661098 -0.112970375 0.12041577
000390 eb 57 0f 3e bf e9 d9 bd 55 9e ac 3d e6 4c b4 3d
       0.13998382 -0.10640287 0.08428637 0.0880373
0003a0 f0 31 8b bd 12 57 3e be a2 8e 97 bd b9 6b cb 3e
       -0.06796634 -0.18587902 -0.07400252 0.39730623
0003b0 1e 07 f0 bc 80 70 42 be 51 20 42 be 6f 46 68 be
       -0.029300269 -0.18988228 -0.1895764 -0.22683118
0003c0 8c c8 bd 3d dc 7b fc 3d 97 de 9a be 25 bd 94 3d
       0.09266767 0.12328312 -0.30247948 0.07262639
0003d0 5a d2 3e 3e 32 f7 69 be 26 14 c3 be 2b a2 53 3d
       0.1863493 -0.22848204 -0.3810131 0.051668327
0003e0 53 95 85 bd 59 8e ad 3d 54 75 77 bb b1 32 1f 3d
       -0.06522622 0.08474416 -0.0037759142 0.038866702
0003f0 4a f3 15 bd a5 57 67 be 6a d8 0f 3e d5 dd 04 be
       -0.03660897 -0.22592027 0.14047399 -0.12975247

lstm.bias_ih_l0 f4 [400]
000000 bb e8 8b bc 04 15 05 be 24 92 7b bd ea 0f af 3d
       -0.017078748 -0.12996298 -0.061418667 0.08547957
000010 95 32 2e 3d bc bc 5b bd 76 1c e8 bd 36 e4 53 3e
       0.042528708 -0.053646788 -0.113335535 0.20692524
000020 58 58 01 be f9 e6 b5 bd 0b 2f 10 be 39 a5 30 bd
       -0.12631357 -0.08881945 -0.14080445 -0.04312632
000030 5f 99 e3 bd 03 f7 35 3c e4 f0 2c bd 98 23 d6 bd
       -0.111132376 0.011106255 -0.04222192 -0.10456008
000040 de f4 15 bc 51 1e 60 3d 2f 0e aa 3c 94 0d 2e bd
       -0.009152619 0.054716412 0.020758716 -0.042493418
000050 79 77 9c bd bd 43 18 3e 53 8c 1a be b0 15 bb 3c
       -0.07639975 0.1486959 -0.15092592 0.02283749
000060 e3 68 cf 3c 4b b8 b0 bd fb c2 a1 3b 48 78 3c 3d
       0.025318569 -0.08628901 0.0049365736 0.046013147
000070 77 2f bf 3d 6e d2 02 be 88 ce 79 be a8 23 c5 3d
       0.09335225 -0.12775585 -0.24395192 0.096259415
000080 e6 84 97 be f8 6b e7 3d 0e 0b 85 3d 7d 21 a7 be
       -0.2959358 0.1129989 0.06496249 -0.32642737
000090 ed 23 8d bc 49 31 a0 bd 2a 06 85 3d a8 56 b1 bd
       -0.017229045 -0.078219004 0.06495316 -0.086591065
0000a0 d8 8d 38 3d bc 3e 67 3e e7 09 48 bd d7 ee bd bd
       0.045057148 0.22582525 -0.04883757 -0.09274071
0000b0 90 23 04 3c c9 d7 7d bd 3e 06 a8 bd f7 97 1e 3d
       0.008065119 -0.061973367 -0.082043156 0.038719144
0000c0 0a 2f 9e be 82 c4 28 3d f2 e0 a9 3d 7c c2 d0 bc
       -0.30895263 0.04120303 0.08294858 -0.025483362
0000d0 30 8e de 3d ce a3 0d 3d a1 cf ac 3d 51 f9 8c bd
       0.10866964 0.034580044 0.084380396 -0.06883491
0000e0 74 a3 5c bd df 28 ce bd 0c 2f ee bb 0d b1 dd 3c
       -0.05386682 -0.10066389 -0.007268792 0.027061963
0000f0 a2 01 0f bd 7f b8 bb bd 86 f9 d2 bd 9e 8a a1 bd
       -0.034913667 -0.09166049 -0.10301499 -0.07887767
000100 7c e4 bb 3c b4 c2 85 3c f0 d5 1b be 16 e2 d2 3c
       0.022936098 0.016328193 -0.1521833 0.025742572
000110 cb 4e 20 bc 8b 03 63 be c1 ef 25 bc fd 72 84 3c
       -0.009784411 -0.2216932 -0.010127963 0.016168112
000120 21 08 54 3c a9 30 ed 3d f8 61 1d 3d 81 c0 da 3d
       0.012941391 0.11581547 0.03842351 0.106812485
000130 34 87 85 be 68 b8 7a 3d b3 ab 76 3d ef f1 83 bc
       -0.26079714 0.06121102 0.06022234 -0.016106574
000140 b7 3c 94 be d7 60 9c bd 25 01 32 be 38 96 de bd
       -0.28952572 -0.07635658 -0.17383249 -0.10868496
000150 57 e2 11 be 0a 7d 13 bd 60 35 d6 3c d3 6c d7 3c
       -0.14246498 -0.03600792 0.026148498 0.026297009
000160 ea 20 bf bc 9c 86 bf be b4 c6 72 bd 6d b7 02 3e
       -0.023331124 -0.37407386 -0.05927153 0.12765284
000170 30 94 63 bc 7a cb ae bd 7c 73 7e bc 7f 26 91 3d
       -0.013890311 -0.08534904 -0.015530463 0.07087421
000180 67 d7 bb 3d 30 7c 57 3d 11 0d c2 bc 39 86 43 3d
       0.09171944 0.05260867 -0.023687871 0.047735427
000190 c7 c2 07 3e 5f b4 83 3e 2f 90 1e 3d 2a dc 9e bd
       0.13257895 0.2572355 0.038711723 -0.07756837
0001a0 52 08 a8 3d ac be 33 3e 2f db 9f 3c 2e a7 82 3c
       0.08204712 0.17553204 0.019513695 0.015948858
0001b0 99 ea 14 3e 89 51 98 3d d2 6f c0 bc 07 e6 e4 3c
       0.14542617 0.074374266 -0.02349082 0.027941717
0001c0 91 cf 33 3e 37 67 99 bc 9f 10 e6 bc e3 33 03 3e
       0.17559649 -0.018725974 -0.028084097 0.12812762
0001d0 04 e5 a3 bd 8c 7e aa 3d 13 29 4f 3e 6f 5d 36 3e
       -0.08002666 0.08324918 0.20230512 0.1780908
0001e0 de 23 8b 3d f2 29 50 3d 46 8d ff bc bd 2e 03 3e
       0.067939505 0.050821252 -0.031195294 0.12810798
0001f0 94 87 5a 3e 80 26 a3 3d 6b 8a d7 3c 15 8e 41 3e
       0.21340781 0.07966328 0.02631112 0.18901856
000200 81 15 3f bc 08 ea bb bd b6 3e a0 3e 87 c7 0b 3c
       -0.011662842 -0.09175497 0.31297845 0.008531458
000210 86 22 d9 3e e5 ca a8 3b 75 b2 fb bc af a1 12 3e
       0.42409152 0.00515114 -0.030724743 0.1431949
000220 b9 e2 6d bd 87 83 93 3d e6 a5 0a 3e 60 74 37 bc
       -0.058077548 0.07202821 0.13539848 -0.01119718
000230 d5 59 33 3e 80 e9 8a 3e f6 55 b0 bd e1 e0 b3 3d
       0.17514737 0.2713127 -0.08610146 0.087831266
000240 9b a4 6f 3d 5d 8c 22 bd 93 b2 38 3d ae 7a ec 3d
       0.05850659 -0.039684642 0.045092177 0.11546837
000250 68 6a 54 3e a7 5d 73 3d 7f ab ad 3d 0f a8 ad 3d
       0.20743716 0.059415486 0.08479976 0.0847932
000260 46 34 ba 3d ad 4e fa 3d bc d0 4a 3d aa e1 72 3c
       0.090920016 0.122220375 0.04951547 0.01482431
000270 68 86 f2 bc 37 2e 07 3e 99 7c 29 3e a9 95 f0 3d
       -0.029605106 0.13201223 0.16551436 0.117472954
000280 af a5 90 bd 34 bc 9a bd b8 4a 89 3d da ec 69 3d
       -0.07062852 -0.07555428 0.067037046 0.057110645
000290 89 0f 41 bc 49 eb b6 3c 2f 92 d1 3d 6f c7 9b 3c
       -0.011783489 0.02232899 0.102329604 0.019015996
0002a0 49 c0 02 3e 54 f9 d4 3d cc 72 88 3d 36 58 d7 3b
       0.12768663 0.10399118 0.06662521 0.006571795
0002b0 b3 3e 38 3c cf 13 b1 3d 6f 1c 9d 3d 0a 46 ba b9
       0.011245417 0.08646356 0.07671439 -0.00035528868
0002c0 d5 44 bb 3e 2a 72 b3 bd f5 a3 d2 3d de a0 0b 3e
       0.36575952 -0.087620094 0.102851786 0.13635585
0002d0 d2 a6 50 3e 81 42 6f bd 14 5a 34 3e e8 7a e9 3d
       0.20376137 -0.058413032 0.17612487 0.11400396
0002e0 57 12 17 3e cb c8 9f bc 37 48 14 bc 6e 8f 93 3d
       0.1475309 -0.019504925 -0.0090504205 0.072050914
0002f0 84 b5 fc bc bd f4 9c 3e b5 3e d5 ba 30 f2 0d 3e
       -0.030848272 0.3065547 -0.0016269299 0.13861918
000300 45 df 39 3e f1 01 d5 bd 6e 82 61 bd 4c d3 e6 bd
       0.18151577 -0.10400761 -0.055056028 -0.112707704
000310 bd 7e d3 3d 1c 49 a4 bd 1b 97 01 3e 54 21 aa 3b
       0.10326908 -0.08021757 0.12655298 0.0051919613
000320 c3 55 24 bd 86 15 83 3d db 07 6d 3d cf 84 7f bd
       -0.04012085 0.0640059 0.05786882 -0.062382516
000330 1b 55 cc bd 05 95 2b bc cd 19 ba 3d c3 18 03 bd
       -0.0997717 -0.010472541 0.09086952 -0.032006036
000340 25 6c c0 bc 5f 24 23 bd 3d 48 af bc e6 15 aa 3d
       -0.023489067 -0.039829608 -0.02139675 0.08304958
000350 68 b9 84 3b 7f 97 ac 3d af dc 41 bd a1 53 0b bd
       0.0040504225 0.08427333 -0.0473296 -0.0340153
000360 dc e4 79 bd 3a a3 ac 3d 3c 1d 00 3d 97 ba 36 3d
       -0.061009273 0.084295705 0.03127788 0.04461154
000370 9b 07 16 3d 4f fe 11 3c 43 c4 e8 3d a7 03 8e bd
       0.036628347 0.00891073 0.11365559 -0.069342904
000380 f8 82 51 bd ba 3e 29 3d 13 a5 ac 3d 29 d3 4b 3d
       -0.051150292 0.041319586 0.08429923 0.049761925
000390 1b ca 39 bd 69 cc 5f 3d 26 86 bc bd db 04 d7 3d
       -0.04535876 0.0546383 -0.09205274 0.10498973
0003a0 02 6e 82 bd 1f f8 33 3e c8 f6 02 be 6e aa a6 bd
       -0.063686386 0.1757512 -0.12789452 -0.08137976
0003b0 80 6b 03 3c 88 86 7a bd e8 15 e3 bc 87 fd 17 3d
       0.0080212355 -0.061163455 -0.027720407 0.037107017
0003c0 36 49 90 bc 7c 3b 1b bd e9 00 eb bd 72 b0 1d bd
       -0.017613035 -0.037898526 -0.11474783 -0.03849835
0003d0 88 bb b6 bd 28 39 c4 3c 2b a7 f0 3d 8b c7 37 3b
       -0.089224875 0.023953035 0.11750635 0.002804252
0003e0 89 11 cf bc 94 48 e7 bc f0 2e 81 3b a2 b4 a1 3d
       -0.025276916 -0.02823285 0.003942363 0.07895781
0003f0 87 b2 24 bd 14 61 76 3d 6d 87 07 bd 67 48 10 bc
       -0.04020932 0.060151175 -0.033088136 -0.008806325

lstm.bias_hh_l0 f4 [400]
000000 14 0e f8 3d 6c 2e 53 be cc 0b 82 bd 39 22 0b 3d
       0.1211206 -0.20623177 -0.06349906 0.033968184
000010 b7 ee 41 3e 06 d2 03 be bd 84 1b be fc af f1 3d
       0.18938719 -0.12873086 -0.15187354 0.118011445
000020 09 b8 e7 bd da 0d 96 3d 0d 81 23 be 8d a1 89 3b
       -0.11314399 0.07326861 -0.15967198 0.0042001666
000030 03 ed 27 be 6c aa 03 3d 6a b6 32 bd 51 ea 9a bd
       -0.16399007 0.03214495 -0.043630995 -0.075642236
000040 c7 b9 90 bd 0d ab d4 3c ca 0b 26 3d b2 11 c2 bd
       -0.07066684 0.02596047 0.040538587 -0.09476031
000050 ee 2d 65 be a6 ae 93 bb 21 8f 5a bd 46 67 f6 bd
       -0.22380802 -0.0045069037 -0.053359155 -0.120314166
000060 c1 24 32 bd 31 9d 53 be 3f 48 4b 3d 3d 9a 23 bd
       -0.043492083 -0.20665433 0.049629446 -0.039942015
000070 fc 16 7c 3d c9 c1 ec bc 6c a0 6f be 64 02 af 3d
       0.061545357 -0.028900998 -0.2340104 0.08545378
000080 36 4b d8 be aa 5d 4f bd af 31 5c bd 33 62 91 be
       -0.4224488 -0.050626434 -0.05375832 -0.28395233
000090 f7 89 d5 bc 6b e2 2e bd 1a e1 e2 bc c2 8e 92 3c
       -0.026066763 -0.042696398 -0.027695227 0.017890338
0000a0 d8 76 38 bc 65 5d 18 3e af df 2a 3c d1 bb 22 b9
       -0.011258803 0.14879377 0.010429307 -0.00015519491
0000b0 50 72 0f 3d 16 ba 03 bd e3 97 0a be 8e ea 7b 3d
       0.035021126 -0.032159887 -0.13534503 0.061502986
0000c0 9c d7 b5 be be 99 15 3d 00 99 e2 3d dd 5d 86 3d
       -0.3551606 0.036523573 0.11064339 0.06560872
0000d0 92 7c c1 3d 93 d0 97 3d e9 be 58 bd 48 35 87 bd
       0.09447588 0.07412829 -0.05291644 -0.066019595
0000e0 6a 54 8d 3d 84 f4 ce bd 5a ea 3b bd 3b 7b dc 3b
       0.06900866 -0.101052314 -0.045877792 0.0067285574
0000f0 23 e3 5f 3c 8e 47 c5 bd 5f 4b 9c bb dc bb 75 bb
       0.013664993 -0.096327886 -0.004769727 -0.0037496006
000100 1a b2 53 3d d6 d1 cb bd 85 31 cc bd 90 bb b3 bd
       0.051683523 -0.099521324 -0.099703826 -0.08776009
000110 0e 84 66 bd 1a 0c 8d be 01 a5 8e bc 96 8b b1 bc
       -0.05627828 -0.27548295 -0.017412664 -0.021673005
000120 76 da 87 3d ff 8d 08 3e 1f a2 93 bd 52 6a 82 3d
       0.06633465 0.13335417 -0.072086565 0.06367935
000130 8a 2a 5f be 94 d2 82 3c 96 49 12 3e 5b 18 1f 3c
       -0.21793571 0.015969552 0.14285883 0.009710397
000140 b4 df 23 be 71 ec e6 bd c9 c2 48 be 07 04 7d bd
       -0.16003305 -0.11275566 -0.19605555 -0.06177142
000150 a4 30 f0 3c d7 29 69 3c ec 45 3c 3d a1 db b4 bc
       0.029320069 0.014231167 0.04596512 -0.022077383
000160 3b 12 3e 3d b6 2e bc be e5 6d af bd 63 4b fd 3d
       0.046404105 -0.36754388 -0.085658826 0.123678945
000170 e8 74 e5 bd 08 d3 98 bd b3 7c a3 bc 62 eb b0 3d
       -0.11203939 -0.07462126 -0.019956922 0.08638646
000180 8b 34 ba 3d 58 95 4c bd e0 51 15 be 75 42 e2 3c
       0.09092053 -0.049947113 -0.14582014 0.02761958
000190 48 5e a5 3d cc ef 4c 3e a8 38 0d bd 48 b2 fc bc
       0.08074623 0.2001335 -0.03447786 -0.03084673
0001a0 10 8a 10 3d 3f 3e 3b 3e 13 65 57 3c 53 97 4c bd
       0.035287917 0.18285464 0.013146657 -0.049949
0001b0 1c b1 ed 3d 05 72 38 3c 32 7b 65 3c 46 8a 85 3d
       0.116060466 0.011257653 0.014006423 0.06520514
0001c0 71 e8 06 3d 52 df ae 3c e7 40 85 3d db 44 0f 3e
       0.032936517 0.021346722 0.0650652 0.1399111
0001d0 6c d8 36 3d 1e 38 ca 3d d6 0a b1 3d f1 24 16 3e
       0.04463999 0.09873985 0.08644645 0.1466253
0001e0 e8 e8 9f bb 95 5a ac 3d 88 4e 8b 3d 5d 60 7e 3e
       -0.0048800595 0.08415715 0.06802088 0.24841447
0001f0 53 c5 19 3e 42 16 c3 3c 2c 40 8a 3d e0 0c e0 3d
       0.1501668 0.023814324 0.06750521 0.10939956
000200 34 07 7b bd 0a 08 bc bd 0c 49 c2 3e c7 08 95 3d
       -0.061286166 -0.09181221 0.37946355 0.07277065
000210 ac 95 c4 3e fa fb a8 3d 88 32 b6 3d 70 a4 ec 3c
       0.3839544 0.08251186 0.08896357 0.028887004
000220 1b a1 9f bd e7 7e 9b bc a8 8b be 3d 53 7e 00 3e
       -0.077944 -0.01898141 0.09303981 0.12548189
000230 15 fa f7 3d b9 56 53 3e da a3 7e 3d c3 84 7c bd
       0.12108246 0.20638551 0.06216798 -0.06165005
000240 c1 ec a4 3d ce 1c 25 bd c0 f3 cc bc 3c d0 ed 3b
       0.0805297 -0.040310673 -0.025018573 0.0072574895
000250 b1 d1 89 3e 99 68 9d bc ea 5f 0c 3e b1 82 a9 3d
       0.26917794 -0.019214915 0.13708463 0.082768805
000260 78 5a 52 bd 6d c6 c7 bb 84 50 de 3d 2f f1 6e bc
       -0.05135581 -0.0060966522 0.10855201 -0.01458387
000270 c6 28 2f 3d f7 62 0a 3e 56 59 e8 3d c1 b3 91 3d
       0.042763494 0.13514315 0.113451645 0.071143635
000280 10 25 6f 3d a8 e9 26 bd b6 29 bb bd 4d 10 81 3d
       0.058384955 -0.040750176 -0.09138815 0.06301937
000290 10 f4 6f 3c 32 9b 0a 3e 0d 4a a1 bc 1a 9c 2b 3b
       0.014645591 0.13535765 -0.01968863 0.0026185573
0002a0 c9 a9 5c bb b2 70 c4 3b 32 02 65 bd bb 25 51 bd
       -0.0033670536 0.0059948796 -0.055910297 -0.051061373
0002b0 e8 c0 da 3d 91 a0 aa 3d c5 b6 47 3d 80 c7 c9 3c
       0.10681325 0.08331407 0.048758287 0.024631262
0002c0 a7 2f 8d 3e dc 9b 66 3c ef 5f 9c 3d 57 9e b8 3d
       0.27575418 0.014075246 0.076354854 0.09014576
0002d0 7b 05 03 3e be 98 30 3d b4 65 0f 3e 69 85 5d 3e
       0.1279506 0.043114416 0.1400364 0.21632923
0002e0 e1 f0 01 3e 64 7f eb 3d 4e 4b f2 3d aa c0 35 bc
       0.12689544 0.11498907 0.118307695 -0.011093298
0002f0 e8 1f ee 3d 9e 30 35 3e 13 e9 03 3e 69 56 87 3d
       0.116271794 0.17694327 0.1288188 0.06608278
000300 17 c3 8d 3d 15 b8 8d bd 46 16 ba bc 2d e2 32 bd
       0.06921976 -0.069198765 -0.022715699 -0.04367273
000310 6c ae b6 3c 0e e0 d4 3a ed ef f5 3c 05 dc 7a bd
       0.022299968 0.001624109 0.030021632 -0.061244983
000320 69 34 c3 bd ec ae fb bc 0c ef 5f 3d c3 5b 81 3d
       -0.09531481 -0.030723058 0.054671332 0.0631633
000330 01 fa fa bd 20 ad 3d 3d 0b e5 0d 3e ba 43 9e 3d
       -0.12254716 0.046307683 0.13856904 0.077277616
000340 fb 24 c3 3d 10 24 50 3d 7a fd 4a bd a7 4c f6 3c
       0.09528538 0.050815642 -0.04955814 0.030065848
000350 68 f1 77 bd df d5 41 3d af a6 90 bd b9 95 c6 3c
       -0.060532957 0.047323104 -0.07063042 0.024241315
000360 77 e9 bc 3c 16 f1 87 3d f0 1e f5 3a 4c 2a 69 bd
       0.023060543 0.0663778 0.0018701237 -0.056925103
000370 f4 b2 5d bd dc fc 78 3d 4c e6 10 3d 9a d4 83 bd
       -0.05412574 0.06078802 0.03537588 -0.06437035
000380 c9 78 7b 3d ad ba 50 bb 3d 90 5c 3d 88 56 51 bd
       0.061394487 -0.0031849549 0.053848494 -0.051107913
000390 e5 c5 0c bd ab 2b 37 bd b7 d9 e2 bd 3a 4c 91 3d
       -0.034368414 -0.04471938 -0.11076682 0.07094617
0003a0 b6 d1 51 3c 6b 58 08 3e c4 b7 c2 bc 2f 3b c4 3c
       0.012806347 0.13314979 -0.023769267 0.023954002
0003b0 73 22 d4 3c 53 f4 0f bc e6 0c 03 be 3d e6 d0 bc
       0.025895333 -0.008786279 -0.12797889 -0.025500411
0003c0 49 fa 4e 3d cd ba 40 3d 81 e8 da 3c 5b 7f 9c 3d
       0.05053166 0.047053147 0.026722195 0.07641479
0003d0 37 df d5 bd 17 d8 b3 3d 6e 50 a4 bb a5 ac 1f bd
       -0.104429655 0.0878145 -0.005014471 -0.038983006
0003e0 1b 4e e9 bc bd ca 92 bc 57 b9 7f bd 38 77 a3 3d
       -0.028479626 -0.017918939 -0.062432613 0.079817235
0003f0 2f 7a f5 3d c2 44 a3 3d e4 bb 4c 3d 90 d8 37 3d
       0.11986195 0.07972099 0.049983874 0.044884264

layers.0.weight f4 [64, 100]
000000 67 ba 15 3d a6 3b e6 3b 3b e4 44 be 0e 14 05 be
       0.03655472 0.0070261536 -0.19227688 -0.12995932
000010 17 60 5a 3d 60 98 85 3d 76 63 a8 bd 8e d0 06 be
       0.053314295 0.06523204 -0.08222096 -0.13165495
000020 a1 aa eb bd d0 58 33 be bd 01 14 be a5 c0 48 bd
       -0.11507154 -0.17514348 -0.14453788 -0.049011845
000030 55 fc 2a 3d f6 89 70 3e 49 ba 1a 3d 90 65 13 3e
       0.04174455 0.23490128 0.03777531 0.14394212
000040 fa c9 9a 3d ee b4 65 bd 34 55 1f 3e 15 a2 e0 bd
       0.07558055 -0.05608075 0.15559846 -0.10968415
000050 f5 e0 09 3e 2b e1 bc be f1 3d 1b be 24 ec 42 3d
       0.1346472 -0.3689054 -0.15160348 0.047588482
000060 28 cb 07 bd 46 76 6f 3e 57 64 03 be 64 dc c8 bd
       -0.03315273 0.23384961 -0.12831245 -0.09807661
000070 da ee f7 bd 3c 20 c4 bc 21 ec 81 3e 72 5e 86 3d
       -0.12106104 -0.023941152 0.25375465 0.06560983
000080 6e ab 08 3f de b1 07 be cb 07 e6 3c e1 c0 58 3d
       0.5338658 -0.13251445 0.028079888 0.05291832
000090 8f 4d 71 bc bc 64 fc 3d 09 00 ed 3d 7a 06 6a be
       -0.014727964 0.12323901 0.11572272 -0.22854033
0000a0 63 7a 1f bd 32 5f 61 bd 8a 69 8c 3e 65 40 36 3b
       -0.038935076 -0.055022426 0.2742427 0.0027809378
0000b0 3d be b3 3b ba 5e 6c 3d 7f a0 50 bc ee 22 9e be
       0.0054853247 0.057707526 -0.012733578 -0.30886024
0000c0 7f 82 80 bd 26 5d 93 be e5 38 4e 3d 5c 14 ec bb
       -0.0627489 -0.28782004 0.050347228 -0.0072045755
0000d0 17 1e 83 bd 27 5d 3e bb 52 52 06 3e 8e 14 21 3e
       -0.064022236 -0.0029047222 0.1311734 0.15730497
0000e0 44 27 cb bd 58 67 84 bd fb df 03 3e 14 51 48 bd
       -0.09919599 -0.06465024 0.1287841 -0.048905447
0000f0 38 d6 c8 3d 31 a6 15 3d 63 c0 15 3e 19 4e 36 be
       0.09806484 0.036535446 0.14624171 -0.1780323
000100 28 bb d6 3d 91 05 04 bd 2c 80 39 ba 4a 51 8b bc
       0.10484916 -0.03223187 -0.0007076289 -0.017006535
000110 e5 46 77 3d 09 f5 42 bd b0 27 d1 3d 9d 54 10 bd
       0.060370345 -0.047596965 0.10212648 -0.035236944
000120 da 70 21 3c 59 06 2d bd 40 4b 3a be c8 5a 09 bd
       0.009853566 -0.04224238 -0.18192768 -0.03353384
000130 80 20 4f bb fe 36 ee 3d a8 9f 0f 3e 6e 9f 2f bd
       -0.0031605065 0.11631583 0.14025748 -0.042876653
000140 07 10 4e be ec 91 88 3c 8f 96 af bb bb 2d 9b 3d
       -0.20123301 0.016671143 -0.005358524 0.07577082
000150 7e 9f 5a bd a4 a0 a4 3c 9b a2 1b bc c4 c8 10 3e
       -0.05337476 0.02009613 -0.009499217 0.14139086
000160 31 b0 b0 bd 27 62 92 3e 06 3f 0f bd 96 b6 0b 3d
       -0.08627356 0.2859051 -0.034972213 0.034109674
000170 ff 36 81 bd d7 f1 bd be df e0 b9 3d a5 62 42 3e
       -0.06309318 -0.37098572 0.09076094 0.18982942
000180 3f 7f 81 3d 90 18 8b 3d 45 ee 1f 3b 29 ee c2 3c
       0.063230984 0.06791794 0.0024403494 0.023795204
000190 79 89 8c bc 20 90 b3 3d 31 9d 08 be 92 bb 98 3b
       -0.017155396 0.08767724 -0.13341214 0.004661032
0001a0 5e f8 b7 3c 4b 32 2b bd 28 94 0c ba 31 6a f0 ba
       0.022457298 -0.04179601 -0.0005362653 -0.0018342194
0001b0 4c 27 d3 3b f6 d2 5c bd 52 ac ad bb ca f4 d9 bc
       0.0064438935 -0.053912126 -0.005300083 -0.026605982
0001c0 89 23 db 3d 16 7f 09 be 8e 11 df bd 21 01 1b 3d
       0.10700137 -0.13427386 -0.1089202 0.037842873
0001d0 16 29 84 3d 97 7b 01 be c5 f4 cd bc d6 81 ca bd
       0.06453149 -0.12644802 -0.02514113 -0.098880455
0001e0 2a 60 39 bd 52 82 28 3d a9 7e 97 bd 61 e4 82 3d
       -0.045257725 0.041139908 -0.073972054 0.06391216
0001f0 67 e3 ab 3d bb a0 a1 3d 4b 15 36 be 20 5d 67 3d
       0.08392983 0.07891985 -0.1778156 0.056485295
000200 5d 91 07 3d 1b 9a bb 3c 85 31 70 3d 68 4f ea bd
       0.033097614 0.022900632 0.058640976 -0.11440927
000210 5f 99 f4 bd 9b 54 ea bd f4 f8 3c 3e 26 53 f6 3d
       -0.11943316 -0.114419185 0.18454343 0.12027578
000220 3b 65 12 3d 6c 45 0f be 79 56 fc 3d 3e 63 03 bd
       0.035741072 -0.13991326 0.12321181 -0.032077067
000230 94 c4 17 3e cf 87 0e be 17 34 a4 3d 78 ed d7 3d
       0.14821082 -0.13918994 0.08017748 0.105433404
000240 57 04 02 3d 65 c4 ee bd c0 78 1c be c9 83 31 3e
       0.03174242 -0.11658553 -0.15280437 0.17335428
000250 ea b1 a7 bc bb 0f d5 3c da 84 4f bc fc a7 ec bd
       -0.020470578 0.026008477 -0.012665952 -0.11555478
000260 cb 40 01 be b3 0f 1c bd 27 24 59 bd 86 58 a9 bd
       -0.12622373 -0.03810091 -0.053012993 -0.08268838
000270 a2 cc 67 bd ac a0 9a bd 24 ae 6e bc 92 e0 a5 3c
       -0.056591637 -0.07550177 -0.014567886 0.020248685
000280 91 21 f0 bc fc 3c d0 3d 0a cd d2 3d 1d a9 2a 3e
       -0.02931288 0.10167882 0.10293014 0.16666074
000290 2c 8a d3 bd 1a 78 8f 3d a6 56 92 bd 3b e4 29 be
       -0.103290886 0.070053294 -0.07145433 -0.1659097
0002a0 4b d8 d2 bd 65 cb a1 bd 28 47 ce 3d 6b 22 7b 3d
       -0.10295161 -0.079001226 0.10072166 0.06131212
0002b0 15 16 ff bc f2 24 e5 bd 23 88 37 3e 45 a9 82 3d
       -0.03113846 -0.111886874 0.17923026 0.06379942
0002c0 fa 51 e5 3c e8 37 23 bd 94 43 1d 3b 15 08 3c bd
       0.027993191 -0.03984824 0.0023996579 -0.045906145
0002d0 3e c4 4f 3d fd 02 f1 3d a4 b6 12 3e 37 60 44 3d
       0.05072426 0.11768148 0.14327484 0.04794332
0002e0 0d d1 0e 3e b3 9d b0 3d 16 5f 33 3d 3d 7f 3c 3c
       0.13946934 0.08623829 0.043791853 0.011504945
0002f0 19 20 9d 3c f3 17 6e be dd 86 b0 bd d8 5d 41 bd
       0.019180344 -0.23251323 -0.08619473 -0.047208637
000300 7e aa 0c 3c 05 d0 f1 bd 9c 00 81 be 70 f3 a7 bc
       0.00858557 -0.11807255 -0.25195777 -0.020501822
000310 61 b7 03 be c0 cc 67 3d 54 06 0f bd c2 56 cf 3c
       -0.12862922 0.05659175 -0.034918144 0.025309924
000320 6f 9a ae 3d f7 61 63 bb 20 0b 84 bd 27 85 5f 3d
       0.085255496 -0.0034695843 -0.064474344 0.054570343
000330 f0 46 98 3d 5c e8 80 bd 8e 0a ea bd 8a ab a9 bc
       0.07435405 -0.06294319 -0.114277944 -0.020711679
000340 91 65 63 3d 02 7d 18 bd 6b 20 81 bd 1b 76 19 be
       0.055516783 -0.03722859 -0.06305011 -0.1498646
000350 dd 40 63 3c 7e 25 a6 bc 8b dc 0f be d3 09 7e 3d
       0.013870445 -0.02028155 -0.14048974 0.062021088
000360 da 38 b5 3d 49 35 96 bd 06 68 e8 3d 76 7e 12 bd
       0.08848734 -0.07334382 0.11347966 -0.035765134
000370 3d 26 6f 3d 1c 28 bf bd 0e 38 0d 3d 82 5e 19 3b
       0.058386076 -0.09333822 0.034477286 0.0023402278
000380 36 71 87 3b a1 c8 ae bb 5f ae 8f bd 2b 49 d4 bc
       0.004133369 -0.0053339754 -0.070156805 -0.025913795
000390 cc 66 13 bd d5 4d 20 3d 5d 15 2d 3c 11 28 31 be
       -0.035986707 0.039136726 0.010564175 -0.1730044
0003a0 8d 65 02 bc 19 12 11 be af 23 53 3e bd 48 88 ba
       -0.007958782 -0.1416706 0.20619081 -0.0010397654
0003b0 75 0b a1 bd d2 e2 18 bd c8 8c a0 3d 00 44 dd bd
       -0.078635134 -0.037325688 0.07839352 -0.108039856
0003c0 4d 96 41 3e b8 70 b6 bd 44 48 99 3d 20 71 74 bc
       0.18904991 -0.08908218 0.07484487 -0.014919549
0003d0 a4 4d 46 3d 16 34 f9 bd d6 62 9f bd 87 4b 5b 3e
       0.048413888 -0.12168138 -0.07782523 0.2141553
0003e0 45 07 b6 3d 09 65 69 3d fe 9a 71 bd f1 4e 90 3d
       0.08888105 0.05698112 -0.058985703 0.07046307
0003f0 27 e4 d4 3d 34 03 f3 3d 4b 5a f1 bd 20 63 ca 3b
       0.10395079 0.11865845 -0.117848 0.0061763674

layers.0.bias f4 [64]
000000 4b 98 a8 3d 2d 73 a0 bd e9 ac 4f bd d1 93 b2 bc
       0.082321726 -0.07834468 -0.05070201 -0.021799
000010 be 0f 8c bd dd e6 89 bd ae a9 20 be ab 51 ce 3d
       -0.0683894 -0.06733487 -0.15689728 0.10074171
000020 37 ea e9 bb c1 09 cb 3d 1d ca 6a 3c 92 88 10 bd
       -0.0071385163 0.0991397 0.014330414 -0.035286494
000030 b6 73 18 3c 98 96 97 bc da c9 f4 3c b5 ab 53 be
       0.009304931 -0.018504426 0.029881407 -0.2067097
000040 17 1c ae bd aa 01 ab 3c a4 2c da bd 19 cf e0 bd
       -0.085014515 0.020874817 -0.10653046 -0.10977001
000050 76 6f 04 be f6 99 04 3e 79 1e 48 3d 8c 98 b1 bc
       -0.12933144 0.12949356 0.048857186 -0.021679185
000060 b6 57 05 3d 81 67 48 bc 7a 3b 4d 3d 09 f1 81 bd
       0.03255435 -0.0122317085 0.05010555 -0.06344802
000070 87 da 88 3d 1c 20 1b bd 49 ee a8 bc e3 d4 24 3e
       0.06682306 -0.03787242 -0.020621436 0.16096835
000080 fe 17 13 bd 18 d0 ac bd 02 ac b8 bd ce 6b cd bd
       -0.035911553 -0.08438128 -0.09017183 -0.10030328
000090 fc fb 1e be e3 55 a6 bd 63 cf 23 bd 57 01 bb 3d
       -0.15525812 -0.0812185 -0.0399927 0.09131115
0000a0 85 6b 69 bc 12 42 fa bc 7e 05 f6 bd b1 d8 7d bd
       -0.014246826 -0.030549083 -0.12012766 -0.06197423
0000b0 0f 6d 32 3c 2b c4 69 bd 0c b7 08 be 18 5f 8f 3d
       0.010890259 -0.057071846 -0.13351077 0.070005596
0000c0 29 6f 0e be 0c 8e 2c bc 7c c2 16 3d c8 2a 91 bd
       -0.13909592 -0.0105319135 0.03680657 -0.07088238
0000d0 f4 f8 8c bd a1 81 eb bd a8 58 3d 3c c1 80 c9 bd
       -0.068834215 -0.11499334 0.011556782 -0.09839011
0000e0 3a 08 66 3c 8f 47 07 bd 0f 5a 89 bd cf 77 16 bd
       0.014040047 -0.033027228 -0.067066304 -0.036735352
0000f0 98 35 24 be 0e 7e e3 3d f1 82 a4 3d 50 ba 96 bd
       -0.1603607 0.111080274 0.080327876 -0.07359755

layers.2.weight f4 [64, 64]
000000 64 be 9f 3d ae e0 dc 3d 40 87 ab bb 03 d1 8c bc
       0.07799986 0.10785042 -0.005234629 -0.017189508
000010 81 57 9b 3e da 55 fb 3d 45 49 80 3d c8 03 11 bd
       0.30340198 0.12272234 0.06263975 -0.035403997
000020 ac b8 f1 bd 38 51 13 bd 2f 59 ae 3d 06 3f 3c be
       -0.118028015 -0.035966128 0.08513104 -0.18383417
000030 20 f0 69 3d 8e 3d d4 bd 7b ab 3e 3e df 66 3c 3d
       0.057113767 -0.10363303 0.18620102 0.045996543
000040 00 5e f4 3d d3 bb 0a be 7f 7e 33 bd ca 25 b7 3d
       0.119319916 -0.13548212 -0.043821808 0.089427546
000050 82 d9 b2 bd de 0d c8 bd bb 3c 55 bd df 89 7c 3e
       -0.087328926 -0.0976827 -0.05205987 0.24661969
000060 f4 76 35 3d d3 8b 5d 3e ec de df bd 15 b5 12 39
       0.044302896 0.2163537 -0.10931191 0.00013991103
000070 ca d1 01 be e1 b0 ae 3d 9a 6b f1 3d b1 8a 84 3d
       -0.12677684 0.08529831 0.117881015 0.06471766
000080 7e 92 8f bd a0 a9 9f 3e 00 09 0b 3c bd e2 ba bd
       -0.07010363 0.311841 0.0084860325 -0.09125278
000090 ec 1b 26 3d f3 d4 27 3c b2 59 fb bc 24 d3 1d 3e
       0.040553972 0.010243642 -0.030682418 0.15412575
0000a0 f4 93 64 bd 47 03 e1 3d 3d bb 17 be 4b 29 7c bd
       -0.05580516 0.10986953 -0.1481752 -0.061562818
0000b0 8a 25 c2 bd 6a 71 cc 3d d1 63 5e be ce 87 6c 3d
       -0.09479816 0.099825695 -0.21717764 0.0577467
0000c0 cc 33 e3 bd 0f a3 a4 3d bc 10 2b 3d 34 dc 54 3e
       -0.11093864 0.080389135 0.041764006 0.20787126
0000d0 c1 ea 10 3e 02 f6 6c bd ae 92 0d 3e 41 57 69 bd
       0.14152052 -0.0578518 0.13825485 -0.056967977
0000e0 9a 37 94 bc 62 e5 b0 bd 00 4a 03 be 25 cf 39 3e
       -0.01809292 -0.08637501 -0.12821198 0.18145426
0000f0 fb fc 2c bc df 41 95 bc 44 54 87 3d 2a 70 43 bd
       -0.010558362 -0.018219886 0.06607869 -0.04771439
000100 cf 4e 24 3d 33 c8 f6 bd fb 1c 10 bd 2d 3c 7a 3d
       0.04011422 -0.12049904 -0.035183888 0.061092544
000110 f3 46 e8 3d 56 7f 1d be 67 c6 d0 bd 5b 05 2d bd
       0.113416575 -0.15380606 -0.10194092 -0.042241435
000120 fd 29 ae 3d d7 d8 4f bc 4d 1e fd bd 63 92 e7 3d
       0.085041024 -0.012685976 -0.12359295 0.11307218
000130 bd c6 0c 3e ea 31 06 be 22 a8 cd 3d 18 81 f6 bd
       0.13747688 -0.13104978 0.100418344 -0.120363414
000140 1a bd 5d bd d1 81 68 bd dd 36 4c 3e 3e c4 df 3d
       -0.05413542 -0.056764428 0.19942804 0.10926102
000150 be 60 67 3a ec 59 6f bd 3f 9b 85 bd ae 84 76 3c
       0.00088263664 -0.058435366 -0.065237515 0.015046282
000160 a5 61 e0 3b de 05 8c 3d c3 23 f0 bd c5 df c8 bd
       0.0068475776 0.068370566 -0.11725571 -0.09808306
000170 c8 24 57 3c f5 80 a3 3d 09 79 c5 3d d9 8c 98 bc
       0.013131328 0.07983581 0.09642226 -0.018621849
000180 7f 05 b3 bc c3 16 26 3e 7b 93 f7 bc 39 1c b3 bd
       -0.021853207 0.1621962 -0.030221691 -0.087456174
000190 a5 99 97 bd 7f 2c 17 3e 4d 22 b1 bc 12 86 ed bc
       -0.07402352 0.14763068 -0.021622801 -0.028994594
0001a0 24 76 d7 bd fc 0c b9 bc 68 e5 b2 3d e6 d5 92 3d
       -0.105205804 -0.0225892 0.08735162 0.07169704
0001b0 69 eb bd bd 06 4b c5 bd ee cc d4 bd 20 1f 25 bd
       -0.092734165 -0.0963345 -0.1039065 -0.040312886
0001c0 34 5e 80 bd 86 22 48 3d f5 24 5e 3d 77 be 07 3d
       -0.06267968 0.04886105 0.054234464 0.033140626
0001d0 b6 d2 be 3d 6d 6c 3e 3d 95 99 44 bd 31 d9 83 bd
       0.09317534 0.04649012 -0.04799803 -0.0643791
0001e0 6f 3b 39 bd b6 12 ab bd 47 88 5a bc 81 b1 ae 3c
       -0.045222696 -0.08353178 -0.013338155 0.021324875
0001f0 e0 56 a6 3d cb 46 de 3c 8a 50 73 3d 4c fe 59 3d
       0.08122039 0.027133366 0.05940298 0.053221032
000200 ac 18 b1 bd 3e 6b 04 3e 80 2b 2d 3c 22 2f b3 bc
       -0.08647284 0.12931535 0.010569453 -0.02187306
000210 f5 86 db 3c cc e7 cb 3d 03 cd 6f bd 43 74 88 3d
       0.026797751 0.09956321 -0.058545124 0.066628
000220 5f 2f 50 3e a2 66 68 be 91 2e 0d be 2d 01 2e bd
       0.2033057 -0.22695401 -0.13787295 -0.04248159
000230 15 c3 ad bc dd a9 11 be d5 b6 38 bd 30 0a bc bc
       -0.021211186 -0.14224954 -0.045096237 -0.022954077
000240 e5 78 cd bc 04 24 89 3d 0c 23 2f 3e cf 66 38 bd
       -0.025082061 0.066963226 0.17103213 -0.04501992
000250 6e 18 87 3d 88 6a 94 3e 54 96 c1 bd 92 84 0d be
       0.065964565 0.28987527 -0.09452501 -0.13820103
000260 c3 9c 42 bc 2b f9 b2 bc ae 5a 2a be 0d 45 75 3e
       -0.011878195 -0.021847328 -0.16636154 0.23952122
000270 33 bd 3f bd 37 ee d5 3c f0 78 df bc 8c 2e 3a be
       -0.046811294 0.026114566 -0.027279347 -0.18181819
000280 ce 59 c9 3c 9a 64 2a bd 76 4d b5 bc 75 95 d9 bc
       0.024578955 -0.041599847 -0.022131663 -0.026560524
000290 07 d2 94 bc 82 f6 ed bd d6 ad 89 3d ea d2 e4 bd
       -0.018166555 -0.11619283 0.0672261 -0.11173041
0002a0 1d d1 dc 3c 5d 21 10 be 6a 57 af bd f5 03 42 bd
       0.026955182 -0.14075227 -0.08561595 -0.047367055
0002b0 30 51 eb bd 41 0a 12 3d 8e 36 a3 bd c5 e0 71 be
       -0.11490095 0.03565431 -0.0796939 -0.23620899
0002c0 b7 f8 ae 3d d9 2b 9b bb b4 e1 e1 bd b3 34 a5 bd
       0.08543532 -0.0047354517 -0.110293776 -0.08066692
0002d0 70 9b 26 bd f4 c1 94 3d f3 d2 6a 3d 8d e3 0e 3e
       -0.04067558 0.07263556 0.057330083 0.13953991
0002e0 7e 71 f6 bc 4a 85 cc bc 2d 89 ca 3d 97 1c 1f be
       -0.030083414 -0.0249659 0.098894455 -0.1553825
0002f0 98 49 22 be a3 7e ae bd 5e 7c da bc 38 fb b9 3d
       -0.15848386 -0.08520248 -0.026670631 0.09081119
000300 45 a2 29 3e 3a db e4 3d eb d0 96 bd de 78 16 be
       0.16565807 0.11174627 -0.07364067 -0.14694545
000310 14 fc 79 3e 5d bf 17 3e 25 a5 12 3e 5a 58 66 3e
       0.24412566 0.14819093 0.1432081 0.22494641
000320 3d 09 4e bc ac 48 83 3d 04 db 86 3e 25 ab 7d be
       -0.012575445 0.064103454 0.2633897 -0.24772318
000330 ed 25 86 be ef 01 5e be f4 1e 13 3e e2 c4 cd 3c
       -0.2620081 -0.21680425 0.14367276 0.025118295
000340 f3 2b 9d bc ce c3 e2 3d 87 0d 14 bd c9 68 89 3d
       -0.019185996 0.11072503 -0.036145713 0.06709439
000350 c6 89 bd 3d 7e 3e 80 be 99 81 fc 3d 89 1e 34 3e
       0.09254794 -0.25047678 0.12329406 0.17589773
000360 93 fe 2c 3c 99 56 ef 3d 5e 9f 80 3e 45 8c 29 bd
       0.010558742 0.11686439 0.25121588 -0.041393537
000370 fb 13 28 bb b4 3e 1e 3e cb 54 09 bd 51 ab af 3e
       -0.0025646675 0.15453607 -0.03352813 0.34310392
000380 3c af 4a be c5 2b 1a 3e 0d 5b 06 3e a5 25 1b 3e
       -0.19793409 0.15055759 0.1312067 0.15151079
000390 6d 29 99 bd f3 37 61 bc 69 95 69 bd 1d d9 1d 3e
       -0.074786045 -0.0137462495 -0.057027254 0.15414853
0003a0 1b a6 ff 3d 8a 64 07 be a3 fd 1c 3b ca ec 33 3d
       0.12482854 -0.13221946 0.002395489 0.04392699
0003b0 be e5 29 3d f7 7f 2d 3c 8e b0 3c be 9f 56 78 3d
       0.041478865 0.010589591 -0.18426725 0.060629483
0003c0 b2 52 41 be 96 c6 84 3c 0f 7e b0 b9 3f 00 b4 3c
       -0.18879202 0.016207974 -0.00033663257 0.021972774
0003d0 d5 96 4d 3b 30 13 ce 3d 97 1e 80 3e f7 b2 d2 bd
       0.003137042 0.100622535 0.25023338 -0.10288041
0003e0 ce 76 c0 bd 5e 93 25 be aa 90 72 bd 19 a8 7a 3d
       -0.0939766 -0.16169497 -0.059219994 0.061195467
0003f0 94 da 13 be 3d 61 f5 3c 83 e3 93 3d d5 31 e0 bd
       -0.1443885 0.029953593 0.07221129 -0.10947005

layers.2.bias f4 [64]
000000 6c c6 05 3d 48 77 3d be 14 8f 72 3d 32 bb 43 bc
       0.032659933 -0.18502533 0.05921848 -0.011946486
000010 33 0b 90 bd 59 80 93 3d d9 d1 96 3d 1e 45 2a be
       -0.07033386 0.07202215 0.07364244 -0.16627929
000020 60 02 27 bd fe a6 ae 3c 60 de 3e 3c 5a a1 9b 3d
       -0.04077375 0.021319862 0.011649698 0.07599135
000030 27 15 05 3e 59 17 e4 3d c5 67 38 be 3d 3e 1f bd
       0.1299635 0.11137266 -0.18008335 -0.038877714
000040 a5 bb 0f 3e 98 dc 10 bc dd 8c e4 3c 18 0b 04 3e
       0.14036424 -0.008841656 0.0278992 0.12894857
000050 78 11 10 be c6 be 97 3d f1 33 30 3e 78 96 45 3c
       -0.14069164 0.07409434 0.17207314 0.0120598
000060 3d 8a 46 3d da a6 45 bd 00 ea cd 3d ff fd 03 bd
       0.048471678 -0.048254825 0.100543976 -0.03222465
000070 3a e9 1b 3e 7d 97 78 3d 16 a6 e7 bc b0 5a dd bd
       0.15225688 0.060691345 -0.028277438 -0.10808313
000080 e8 73 57 3d 78 62 dc 3d f5 c1 64 bd e4 11 c0 bd
       0.05260077 0.10760969 -0.055849034 -0.09378412
000090 1e 9d 90 bd 3f 2c f5 bd bc 45 d2 3c 49 92 21 3b
       -0.07061218 -0.1197133 0.025668018 0.0024653843
0000a0 1e 14 62 bc c3 36 4d bd 69 97 95 3d af 03 ff bd
       -0.013798742 -0.050101053 0.0730427 -0.124518745
0000b0 0d fc 91 bd 96 9a ab bc f3 3b e8 bc 54 a1 cc bd
       -0.07128153 -0.020947736 -0.028348899 -0.099917084
0000c0 f6 90 af 3d b1 c0 5a 3d 34 ce eb 3d 14 92 6a 3d
       0.08572571 0.05340642 0.115139395 0.057268217
0000d0 12 fb 01 bd da 6b d5 bd f5 b8 c9 bc 7c 3e 16 bd
       -0.03173358 -0.10420962 -0.024624327 -0.036680683
0000e0 43 fb d1 3c 8d b7 bd bd a1 05 74 3b 23 bc 3d 3e
       0.025632506 -0.09263525 0.00372348 0.185288
0000f0 8c 41 4c 3d 0f ca 5f 3d 38 5e 85 bb f8 3b 29 3b
       0.049867198 0.054636057 -0.0040700696 0.0025823098

lin.weight f4 [1, 64]
000000 88 e2 0c 3d 48 f8 8b 3b 3f d7 be bd e5 3f 1d 3e
       0.034395725 0.004271541 -0.09318399 0.15356405
000010 a3 2b a0 bd 88 80 c0 be 72 33 87 3d 5b 30 fb 3b
       -0.07820823 -0.37598062 0.06601609 0.0076656765
000020 ed c6 b8 bd d2 ed 3b 3d f8 f1 0c 3e 19 ba 2c 3e
       -0.09022317 0.0458811 0.13764179 0.16867866
000030 eb 6a 10 3e a4 cc be 3d 9e 87 4e bd 9e 38 46 3d
       0.14103286 0.09316376 -0.050422303 0.048393838
000040 7c aa 8d 3d 74 fc 3c be 6f 71 8c bd f7 ef 47 3e
       0.06917283 -0.18455678 -0.06857573 0.19525133
000050 3b 70 0f bd 8e 66 00 3e b1 ab 67 3e 09 99 fe bd
       -0.03501914 0.12539122 0.22624089 -0.12431533
000060 99 e8 19 be fb 39 2c bc e8 8e 9d 3d 06 70 6c bd
       -0.15030135 -0.0105118705 0.07693273 -0.05772402
000070 36 ed ed 3d e7 a8 0f bd ba ad 99 bc 34 90 30 3d
       0.1161751 -0.035073187 -0.018759597 0.043106273
000080 dd 23 03 3e ec 7d 45 3d a4 4c 1f 3d d1 7d 03 3d
       0.1280665 0.04821579 0.03889145 0.03210241
000090 9b 9b 39 3c c1 2b 8d ba c4 6c a8 3b 3f 5d 13 3e
       0.011328603 -0.0010770486 0.005139919 0.1439104
0000a0 8c 3f 44 3c fa e9 48 3c 3e 4c 8d 3e ea 8c e9 3b
       0.011978041 0.012262816 0.2759723 0.007127394
0000b0 51 56 f7 3d 8b f6 01 3d e7 b7 20 be 05 48 9d 3c
       0.120770104 0.031729262 -0.15695153 0.01919938
0000c0 a8 b2 bd 3c e4 a7 e1 3c bc 16 bb 3d 99 c0 fa 3d
       0.023156479 0.027545877 0.091351956 0.12243766
0000d0 08 1f 63 3c 0a ba 14 3d d7 4a 0f be ac 3b 98 3c
       0.013862379 0.036310233 -0.13993393 0.018583141
0000e0 d5 51 b4 be 50 c4 f8 3c 0e 25 ec 3d 67 11 e6 3d
       -0.35218683 0.030367047 0.11530505 0.11233788
0000f0 7f 52 e4 bc 0e ce 66 bd d4 71 bf bd b4 10 00 3d
       -0.027871368 -0.056348853 -0.09347883 0.03126593
