model.pth (torch_old, 270641 bytes, 7 tensors)

lstm.weight_ih_l0 f4 [400, 50]
000000 20 80 54 be 00 84 ed be 88 72 18 3e a5 ce c7 be
       -0.20752001 -0.4638977 0.1488744 -0.39024845
000010 1f 3c 27 bf c4 99 d3 3e ef ed 6e bd 69 24 4b 3f
       -0.6532611 0.4132825 -0.05833238 0.7935243
000020 e7 c4 9a bd ca 54 12 3e bb 63 6a 3e 88 67 84 3c
       -0.075570874 0.14290157 0.22889607 0.016162649
000030 63 57 e5 3e a7 41 17 3e 7f 96 93 3c 9d 1e 28 bc
       0.44793233 0.14771138 0.018016098 -0.010261205
000040 0b 0c 42 bf f9 23 59 bf 8d 8b c6 3d e5 3c ca bc
       -0.75799626 -0.84820515 0.09694586 -0.02468724
000050 41 39 ec 3c 17 cb 27 be be bc 32 3d 1b d8 1f 3e
       0.028835895 -0.16386066 0.04363703 0.15609781
000060 69 15 cd 3c c6 a5 d3 3d cc 10 3f bd fe 3e 4b 3e
       0.025034623 0.10334353 -0.046646878 0.19848248
000070 92 08 45 be ca bf 7c 3c b7 12 1d bc 18 9b 0b 3e
       -0.1924155 0.015426585 -0.0095869815 0.13633382
000080 ca 31 19 3e 3b fb 83 bd ba 9c f9 bc bc 7e 2b bf
       0.149604 -0.06444403 -0.03047024 -0.66990256
000090 40 0a 03 3f c0 25 d4 be d3 8a 5e be 35 3c 88 be
       0.51187515 -0.4143505 -0.21732645 -0.26608434
0000a0 1d 23 d4 3e 14 31 01 be f2 35 ac be ea 13 a5 3e
       0.4143304 -0.12616378 -0.33634907 0.32241756
0000b0 e8 a3 b6 be 7e da 73 bf c2 24 0b 3f ba c3 48 3f
       -0.35671926 -0.9525527 0.5435296 0.78423655
0000c0 80 79 5f be c9 38 c5 3e 34 ec 13 bf cb ca 19 3d
       -0.21823692 0.38519886 -0.5778229 0.037546914
0000d0 70 bc 50 3e 52 d7 1b be 51 ed 71 be 57 2d cf be
       0.20384383 -0.15218857 -0.23625685 -0.4046428
0000e0 b5 57 74 3c f4 be 75 3e d0 08 63 3e 79 22 0a 3e
       0.014913489 0.23998624 0.2217133 0.13489713
0000f0 70 f2 df be d1 aa e6 3d 03 a5 d3 3d 75 13 cd 3d
       -0.43739653 0.112630494 0.10334208 0.10013477
000100 20 a1 00 bd 8d 4a ed 3d 6c 78 4a 3e 3e d5 04 bd
       -0.03140366 0.11586485 0.197725 -0.032429926
000110 76 e5 91 3e 33 f0 d7 bd 1b 59 46 be e5 ca 22 3d
       0.28495377 -0.10543861 -0.19369929 0.039744277
000120 47 9e ec 3d 70 3c 4f 3e 02 24 8e 3d c9 6a 33 3e
       0.115536265 0.20237899 0.06940462 0.17521204
000130 23 2a ce 3d 7d 7e 9c 3c a1 d7 3e bd be 09 b1 bd
       0.10066631 0.019103283 -0.04659236 -0.08644436
000140 55 e1 90 be b9 49 6f 3e 3f f4 95 3e 7d d9 82 bc
       -0.28296915 0.23367967 0.29287907 -0.015972847
000150 4e e6 09 3c e2 fa 94 3e c4 60 30 3c 3f d2 af 3d
       0.008416725 0.29097658 0.010765258 0.08585023
000160 b8 af 5e be 93 17 74 be 26 27 e6 bd d4 52 4d 3e
       -0.21746719 -0.23837118 -0.11237936 0.20051128
000170 22 ee 84 3d c1 3f 37 3e c5 f4 ad 3e 23 87 aa be
       0.06490733 0.17895414 0.33975807 -0.33306226
000180 54 83 d0 3d 01 aa 71 bd 5a c6 00 3e b1 61 5d 3e
       0.10181299 -0.05900002 0.12575665 0.21619298
000190 d8 b2 60 3d 9e b5 fb bd c1 cf 5b 3d 41 0b 47 be
       0.05485806 -0.122905 0.053664926 -0.19437887
0001a0 19 44 8b be ff 54 4d bd bb c5 56 be 1a 2d 97 3e
       -0.27200392 -0.050129887 -0.20973866 0.29526597
0001b0 89 53 8b 3e 60 38 ab be 8b d3 83 bd 19 cc 8f be
       0.2721217 -0.33441448 -0.06436833 -0.28085402
0001c0 c7 bd e1 3e a0 47 33 bf fa f9 a8 3e 02 a6 ed bd
       0.440901 -0.70031166 0.33003217 -0.11603929
0001d0 ef 91 1b be e6 75 27 be 7a 3e 5f bd 18 7f 3f 3d
       -0.15192388 -0.16353568 -0.05450294 0.046752065
0001e0 7a 90 c1 bd 51 99 02 be ec 78 1d 3d 6d 1b 12 bf
       -0.09451385 -0.12753798 0.0384454 -0.570731
0001f0 a3 4c a7 be 11 ef 64 3d 5b df 0f 3e 3f 41 c0 bd
       -0.32675657 0.055892054 0.14050047 -0.09387445
000200 85 1c 81 3e f6 71 db 3d da 19 a4 bc 51 68 d5 3a
       0.2521707 0.10715096 -0.020031858 0.0016281699
000210 49 21 99 be 8f dd 5b 3c a9 79 4d be 1f ca f5 bc
       -0.29908207 0.013419523 -0.20065941 -0.030003605
000220 ae 1a 7f bc 9d d9 5f bf 19 e9 b2 3e de cd a8 3c
       -0.015570326 -0.87441427 0.34943464 0.020605978
000230 ea 7f ae be 45 98 51 be d9 eb 9f 3e 73 5c de 3e
       -0.34081966 -0.20468242 0.31234625 0.43429908
000240 a8 34 21 3e 4b fe 49 bf 00 34 07 bf 77 a5 a5 3e
       0.15742743 -0.78903645 -0.5281372 0.32352802
000250 fa 4c 7b be ca 77 98 be 66 8b 93 3d 13 e4 02 be
       -0.24541083 -0.29778892 0.072043225 -0.12782316
000260 a2 17 a5 bb ae c4 7d be 2c 05 55 3c 0b f1 35 3e
       -0.0050382176 -0.24782059 0.013001721 0.17767732
000270 ac c0 b5 3d 38 98 39 be af f4 3c 3d 85 d8 32 3f
       0.0887464 -0.18124473 0.046131786 0.6986163
000280 6f b3 9a 3e 99 15 bb bd 25 f3 79 3e 27 0e 4e bd
       0.30215022 -0.09134979 0.24409159 -0.050306465
000290 d6 79 ed bd 10 95 58 3d d5 c0 6b 3e 27 5e 5a 3e
       -0.11595504 0.052876532 0.23022778 0.21324979
0002a0 77 37 bc 3d b3 0a e8 bc 0e 2c 54 be 23 f4 f7 bb
       0.091902666 -0.028325414 -0.2071993 -0.007566945
0002b0 e6 2a 38 be c5 10 f0 3d 11 69 21 bd 09 1f fd 3d
       -0.17985114 0.117219485 -0.03940684 0.12359435
0002c0 52 6e f9 3d 23 7a 9f 3e aa e0 15 3e 71 53 45 3e
       0.12179245 0.3114787 0.14636484 0.19270112
0002d0 95 6c 5b bd 21 08 ec 3d 1e 37 7c 3e 04 ab 4d bb
       -0.05357035 0.11524988 0.246304 -0.003138245
0002e0 dc d3 07 3e 27 aa a0 3e 6c 44 8b 3a ea ba 02 3e
       0.13264412 0.31379816 0.001062525 0.12766615
0002f0 15 b1 15 3e 49 6d 85 3d d9 6d c0 bd b4 5a 3d 3e
       0.14618333 0.06514985 -0.09395952 0.18491632
000300 66 0f 2b 3e 3d 70 22 3e dd 1b 3d be 7a d4 3b be
       0.16705093 0.15863128 -0.1846766 -0.18342772
000310 fc 30 98 bd ed fd a7 3d 87 89 a6 3e 0b 41 b1 bd
       -0.07431218 0.082027294 0.325268 -0.08654984
000320 4c 2f c5 3d 01 b8 6d 3c cb b1 d2 bd 12 9f 32 3e
       0.09628162 0.014509202 -0.102878176 0.17443493
000330 12 f6 fa 3e cc 04 9d be 52 c5 20 3f 47 20 fc 3e
       0.49015862 -0.30667722 0.62801087 0.49243376
000340 bc 61 11 3f b1 c6 81 3e 01 38 ed 3d d3 2e bc 3e
       0.56789756 0.25346902 0.115829475 0.36754474
000350 a0 05 6c 3f 74 14 a2 be 7d 06 16 3d 3b 52 ed bd
       0.92196083 -0.3165623 0.03662728 -0.1158795
000360 10 aa 3a 3e e7 98 17 3e a0 09 88 bc c0 cf 0d 3d
       0.18228936 0.14804421 -0.016606152 0.034621954
000370 24 a3 5c 3a 2a b2 55 bf f7 92 3a 3f f6 3e 7b be
       0.0008416644 -0.8347498 0.728805 -0.24535736
000380 46 e1 3c be 76 f3 89 bd 9d 2c a6 3e bf e6 63 3e
       -0.1844531 -0.067358896 0.32455912 0.22255991
000390 09 c6 99 3d 02 ea e3 3e b4 be 7b bd 06 90 34 3c
       0.07508475 0.4451447 -0.061461166 0.011020666
0003a0 b3 a1 44 3d fa dc 0a 3e 68 b2 63 be d1 60 ef bb
       0.04800577 0.13560858 -0.22236025 -0.0073052426
0003b0 32 39 49 3d 02 9d 0c 3c 11 ff c5 3c a5 b1 21 bf
       0.04912681 0.008582355 0.024169477 -0.6316169
0003c0 46 7d 02 3f 96 0a 96 bf d1 79 ad 3e 94 5d 0f 3e
       0.509724 -1.172198 0.33882 0.14000541
0003d0 96 f4 2d 3e 8d 50 40 3f 8f 39 0a be 49 9f 5d 3f
       0.16987833 0.7512291 -0.1349852 0.86571175
0003e0 f0 6b 07 3f 48 b7 41 3e 84 0b 9d bd 4a ae a1 bb
       0.52899075 0.18917572 -0.07668212 -0.004934107
0003f0 08 8f d6 bd 52 cc a8 bd 18 43 bb bd 59 83 33 3d
       -0.104765 -0.08242096 -0.091436565 0.043826435

lstm.weight_hh_l0 f4 [400, 100]
000000 ff dd fa bc e9 10 07 3d 32 35 e8 3d 63 16 47 be
       -0.030623434 0.03297511 0.11338271 -0.19442134
000010 3d e5 b5 3e 14 a0 19 be 04 23 f4 bc 8e 3b f7 3e
       0.35526457 -0.15002471 -0.029801853 0.48287624
000020 02 63 24 bd 32 f5 36 be 32 aa bf bd 72 a0 29 3d
       -0.040133484 -0.17866972 -0.09358634 0.04141278
000030 3a 70 c9 bc 63 32 2e be c4 ba 3a be 1d 10 96 3e
       -0.024589647 -0.17011409 -0.18235308 0.29309168
000040 42 ea b2 3d 13 be c0 be c3 14 90 3e 5d 80 06 3e
       0.087360874 -0.37645015 0.2814084 0.13134904
000050 1c 0f 72 bd dd 73 11 3c bb 8c 70 3e 46 6c 94 bd
       -0.05909644 0.008877722 0.23491184 -0.07247214
000060 3c 12 6f bc 19 59 8c 3d 3c 6e 44 3e 4f 3c 28 3c
       -0.01459175 0.068529315 0.19182676 0.010268285
000070 a0 b3 87 bc 54 a6 11 3d 91 08 34 bd 3a af 86 bc
       -0.016565144 0.035559013 -0.043953482 -0.016440976
000080 11 1c a3 bd 72 7b 07 be 3c 0a 1a be e8 8d 6b be
       -0.079643376 -0.13230684 -0.15042967 -0.23003352
000090 ae a0 c9 3d bc 73 3c bd 41 e4 bc 3e 03 7e 93 be
       0.098451 -0.04600881 0.36892894 -0.28807077
0000a0 ef 11 13 3e 51 25 5d bd 11 6b 80 3d 06 bc 9a bd
       0.1436231 -0.053990666 0.06270421 -0.07555394
0000b0 78 97 dc 3d 91 9a 1c 3e 03 44 3b be 2e 07 c2 3d
       0.10771078 0.15293337 -0.18287663 0.09474026
0000c0 e5 2d 19 3d 63 ed 21 3e 73 72 67 bd bc cc 8f 3d
       0.037397284 0.15813212 -0.05650563 0.07021472
0000d0 bf de 86 be ba f5 0a 3e 4c 84 1f be 2d f6 ba 3d
       -0.26341817 0.135703 -0.15577811 0.091289856
0000e0 58 02 18 be 8d 3f ee 3c 8a d6 e8 3d b5 0f 99 3c
       -0.14844644 0.029083038 0.11369045 0.018684248
0000f0 9e cd f9 bd ce c1 3a 3e 31 42 ba 3d d7 3e 7c bd
       -0.121974215 0.18237993 0.09094656 -0.061583366
000100 11 1d ca be 54 52 33 bd 64 06 a8 bd 04 47 0a 3e
       -0.394753 -0.043779686 -0.08204344 0.13503653
000110 bc cd 5b be 95 01 ee bd 27 85 29 be 6f 59 9f bd
       -0.214652 -0.116213955 -0.165547 -0.0778073
000120 00 f2 bd 3e 2a 81 8e 3d 6c f0 13 be fd 8b d3 3d
       0.37098694 0.0695823 -0.14447182 0.10329435
000130 29 3f fd 3e c5 02 00 3c 6b 40 17 bd 0e e0 05 3f
       0.4946225 0.00781316 -0.036926668 0.52295005
000140 fd ea de bd 1f 61 18 3d 72 6c 20 3c 9c 4c 77 bd
       -0.10884664 0.037201997 0.00979148 -0.060375795
000150 49 6d 53 be 5f 97 0e 3e d8 7d da be 76 c7 30 bc
       -0.20647158 0.13924931 -0.42674136 -0.010789743
000160 bd a7 16 be ce 4d 76 bb 00 35 72 bd 2d 31 09 bb
       -0.14712425 -0.0037582996 -0.059132576 -0.0020933852
000170 5a 88 c5 3e 67 ad 1b be f9 eb 28 be 9c 4a b7 3d
       0.3858059 -0.15202866 -0.16496266 0.089497775
000180 b0 c2 5b bd 4f 58 fd 3d 2c f8 20 be a1 0c ae 3c
       -0.053652465 0.12370359 -0.1571967 0.021246256
000190 4b 69 13 3e da e1 2a be ef 93 88 3e 9d 88 d6 bd
       0.14395635 -0.16687718 0.26675364 -0.10475276
0001a0 ea 59 d6 3d 85 8b 31 be 62 ba 9b 3e 95 86 f1 3d
       0.104663685 -0.17338379 0.30415636 0.117932476
0001b0 90 d9 8f 3e 2b 5f 26 be ff 6b ac 3d d4 f2 97 3d
       0.28095675 -0.16247241 0.08419036 0.07419363
0001c0 f4 56 af 3c 3b 68 09 be 7d 50 95 be 2b 51 8a 3d
       0.021403767 -0.13418667 -0.2916297 0.06753763
0001d0 c8 33 5b 3e 08 04 8a be 8c 91 8c bc 68 4b 9f bc
       0.21406472 -0.269562 -0.017159246 -0.019445136
0001e0 38 0a 17 be 8d a4 f1 3c 45 8b c1 3e f1 53 8b be
       -0.14749992 0.02949741 0.37801567 -0.2721248
0001f0 41 68 ab bd e9 6f b0 bd 5d 74 fb 3c bb 10 a9 be
       -0.08369494 -0.08615095 0.030695135 -0.33020577
000200 31 db 33 3e 23 f1 07 3b 31 26 48 be e9 bb 7c 3e
       0.17564084 0.0020743094 -0.19545819 0.24681057
000210 a9 9a f5 be dd 7f 07 3e 4a 8c 81 be 09 43 21 3e
       -0.4796956 0.1323237 -0.25302345 0.15748228
000220 3f 51 5b 3d 73 4d 86 bd f9 09 0b 3e cd dd 4f be
       0.05354428 -0.06557741 0.13578023 -0.20299454
000230 a6 db 9a bc 3d af 9d be f0 22 9a 3e 7f 3c 08 bd
       -0.018903565 -0.3079776 0.3010478 -0.03326082
000240 82 31 0b 3e 4a 1a 40 3e b5 2e 03 be bb 64 33 3d
       0.13593104 0.18760028 -0.12810786 0.043797236
000250 cc 16 31 bd 41 cd 0c 3e 71 88 ba 3c 1c 68 14 3e
       -0.04323463 0.13750173 0.022770138 0.1449284
000260 54 f9 c2 bd 13 74 08 3e 2f 68 5e be 38 ae 6e be
       -0.09520212 0.13325529 -0.2171943 -0.23308647
000270 57 40 64 be 53 9f c8 3c 25 19 b4 3e 78 07 b4 bd
       -0.22290169 0.024490034 0.35175434 -0.08790487
000280 a3 09 85 be d0 97 a8 bc a8 4a 77 3d 34 7f 2e be
       -0.25983915 -0.020580202 0.060373932 -0.17040712
000290 cd c4 b7 3d 6a 7a 91 be 28 04 88 3c 40 aa 7b 3e
       0.08973084 -0.28413707 0.016603544 0.24576664
0002a0 e0 bb d4 bd 63 51 98 be 2a 88 db be c7 98 91 bc
       -0.10387397 -0.29749593 -0.42877322 -0.017773045
0002b0 ae 77 53 3e 7e bb 86 3e 94 fa 8e be 4c 29 7f 3e
       0.20651123 0.2631492 -0.2792555 0.24918097
0002c0 3e 8b 01 3f d5 a8 1b 3e f1 38 f4 3c f8 8e 55 be
       0.5060309 0.15201123 0.029812308 -0.2085532
0002d0 7f 3a 4f be 27 31 a8 3d ea a0 97 be 22 95 ec bd
       -0.20237158 0.082125 -0.29614955 -0.11551882
0002e0 67 8b 16 3d 76 e4 93 3e f2 b0 5a 3b cb ed 7a be
       0.03675404 0.2888524 0.0033369628 -0.24504773
0002f0 27 56 e2 3d 32 dd 11 3d d9 ad a6 be 76 b2 31 be
       0.110515885 0.03561134 -0.3255451 -0.17353234
000300 ef 79 b5 3d f5 73 cc 3c 44 04 22 be bc 32 d5 be
       0.088611476 0.024957636 -0.1582194 -0.4164027
000310 86 7d 4e be 4a f8 a5 3e a3 e8 a8 be f6 39 2f be
       -0.20165071 0.32415992 -0.32989988 -0.17111954
000320 97 c1 11 be 0c b5 7c 3d 02 a4 00 be 7d f7 2b be
       -0.14234005 0.061696097 -0.12562564 -0.16793628
000330 37 79 6b be e3 37 d1 3c 17 d9 5d be 8d 12 0a bf
       -0.22995459 0.025539344 -0.21664844 -0.53934556
000340 73 9f 72 3c eb a9 8b 3e 0f 08 12 3d b5 11 6c 3e
       0.0148085235 0.27278075 0.035652217 0.2305363
000350 10 18 5b 3e 75 8e c9 bc 92 5c 2b be 4f de 59 bd
       0.21395898 -0.024604062 -0.16734532 -0.053190526
000360 e1 8b 9b be a3 b7 a8 3e c5 26 e0 bc e6 75 28 be
       -0.30380157 0.32952604 -0.027362237 -0.16451225
000370 be 2a 23 be eb e4 e5 bd df 83 c6 be 9e b5 45 be
       -0.15934274 -0.11225303 -0.38772485 -0.19307563
000380 35 bc 1e be f6 48 49 bd 96 71 e9 bc 5b a4 fa bd
       -0.15501483 -0.049141847 -0.028496545 -0.122383796
000390 99 0a 25 be 4a b1 da 3c 46 5a 93 3e 50 3d b1 3d
       -0.16117324 0.026695866 0.2877981 0.086542726
0003a0 af b8 1d 3d bb c9 5a 3d ca 5b 9f 3e 0f fa a0 bd
       0.038506206 0.05341504 0.31124717 -0.07860195
0003b0 6d 81 b1 be 8c d4 13 3d 61 28 dd bd 35 27 d5 3d
       -0.34669057 0.036091372 -0.10798717 0.10407869
0003c0 45 ea 81 bd 2f 99 e0 3c d5 73 b6 bd d7 a5 9f 3e
       -0.063435115 0.027416794 -0.08908812 0.31181213
0003d0 3b fd 1a bd 1b fc e7 3c 9d 83 0e 3e 05 83 73 be
       -0.037839156 0.028318455 0.13917394 -0.23780449
0003e0 d3 f7 06 bb d4 2e c9 bc 6b e5 32 3d a0 c3 00 3e
       -0.0020594492 -0.024558462 0.04367582 0.12574625
0003f0 57 ce fc bc db 7f 0f 3e 27 d8 d2 3e ec af bb bd
       -0.03086011 0.14013617 0.41180536 -0.09164414

lstm.bias_ih_l0 f4 [400]
000000 b4 b7 9e bd e0 5b 68 be 76 2e 46 bd c0 75 94 bd
       -0.07749882 -0.22691298 -0.048384152 -0.072490215
000010 0a 4e 83 be e7 d7 74 be f5 46 0f bd b4 67 f0 bd
       -0.25645477 -0.23910485 -0.03497978 -0.1173853
000020 3f 40 85 3d 9a 4e dd bd 63 e3 4e bd 57 4a 84 bd
       0.065063946 -0.10806008 -0.05050982 -0.06459492
000030 d6 52 51 bd 0d 76 6c 3c f3 a5 8d bc b7 41 17 bc
       -0.05110439 0.014432442 -0.017291045 -0.009231976
000040 c2 65 15 3a e4 4d 8a bc e1 df b4 bd 83 08 fb 3d
       0.0005699062 -0.016882844 -0.08831764 0.12257483
000050 51 45 71 bb 4a 78 ec 3d 6f 4d 82 3d 76 a3 55 3e
       -0.0036814997 0.11546381 0.063624255 0.20863137
000060 cb 84 a2 3d aa 3a 81 bb c9 4c ae bc 84 ee 79 be
       0.079354845 -0.003943761 -0.021276848 -0.24407393
000070 78 52 5d be 80 e8 de 3d 43 18 12 bd 8e 6c 00 bc
       -0.2161349 0.108841896 -0.03566767 -0.007838381
000080 0e 6c a0 bd 56 e4 b3 bd 89 82 cb bd d2 32 de 3d
       -0.0783311 -0.08783786 -0.09937007 0.10849537
000090 93 77 26 3e 7d d4 6d bd 81 b0 25 be 19 d2 29 be
       0.16256551 -0.058063973 -0.16180612 -0.16584052
0000a0 8a 9f 22 be f1 57 9e bd 0f 40 28 bc e8 8c 21 3d
       -0.15881172 -0.07731617 -0.010269179 0.03944102
0000b0 6b 36 20 3d c6 98 6f 3e f8 8c 97 bc 30 d8 17 be
       0.039114397 0.23398122 -0.018499836 -0.14828563
0000c0 ed 43 38 3e 30 5e d5 3d 70 34 e2 bd e3 4d 04 3e
       0.17994662 0.104183555 -0.11045158 0.12920336
0000d0 c7 b1 11 bd 19 33 b5 3d d1 4d 3e 3e 50 72 d2 bb
       -0.035569932 0.08847637 0.18584372 -0.0064223185
0000e0 01 36 b1 3c fa fe 29 3d 51 e7 26 be a4 07 ba 3d
       0.021632196 0.04150293 -0.16299178 0.090834886
0000f0 3e b4 6b 3d 76 35 bd bd 5b b1 8a bd 63 fd 47 3d
       0.05754494 -0.092387125 -0.06772109 0.048825633
000100 0b 72 93 3d 9b 5e 81 3d b5 4b ab bd f9 d7 1f 3d
       0.07199486 0.06316873 -0.08364049 0.039024327
000110 e7 44 da bc ea 17 09 3e f6 11 74 bd 29 49 31 be
       -0.026644183 0.13388029 -0.05958744 -0.17313065
000120 7f db ad be aa c3 05 3e b6 cb 21 3e a7 9c dd 3d
       -0.33956525 0.13062921 0.15800366 0.10820895
000130 97 45 e7 be f0 54 b6 3d 50 cc 2e bd 19 db 7d bd
       -0.4517028 0.08902919 -0.042675316 -0.061976526
000140 e5 92 52 be 6d 90 0f be 67 cd 4e 3d 1b 6e 5c 3e
       -0.20563848 -0.14019938 0.050488856 0.21526377
000150 6b 36 ff bc e1 46 27 3e 8b 7a 31 be c6 c9 9a bd
       -0.031153878 0.16335632 -0.17331903 -0.075580165
000160 fc 7c 29 3e ae ca 03 3d fd f2 e8 3d 60 2c 3c 3d
       0.16551584 0.032175712 0.11374471 0.045940757
000170 39 8e c2 bd 69 ae 00 3e ae 50 ce bc 41 35 bb bc
       -0.09499783 0.12566532 -0.025184955 -0.022852542
000180 fb 7a 3a 3d 0a 54 d0 3c 5f 0d f6 bb f6 fe c6 3d
       0.04552744 0.025430698 -0.007508918 0.09716599
000190 a2 3d 28 3e b4 44 5e 3e 99 9a ed 3d 7f a7 9f 3d
       0.16429761 0.21705896 0.11601753 0.07795619
0001a0 b2 fc 45 3e d9 a4 de 3e 08 03 b9 bc e6 46 84 3d
       0.19334677 0.43485144 -0.022584453 0.06458835
0001b0 d4 ab d4 bd 3f 2e 8f 3d b6 38 8b bd 84 dd 37 bc
       -0.10384336 0.069912426 -0.06797926 -0.011222247
0001c0 c5 6e 58 3d cc 40 c7 ba 88 08 5e 3d 60 de b9 bd
       0.052840013 -0.0015201806 0.054207355 -0.09075618
0001d0 cb 7c 9a bd 7b 90 45 bd 79 12 de 3d 33 d5 be 3a
       -0.075433336 -0.04823349 0.10843367 0.0014559388
0001e0 cc 2b 9c 3b fd 2f ea 3d b5 f8 b6 3d d0 cc 37 3e
       0.004765963 0.11434934 0.08934156 0.17949224
0001f0 d0 ec 99 bc 6c e2 99 bd c4 3c 0b 3d 0e 7c ae 3d
       -0.018789679 -0.0751389 0.033993497 0.08519755
000200 f0 1f 15 3e 23 e7 eb 3d 52 55 af 3c 1d f0 92 bd
       0.14562964 0.11518695 0.021402989 -0.07174704
000210 96 bc cc 3d 1f 41 40 3e 9b 16 53 bd 69 3f d4 3d
       0.099969074 0.18774842 -0.05153523 0.10363657
000220 cc 83 b2 3d 0a c3 b6 3d 29 ad 33 3e 1d 59 a7 3e
       0.087165445 0.089239195 0.17546524 0.32685176
000230 2a 00 07 3d 65 d3 1c 3d 91 b9 ba 3d 5b 61 ba 3c
       0.03295914 0.03828754 0.09117425 0.0227515
000240 bf c6 bc 3d 55 ec 02 3e 4d fa c6 3c 7e 10 b5 bc
       0.09217595 0.12785466 0.024289275 -0.02210259
000250 56 b1 97 3d 48 b0 e0 3d 50 60 49 3e 44 08 b9 3d
       0.07406871 0.10971123 0.19665647 0.0903478
000260 48 cd 51 bd ca b1 b4 3c ea 49 a1 bb ca 9f 3c 3e
       -0.051221162 0.022057433 -0.0049221413 0.1842033
000270 06 ee fb 3c be 77 b6 3d fb b7 1d 3e 9b 91 b8 3d
       0.030753147 0.08909558 0.15402214 0.09012147
000280 12 25 8c 3d c8 14 b4 3d 51 66 30 3d d6 80 25 3d
       0.06843008 0.08793026 0.043066327 0.04040607
000290 df 87 ea 3d d4 e5 69 3d f1 36 03 3e 5d 68 74 bd
       0.114516966 0.057103947 0.12813927 -0.05966984
0002a0 06 10 8d 3c cf 6c 03 3e 3a 64 b8 3d 70 59 0b 3c
       0.017219555 0.12834476 0.09003492 0.00850521
0002b0 87 e7 7c 3e 9a 3a 8f 3e ae 12 8b 3d a8 b9 93 3d
       0.24697696 0.27974397 0.06790672 0.072131455
0002c0 9d b8 9d 3e 56 02 24 3d 78 06 01 bd 2c 73 af 3d
       0.3080491 0.04004129 -0.03150031 0.08566889
0002d0 b0 27 00 3d 9c 93 23 3d 31 f6 17 be bc 5d 03 bc
       0.03128785 0.039935693 -0.14840008 -0.0080179535
0002e0 a7 28 4f bd 54 8e 08 be 31 03 c9 3d 08 6f f5 3d
       -0.05057588 -0.13335544 0.09815062 0.11984068
0002f0 30 b8 11 3e a2 2b e0 3c fe 3e 01 be e2 fd df 3d
       0.14230418 0.027364556 -0.12621686 0.10937096
000300 c4 cd 6a 3d 32 8d c9 3c 61 66 1b 3b f7 38 04 3d
       0.05732514 0.02460346 0.0023712146 0.03228089
000310 eb ec e8 3d 35 f0 96 bd ab 60 39 bd a9 e5 af 3c
       0.113733135 -0.073700346 -0.045258205 0.021471815
000320 ec 5a a8 3d ce b9 42 3d e3 a1 49 3d 07 66 eb 3c
       0.08220467 0.04754048 0.049226653 0.028735174
000330 0d d3 9e bd b6 37 b1 bd 53 71 39 bd 2d 7e 39 bd
       -0.077550985 -0.08653204 -0.04527409 -0.045286346
000340 3f 1e d3 bd 13 8a e2 3c 8e 06 6a 3d 2b 0f 90 bd
       -0.10308503 0.02765373 0.057135157 -0.07034143
000350 2a 7a f3 3d 47 26 f7 3d 4c 60 7b 3c 3d 2b 8c 3d
       0.11888535 0.12067848 0.015342783 0.068441845
000360 a1 b4 43 bc c2 1a c8 3d 2c ed 90 bd ab f6 92 bd
       -0.011944921 0.09770729 -0.07076487 -0.071759544
000370 40 6c 80 3d f8 3e 27 37 db ba 23 3d 84 cc e7 3d
       0.06270647 9.968637e-06 0.03997312 0.11318305
000380 da b2 bd 3c e1 32 66 3d e9 50 5a bd 74 df 91 bd
       0.023156572 0.056200866 -0.05329982 -0.071226984
000390 96 d0 46 3c f2 2d 3d bc 0f 17 c5 3d 2a 74 e0 3b
       0.012134692 -0.011546599 0.09623539 0.0068497853
0003a0 9d ae 7d 3d 9b db 6a bd fb de 23 3d 84 6e 07 bd
       0.061934102 -0.05733834 0.040007573 -0.03306438
0003b0 83 1b a5 3b 00 c7 ac bd cb aa b6 3c a5 0f b3 3d
       0.00503868 -0.08436394 0.022298237 0.08743218
0003c0 bf 67 63 bd 84 74 76 3d 21 40 d3 bc d0 0e 2b 3c
       -0.05551886 0.06016971 -0.025787415 0.010440543
0003d0 9f ff af ba 54 29 27 be f0 60 d4 3d d8 92 ca 3c
       -0.0013427621 -0.16324359 0.10370052 0.024728224
0003e0 2a 3f 8d 3d 5f e2 d8 bd 60 a1 36 3d df d2 93 bd
       0.06896813 -0.10590052 0.044587493 -0.07217955
0003f0 f7 4d 38 bd 82 28 c2 bc 77 8a 2c 3e 63 ce bf 3d
       -0.044996228 -0.023700956 0.16849695 0.09365537

lstm.bias_hh_l0 f4 [400]
000000 2b 24 40 3c f4 6e 1a be 2d 10 55 bd e9 26 c6 3d
       0.011727373 -0.15081388 -0.05201738 0.0967539
000010 f4 9a 9c be 2e 14 42 be b3 c0 56 bc 19 98 ee bd
       -0.3058697 -0.1895301 -0.0131074665 -0.11650104
000020 37 89 c5 bd 30 ac 2e bd 12 09 50 bd 17 d6 19 bc
       -0.09645312 -0.04264468 -0.0507899 -0.009389422
000030 0e 61 a1 3d 80 d3 d7 3c 3c fd 85 bd d8 6e 66 3d
       0.0787984 0.026345968 -0.06542441 0.056258053
000040 fb a2 f7 bd da b0 97 bd d2 a4 10 be b5 43 22 bd
       -0.12091633 -0.07406779 -0.14125374 -0.03961535
000050 a7 c4 e3 3b 2a a8 03 3e c6 51 79 3b f9 3b 8e 3e
       0.006950933 0.12857118 0.0038043126 0.2778013
000060 82 d4 3d bd ec 45 86 3b 2d c0 f6 3c ff f3 7c be
       -0.04634524 0.004097691 0.030120933 -0.24702452
000070 26 e8 57 be 73 83 f5 3d 7f 51 2d 3d a0 1c 73 bd
       -0.21084651 0.119879626 0.04231405 -0.05935347
000080 7e 34 8a be bd 2e 7f 3d aa f9 82 be 50 b0 9b 3c
       -0.26993173 0.062300432 -0.25581104 0.01900497
000090 38 ea 09 3e 7c 21 0c bd a0 45 8f be d2 df ae bd
       0.13468254 -0.03421162 -0.27982807 -0.08538784
0000a0 50 61 07 be 2b bd f0 3c 2d 60 8d 3b e6 4f 11 3d
       -0.13220716 0.029387077 0.0043144436 0.035476588
0000b0 88 e7 00 bc 8a 76 8b 3e 06 32 f7 bd 55 e5 19 be
       -0.007867701 0.27238876 -0.12070088 -0.1502889
0000c0 a0 c5 3d 3e 8d 44 20 3e 22 04 df bd ff d9 2a 3e
       0.18532419 0.1565115 -0.1088946 0.16684721
0000d0 f4 fc 6a 3d 06 bd a7 3d 29 f9 c4 3d 6a ed 16 3e
       0.05737014 0.0819035 0.09617836 0.14739004
0000e0 7c ff 18 bc 19 bd 2f 3e e5 88 12 be 8f 00 d3 3d
       -0.009338256 0.17161979 -0.14310034 0.10302841
0000f0 c3 c2 e2 3d 31 cc bb bd de b0 c2 bd 36 35 8c 3d
       0.11072304 -0.09169806 -0.09506391 0.06846087
000100 48 be e3 3d 69 b9 73 3d f0 fd 3d 3d cb fa 3a bd
       0.11120278 0.059502993 0.04638475 -0.04564933
000110 34 7f 04 3d 30 db 0e 3e 61 cb 11 be 02 75 3c be
       0.032347873 0.13950801 -0.14237739 -0.1840401
000120 e2 62 7b be 5f c3 37 3e 3f a1 ac 3d 1d 49 3a 3d
       -0.2454944 0.17945622 0.08429193 0.045479883
000130 91 f9 d8 be f5 54 98 3d dd 41 6e 3d ae ed a9 bd
       -0.42377904 0.07438079 0.05816828 -0.08297287
000140 0c 37 41 be 41 13 f6 bd 7c 88 b5 bd df ac 61 3e
       -0.18868655 -0.12015391 -0.08863923 0.22038601
000150 27 18 09 bd b3 a0 3a 3e 74 8a 3a be 61 04 f1 bc
       -0.0334703 0.18225364 -0.18216878 -0.029421033
000160 6c 0b e7 3a ac 68 d7 3d 75 a3 c2 3d e3 c8 80 3d
       0.0017627305 0.105180115 0.09503833 0.06288316
000170 1c 3e 26 be 4f e6 09 3e ad 08 b7 3c 90 32 ee 3d
       -0.1623463 0.13466762 0.022343004 0.11630738
000180 ba cb 09 3e 6b 91 a8 bd e4 6c a3 bc 5d 17 7c 3d
       0.13456622 -0.08230861 -0.019949384 0.06154572
000190 90 61 10 3e 84 07 66 3e 41 8a 63 bd ab e9 db 3d
       0.14099717 0.22463804 -0.05555177 0.10737928
0001a0 46 c5 48 3e f0 ff ae 3e ba 9d 82 3d 48 c9 df bb
       0.19606504 0.3417964 0.0637774 -0.0068294145
0001b0 79 19 91 bd 8f 71 2f 3e 9f e1 5e bd a0 1f 23 3d
       -0.07084937 0.17133163 -0.054414388 0.03982508
0001c0 06 d2 16 3e 74 95 74 3d a8 a2 38 3d d3 06 17 3a
       0.14728555 0.059712842 0.045076996 0.000576121
0001d0 22 d8 b3 3b b8 fc b7 3b 9e e4 1b bd d2 94 1c bc
       0.0054884115 0.005614843 -0.038059823 -0.009556966
0001e0 0d 50 dd 3d 2e 4f 58 3d 9e b6 75 3d ab 11 81 3e
       0.10806284 0.052809887 0.05998861 0.25208792
0001f0 9b 38 5a bd 6a 70 13 3d fc a6 89 bd d1 31 22 3c
       -0.05327664 0.03599588 -0.06721303 0.0098995725
000200 35 a8 95 3d 68 71 f6 bc f9 c5 b7 3d 70 48 f5 bd
       0.073074736 -0.030083373 0.08973307 -0.11976707
000210 38 12 39 3e 51 e6 09 3e 67 62 a0 bd 4c f7 6a 3d
       0.18073356 0.13466765 -0.07831269 0.057364747
000220 34 66 e4 3c b4 78 e8 3d b7 af 0a 3e c5 23 be 3e
       0.027880765 0.11351147 0.13543592 0.37136665
000230 64 ac 9c 3c de cf fa 3c 17 fb b9 3d 2d ea 1a 3d
       0.019125171 0.030616697 0.09081095 0.037820984
000240 24 15 9d 3d 97 60 7a 3e f2 59 88 3b ec eb 53 bc
       0.07670048 0.24450909 0.004161113 -0.012934666
000250 b2 0e 00 3e d5 1a f3 3d 77 df 75 3e ec 63 8a bc
       0.12505606 0.11870352 0.24011026 -0.01689335
000260 9c 66 9e bc 87 de ac bd d8 05 cb 3c 24 8a 9c 3d
       -0.019336037 -0.08440881 0.02478306 0.07643536
000270 e0 74 0d bc 61 c7 41 3c 5b e4 68 3e 81 76 df 3d
       -0.008633822 0.011827321 0.2274336 0.10911275
000280 b1 56 cc bc e6 79 69 3d 2b 2a 3d 3e 66 b7 1b 3e
       -0.024943681 0.057001017 0.18473117 0.1520668
000290 09 cc 2b 3e 5a c1 09 3e 86 15 8f bb 2e dd ce 3a
       0.16777052 0.13452664 -0.0043665795 0.0015782469
0002a0 46 65 f9 bd d1 f8 a9 bc 6f 0d 07 bd ea d8 d6 3d
       -0.121775195 -0.020748528 -0.032971796 0.10490592
0002b0 c1 20 5f 3e af 89 03 3e 91 77 c6 3c 21 2e 08 3e
       0.21789838 0.12845491 0.024226936 0.13298847
0002c0 cd 12 9e 3e 8f cb 17 3e c2 13 5d 3d 7d 4c 66 3d
       0.3087372 0.14823745 0.05397392 0.05622529
0002d0 6c 36 32 3e 3c 9a 86 bb f8 27 f3 bd 7d e9 7e bc
       0.17403573 -0.0041077416 -0.11872858 -0.015558598
0002e0 ff 5b e5 bd 9c 48 0f 3c fe bd a3 3d 85 51 29 3c
       -0.111991875 0.008745339 0.079952225 0.010334377
0002f0 40 1a 9f 3d 10 b6 2e bc 37 6c 70 3d c6 be 1d 3d
       0.07768679 -0.010663524 0.05869695 0.038512014
000300 47 dd b7 3d 6e 97 53 bd cc 64 8c 3d ba 2b 3f 3e
       0.08977752 -0.051658086 0.06855163 0.18669024
000310 ec 5a 73 bc c9 a9 9e bc 88 76 1d 3d 51 9a b2 bd
       -0.01485322 -0.01936807 0.03844312 -0.0872084
000320 f8 83 a5 3d 17 a9 8a 3b ed 10 30 bd f1 0e 44 bd
       0.08081812 0.004231583 -0.04298489 -0.04786581
000330 e9 60 08 3d e8 75 a8 bd cd 17 22 3d 1f 3e f1 bc
       0.033295546 -0.08225614 0.03957348 -0.029448567
000340 36 c9 c4 bc 78 81 52 bd 0b d0 83 bd 4d 0c 06 3c
       -0.024021726 -0.051393002 -0.064361654 0.008181644
000350 21 05 05 bc a5 61 e8 3d 3b 75 9c bc d8 c4 94 bd
       -0.008118899 0.11346749 -0.019098869 -0.072641075
000360 df 4f 55 3d 14 aa 39 3e c6 01 a9 3d 75 60 97 3c
       0.052078124 0.18131286 0.082522914 0.018478611
000370 ad 06 55 3d 7c 86 81 3d 0b db 04 bb 4e d4 e0 3d
       0.05200832 0.06324479 -0.0020272161 0.10977994
000380 6e 41 aa 3d 16 ed 4b 3b 3c 07 52 3d 9c d7 36 3d
       0.08313261 0.0031116656 0.05127643 0.044639215
000390 a8 37 ad bd d3 48 1a be be 5a 5e 3c 5e 7f 68 3d
       -0.08457881 -0.15066843 0.013571439 0.05676209
0003a0 31 f8 87 3d 17 c0 cd 3c 5b 56 f2 3c 0f e3 b8 3c
       0.06639136 0.02511601 0.029582193 0.022569207
0003b0 d8 7f 9f 3d 92 35 8e 3d 07 49 96 3d 4c a6 89 3d
       0.07788056 0.069438115 0.073381476 0.06721172
0003c0 3a 3c ba 3d 72 4a 4c 3d c9 1e 99 3d ec 2c a3 3d
       0.090935186 0.049875684 0.07476575 0.079675525
0003d0 a1 e6 73 3d 7a 70 70 bd 05 c9 c1 3c 38 e8 9d bd
       0.059546117 -0.058701016 0.023655424 -0.07710308
0003e0 b2 d0 81 bd 48 3f e1 bd 8c c9 66 3d 8e 20 a4 bc
       -0.063386336 -0.10998398 0.056344554 -0.020035055
0003f0 31 bd 52 3c b2 03 a5 bd 85 c1 0b 3e 32 82 ea bb
       0.01286249 -0.080573454 0.1364804 -0.007156634

layers.0.weight f4 [64, 100]
000000 1e a0 f0 bd e3 20 13 3d 47 e0 e4 bc c0 a4 7b bd
       -0.1174929 0.035920035 -0.027938975 -0.061436415
000010 fa 77 c4 3b ad 4a cb bc f2 d4 ac bd 0f da ac bd
       0.0059957476 -0.024815882 -0.084390536 -0.08440029
000020 f2 74 04 bc cc 09 c4 3c 7c fc 68 bd c9 f6 ce bd
       -0.008084523 0.023930453 -0.056881413 -0.10105664
000030 61 1e 7a 3b ad d2 94 bd dd 33 dd bd 25 51 c8 3d
       0.003816508 -0.07266746 -0.10800908 0.09781102
000040 c5 23 86 bc 38 69 81 3d 68 57 64 3b b5 9b 22 3d
       -0.016374478 0.06318897 0.0034842137 0.039699275
000050 db 9a 16 bb ea 84 1d be 8d d5 4d bd 60 18 35 bc
       -0.0022980485 -0.15382734 -0.050252486 -0.011053175
000060 66 7b fb bd af c2 52 bb 9d 7f 2b bd aa 42 32 3d
       -0.12279396 -0.0032159497 -0.04186975 0.043520607
000070 c8 c7 e0 3a b8 3e 49 3d 1a ea 6a bd ca a7 93 bd
       0.0017149383 0.04913208 -0.057352163 -0.072097376
000080 de c8 da bc dc 8a e2 bd b9 55 02 3d f1 93 bc bc
       -0.026707109 -0.110616416 0.031820033 -0.023019763
000090 3f 39 8d bd 60 c2 9d 3d 91 7b f3 bc 0b 27 f5 bc
       -0.068956845 0.0770309 -0.029722007 -0.029925844
0000a0 9f 10 05 3e b0 a8 af bd 5b fd e2 3c cb ed aa bc
       0.12994622 -0.085770965 0.0277087 -0.020865342
0000b0 ec 0f 9a bb 1c 79 1a 3d 3b f3 a3 3d ea 57 b4 3c
       -0.004701605 0.037713155 0.08005377 0.022014577
0000c0 55 d8 a7 3c 66 f4 c4 3d d6 e2 82 b9 89 ca f9 3b
       0.020488897 0.09616928 -0.00024964538 0.007623021
0000d0 73 69 5a bd 3e 6f a8 3d 2d bf e4 3b 44 5d 89 3d
       -0.05332322 0.08224343 0.0069807977 0.06707242
0000e0 d3 d0 ac bd 60 e2 04 3d 7b b6 25 3d 39 4f ee bc
       -0.084382676 0.03244245 0.04045723 -0.02909051
0000f0 bf 5d e0 3d 32 a8 8b bc 5d d1 8a 3d 83 b5 0d bd
       0.10955381 -0.017047975 0.06778214 -0.03459693
000100 d2 1f e1 bc 6c 24 18 3d e7 b2 40 bd 6f b8 68 bc
       -0.027480993 0.03714411 -0.047045615 -0.014204129
000110 3b 8e fe bc 5a 5b af bd 16 b4 b1 bd 36 45 a9 3c
       -0.03107368 -0.08562346 -0.08676927 0.020662885
000120 c9 41 85 bd a7 8e 9a 3c 1e 00 cf bd 96 23 b9 3d
       -0.06506688 0.01886685 -0.10107444 0.090399906
000130 0a 73 0e bd 17 32 10 3d df df 34 3d 0d d3 08 be
       -0.03477768 0.03520402 0.044158813 -0.1336176
000140 0f 28 94 3d 08 79 a5 3d 58 59 12 bc 6b ec 9f bd
       0.07234203 0.080797255 -0.008932434 -0.07808765
000150 33 f2 c7 3c e9 8b da 3b 6e 32 31 bd b2 4c 7b 3d
       0.024407482 0.0066695106 -0.043260984 0.06135244
000160 5b c4 f3 bd 10 8b 03 bc 1c 69 ba 3d 38 53 06 3e
       -0.11902686 -0.008028761 0.09102079 0.13117683
000170 c9 36 84 3b 34 fd 51 bd cf 35 58 3d 51 55 72 bd
       0.004034851 -0.051266864 0.05278569 -0.059163395
000180 9d 61 2e 3c 79 df 9e 3d 8c f9 af 3d 5b 0e 8c 3a
       0.01064339 0.07757468 0.08592519 0.0010685431
000190 06 73 58 3e a4 5c 08 3e 89 16 cd 3d a9 df 5b 3d
       0.21137628 0.1331659 0.10014064 0.053680096
0001a0 6e a4 4b 3e b1 56 e7 be 77 59 5e 3e 2a a3 38 3e
       0.19886944 -0.45183328 0.21713816 0.18030992
0001b0 cf e1 b7 bd 98 5a 2e bd ad 1b 75 be 6c d3 cb 3d
       -0.089786164 -0.042566866 -0.23936339 0.09952435
0001c0 c0 23 36 be 27 7c b2 3c 05 20 70 3d df 48 e5 3c
       -0.17787075 0.021787716 0.058624286 0.02798885
0001d0 aa 35 a0 3e a9 81 cc be 32 1f 9d 3e 2a 8d c9 3d
       0.31290942 -0.39942673 0.30687863 0.09841378
0001e0 f7 b9 0d 3d de 5c 08 3d 07 4d 4a 3e 3f 40 31 3e
       0.034601178 0.03329169 0.19755946 0.17309664
0001f0 4f e6 0c 3c 08 72 93 bd c6 7a f1 ba 01 aa 07 3d
       0.008599832 -0.07199484 -0.001842343 0.033121113
000200 fe 98 0a 3e 7f 86 4e 3d ba 88 28 be 3a 72 8a 3d
       0.13534924 0.050421234 -0.16458407 0.06760068
000210 21 f6 31 bd 9d f4 30 3d 14 fd 36 be 5a 33 b4 be
       -0.043447617 0.04320203 -0.17869979 -0.35195428
000220 9b 70 b1 bc 3b 38 a1 3d 89 5f 09 3e c9 18 19 be
       -0.02166014 0.07872053 0.1341535 -0.14950861
000230 6f 78 5f bc a4 e9 14 be 04 39 d2 3b 73 d9 b2 be
       -0.013639553 -0.14542252 0.006415488 -0.34931526
000240 c3 eb 38 3e 7a 63 3a 3c 75 23 ae bd 50 8e 7a 3d
       0.18058686 0.011376256 -0.08502857 0.061170876
000250 f7 6f a1 3d df b2 22 bd bb bd a0 bd ed bd b9 bc
       0.07882684 -0.039721366 -0.07848688 -0.022673571
000260 df 62 a9 be 9c a7 b2 3c a6 30 cb bd bd b2 70 3d
       -0.33083245 0.021808438 -0.09921388 0.058764208
000270 03 43 4f be 99 69 8c 3c fd 38 59 3b 29 11 b1 3d
       -0.20240407 0.017140197 0.003314554 0.08645851
000280 c4 be b0 3d 2a ca 1a bd c0 90 39 3e 06 23 74 bd
       0.08630136 -0.037790455 0.18121624 -0.059603713
000290 93 c3 fe 3b 24 aa 10 3e 50 57 6f bd 04 a6 64 3e
       0.007774779 0.14127403 -0.058432877 0.22328955
0002a0 bc 49 5d 3e 05 a8 ba 3c b1 88 47 be f2 6a df bd
       0.21610159 0.022785196 -0.19485737 -0.1090907
0002b0 99 22 14 3e a1 da 0c bd 4c 64 e7 3c da 8b db bd
       0.14466323 -0.03438819 0.028246067 -0.10720034
0002c0 eb e4 96 3e 43 37 cf bd 74 37 8b be ae 56 15 3e
       0.29471526 -0.10117962 -0.27190745 0.14583847
0002d0 1c 39 2a bd 76 ca 8f be 91 8f 88 3d fc 7e 36 be
       -0.04155837 -0.28084153 0.06668008 -0.17821878
0002e0 3f f7 f1 bc ff ae c8 bd 5a 6e 9b be c6 be 94 3d
       -0.029536841 -0.09799003 -0.3035763 0.0726295
0002f0 ed f0 24 be 69 1b 92 bd ad e0 1a bc d4 dc 1d bd
       -0.16107531 -0.07134134 -0.009452981 -0.038540676
000300 50 f8 d5 3d 0b 8c 83 3d a4 c3 86 be fa ba c2 3d
       0.104477525 0.064231955 -0.26321137 0.09508319
000310 bb 31 84 3d 81 e6 a6 3d ed 99 41 be e7 2c b9 3c
       0.06454798 0.08149434 -0.18906374 0.022604419
000320 d3 15 08 bc 4f d3 30 bd f8 d0 ac 3d f9 0f 07 be
       -0.008305985 -0.04317027 0.08438295 -0.13189687
000330 76 76 57 3d 24 33 09 be 27 9b c6 3d 00 ef fd bc
       0.052603208 -0.13398415 0.09697562 -0.030997753
000340 3a 3c d6 bc 61 2a 99 3c ba fc a7 3d 92 40 93 3d
       -0.026151765 0.018696966 0.08202501 0.0719005
000350 12 56 31 bd 6c df ec bd d7 e8 d9 bc 4e bb e4 3c
       -0.043294974 -0.11566052 -0.026600285 0.027921345
000360 bf e7 83 3d 12 fb 05 bd ca d3 9a 3d 85 db 0c 3c
       0.064406864 -0.032710142 0.07559927 0.008597259
000370 50 54 4e bd e0 5c b6 3d bf 79 e6 3d 3d 57 1c be
       -0.050373375 0.08904433 0.1125369 -0.15267654
000380 73 ac bb bd a1 83 cb bd b9 a9 1b bd 3e 68 10 3d
       -0.091637515 -0.099372156 -0.038003657 0.035255663
000390 f1 39 8d 3d d2 29 35 bd 16 72 17 bd 86 1f 34 bd
       0.06895817 -0.044229336 -0.036974035 -0.043975376
0003a0 c3 5a ab bd 7a 20 c4 bc 31 70 d2 bd ab 4e 31 bd
       -0.08366921 -0.023941267 -0.10275305 -0.043287914
0003b0 0c 38 13 be 9f 4b 94 bd 54 72 74 bd 60 1c 63 3c
       -0.14376849 -0.07240986 -0.059679344 0.013861746
0003c0 36 e4 a7 3d 97 55 cb bd 4d 48 df 3d 7e f4 cc 3b
       0.08197825 -0.09928434 0.10902462 0.0062547317
0003d0 80 7b 38 3e 54 1b 2f 3d c6 81 ce bd 49 d6 0b 3d
       0.18015862 0.04275067 -0.10083346 0.034139905
0003e0 db 9b bb 3c 75 98 6a bc c1 e1 58 3d fb 49 5c 3d
       0.022901466 -0.014318575 0.05294967 0.05378149
0003f0 b7 a9 ec 3c 87 72 0f bd 12 d1 ab 3d 13 c0 21 bd
       0.02888952 -0.03502133 0.08389486 -0.039489817

layers.0.bias f4 [64]
000000 8d f4 eb bd 34 e1 eb 3c ac ae d9 bd 86 bc d7 bd
       -0.11521254 0.028793909 -0.10629019 -0.10534005
000010 0d 62 ba bc 2f c7 ec bc 37 90 46 3d 4d 17 22 3d
       -0.022751832 -0.028903572 0.048477378 0.039573003
000020 2b 08 4f bc 49 f0 22 be 1c 96 ec bd 79 13 89 3c
       -0.012636225 -0.15911974 -0.115520686 0.016732918
000030 a0 58 37 be ad 56 f9 bc 13 39 82 bd e7 97 7a 3d
       -0.17904902 -0.030436838 -0.06358542 0.06118002
000040 9b a1 94 bc 38 5c 23 be 5c 97 1f 3d b9 94 11 bc
       -0.018143466 -0.15953147 0.038962707 -0.008885556
000050 01 19 ae bd d4 64 23 bd ae 52 73 3e 51 2a 39 3e
       -0.08500863 -0.03989108 0.23762009 0.18082549
000060 fa 40 e9 bd 2e e1 b7 3d 4e d7 23 bb 34 11 77 bc
       -0.113893464 0.089784965 -0.0025000158 -0.015079785
000070 18 fc 6e bd df 35 00 3d de 0f bd bd c1 46 cd 3d
       -0.058345884 0.031301375 -0.09231542 0.10023261
000080 2d 55 4f 3c 40 f8 10 be aa c2 0a bd 67 82 d8 bc
       0.012654585 -0.141572 -0.033877052 -0.026429368
000090 3a 7c f9 bd 8d c8 8c bd cc f7 51 3e d8 ae cb bc
       -0.121818975 -0.068741895 0.20504683 -0.024863645
0000a0 32 4a ec bd c0 ad 20 bd 04 86 96 3d b8 df dd 3c
       -0.11537589 -0.0392282 0.0734978 0.027084216
0000b0 67 de 8d bd b2 dc 78 bd dc 9e a8 bc 5e fe 80 bd
       -0.069271855 -0.060757346 -0.020583563 -0.06298517
0000c0 a3 ef c0 bc fa 46 91 bb 85 da c2 bd bf a0 55 bd
       -0.023551768 -0.00443351 -0.095143355 -0.052155253
0000d0 19 12 71 3c 22 19 37 bd c2 18 11 bd d3 ee f4 bd
       0.0147137875 -0.044701703 -0.035424 -0.119596146
0000e0 a2 01 95 bd 0f c0 bd bd 62 d4 77 3d 21 4f d0 3b
       -0.07275702 -0.09265148 0.06050528 0.006357089
0000f0 c7 57 2a be bf 8b e0 3d 56 a0 98 bb 93 37 e1 bd
       -0.16635047 0.109641545 -0.0046577854 -0.10996928

lin.weight f4 [1, 64]
000000 b6 6b d4 ba 45 27 28 be db d7 7c bd 9e d4 80 bd
       -0.0016206417 -0.1642123 -0.061729293 -0.062905535
000010 7c 90 5a bc dd 9a 11 3c 48 dd 6c be 49 7a 13 3e
       -0.013340112 0.00888702 -0.23131287 0.14402117
000020 1b c9 95 3d 8e 98 de ba 66 6b b1 3d fe 93 4a 3e
       0.073137484 -0.0016982721 0.08663063 0.19783017
000030 2d 3b b9 bc ae 02 47 3d 10 c0 c3 bb 92 7a 2e be
       -0.022611225 0.04858654 -0.0059738234 -0.17038944
000040 8e 8a 1c 3e f0 5a 03 bc e9 ba c4 bd b8 85 a6 bd
       0.1528723 -0.008017287 -0.09605963 -0.081309736
000050 9b ce 9b bc 3e 36 af bd 88 08 f0 be 2f 5a d8 be
       -0.019019416 -0.08555268 -0.4688151 -0.42256305
000060 2a 75 bd 38 23 54 63 bd e9 bc 94 be 7f 8a a0 3e
       9.034046e-05 -0.05550016 -0.29050377 0.31355664
000070 6d ee cf 3c 84 80 13 bb 4c a2 28 3c 63 07 35 3e
       0.025382245 -0.0022507021 0.010292601 0.17678599
000080 f3 c2 2b 3e 8e dd 03 3e 83 6e 95 3d 3f c2 04 3f
       0.16773586 0.12877485 0.07296469 0.51858896
000090 12 90 a3 3c 63 8a 60 3e cd 4f ad be a5 7f 2f bd
       0.019966159 0.2192779 -0.33849946 -0.04284634
0000a0 b8 15 8c bc ff d1 88 3d c9 70 18 3e 09 e9 e2 bd
       -0.0171002 0.066806786 0.14886774 -0.11079604
0000b0 bb 34 f8 3d 80 db cd 3c 81 ae 88 bd dd bd ac 39
       0.121194325 0.02512908 -0.06673909 0.00032947856
0000c0 b0 d9 2a 3c aa 52 8f 3e c1 a2 0a bc e1 64 9e bd
       0.010427877 0.27992755 -0.008461655 -0.07734085
0000d0 d2 f5 77 3d 07 29 08 be e3 d9 a7 bc 12 c3 a9 3d
       0.060537167 -0.132969 -0.020489639 0.0828916
0000e0 90 92 31 bb c6 a9 1f 3a 16 05 62 be 5c d9 9c bd
       -0.0027095415 0.0006090667 -0.22072253 -0.076586455
0000f0 74 19 de bd 93 81 b6 bc 8b 77 ed 3a 33 b8 4b b9
       -0.108446985 -0.022278583 0.0018117292 -0.00019428208
