versions/87.27/model.pth (torch_old, 270641 bytes, 7 tensors)

lstm.weight_ih_l0 f4 [400, 50]
00000000: 6ba5 21bf 317c 28bf f764 a4bc 1a41 b73d
00000010: 881c 8cbe f5cb b73e a692 e9bd 99bf f6bc
00000020: 1baa 67be 4e80 c0bd 3f8f 38ba fa76 8d3e
00000030: ca86 25bf 845a 933b 5601 aa3e 0434 82be
00000040: 6184 083e 876f 8f3c 8909 a5be 70b1 b03e
00000050: 8d3a efbd bd0d 0bbe 95e5 9e3d 6c2a 98be
00000060: 6f0f 5abe ea7d 98bc 993e c13e 7854 863d
00000070: 3e58 d43e 4ce1 24bc 6673 c83d 5228 1bbe
00000080: 758d 2f3e 4100 d43e c892 26be 5866 0d3f
00000090: 549e e03e 7b72 ddbb 34d2 7c3e 51cf cdbd
000000a0: 0ba6 8ebd 4098 f93d 649f be3d 1c90 e7bd
000000b0: 811d 803e cbe1 12be b4b6 9dbd 6e01 c8bb
000000c0: 3d97 df3e d35f 263e 6824 57bd 6621 d53c
000000d0: 397f dcbd a894 7c3d afbd 39be 3d3d 83be
000000e0: 3c90 c6bd c647 c03d 5230 90be f7bf 1f3d
000000f0: f991 83be dee3 7a3e 3c78 da3d 2517 993b
00000100: ccdd b8bd c2df 7e3d cb00 c63e a76a 9c3e
00000110: 9f71 be3e 398c 273e 3475 7c3e e55f 85bd
00000120: 2521 81be ba47 b73e eb2e 7a3e 6c20 d83d
00000130: 6b16 cdbd ee10 84bd 88a9 4bbe 065d e5bc
00000140: 81d0 29be 6f5f 26be fc03 db3e f6ff e23c
00000150: 9a14 81be a9d9 833e 8769 04bf 8331 553d
00000160: 17b2 19bc b41b 2f3c a4c6 2c3d 4b08 ab3d
00000170: 3fe8 bbbe 94db d1bc 82b9 233d 25e4 acbe
00000180: 2c70 3c3d 832d 6d3d 55ea 2bbe 992b 143e
00000190: 3b51 9abe dcc7 043e e213 c03d fbf7 fb3e
000001a0: 5e64 a3be bf18 013d 212b fcbd f36a ecbe
000001b0: 52d5 4e3f 9a7f b0be 2be5 903d 3095 d8bd
000001c0: 328e dfbe e391 aebd 1bad 863d 1a58 d1be
000001d0: 29f6 f2be 9390 653e ba44 82bd 4966 db3e
000001e0: 38dc bd3e 55b7 983d 1921 e93e f5a0 8c3d
000001f0: 246c 0cbf 8541 933d 03a2 923c c34b 8cbe
00000200: 7aeb c0be 7842 843e 62ed 25be fd78 1bbe
00000210: aa65 aa3e 7903 1e3d fe99 743e 2c9c 673e
00000220: 431d 293f 5c0f 16be 3623 57be 2b26 fa3c
00000230: 6f87 4f3e 3e4a a93d c378 2f3a 67e6 bcbe
00000240: e0ff 00be 4630 75be d24d babe 3669 38bd
00000250: a3ce 83bd fb93 6c3e 1d75 f03c 3d46 28be
00000260: 1908 a23e 9c34 af3e 90c1 183d db83 ee3c
00000270: c35e c83d 9ef6 213f f01b cd3e ff8d 983e
00000280: 85f1 0f3f 372d 2cbe 76a4 10be 61d0 d7be
00000290: f96f 9b3d bcbc 323e 679f 95be ed84 11bf
000002a0: 4cef 9ebe b14e d83c b056 8bbe 9c9e 37be
000002b0: f48c 2bbd 151c e6be 832a 70be f9c1 dfbb
000002c0: 80ac 06bd a2b6 3e3d ebd4 3b3e 4d0e a53e
000002d0: dab5 863d b613 d6bd 9fa2 0c3d 31e9 9a3d
000002e0: d17b 853d 3c65 dcbe 7cac 2d3e 54f9 d1bd
000002f0: fddc 9f3c 6277 73be 279d 553e 64d7 25be
00000300: 59f4 0bbf beb0 313d 2581 1bbf bb14 84bd
00000310: 61d2 b53c d66a 853e f2fd 913e 89f0 42be
00000320: 6801 033f 5acf 51be 6ac3 743d 683f dd3e
00000330: 9206 95be 19c1 53be 616e aabd d0f2 ec3d
00000340: 30d7 47bd 161b a1be 468f 8fbe 4aae f83d
00000350: 8aaa 5dbe d954 d0bc 60b7 a43e c3a8 b93e
00000360: ddf5 c53e 1fc0 163a 062f 84bd 3885 73bd
00000370: 9cc9 973e 2af6 68be 45da 25bd 919b 08be
00000380: 6fe3 a8bc 6488 24be 6f4b 4b3d b3d2 373e
00000390: 4731 c03e d387 3f3d 1ec7 593c 63da 1c3e
000003a0: d20f e4bd aa0c 6fbd e36c 10bf c110 ac3d
000003b0: 76d2 67be d07f 16be 014e 49be a487 3abe
000003c0: 8dd9 5bbf 1ad7 23be b62b 393f 573f 5bbe
000003d0: beb9 933e 886d 1c3f 3005 90be 81e0 debb
000003e0: 387b 903c a97a 02be 03c6 aebe b908 4fbe
000003f0: 4c06 38be 0cd0 32be 3a38 48be bd98 7bbe
-0.6314303 -0.658145 -0.020067675 0.08947964 -0.27365518 0.35897794 -0.11404924 -0.030120658
-0.22623484 -0.09399472 -0.00070403883 0.27629834 -0.64658797 0.0044968743 0.33204144 -0.2543031
0.13331749 0.017509235 -0.32233837 0.34510374 -0.116810896 -0.1357946 0.07758633 -0.29719865
-0.2129495 -0.018614728 0.3774307 0.0655908 0.41473573 -0.010063481 0.097876355 -0.151521
0.17143805 0.41406444 -0.1626693 0.5523429 0.43870795 -0.006758032 0.24689561 -0.10049308
-0.06965264 0.121872425 0.09307745 -0.113067836 0.2502251 -0.14343946 -0.077008635 -0.006103686
0.43670073 0.16247492 -0.052524954 0.026016902 -0.10766453 0.061665207 -0.18138765 -0.2563266
-0.09695479 0.0938869 -0.28161865 0.03900143 -0.25697306 0.24500987 0.10667464 0.0046719485
-0.090266794 0.06222511 0.3867248 0.3055012 0.3719606 0.16362084 0.24654084 -0.06512431
-0.252206 0.3579691 0.2443196 0.10553059 -0.100140415 -0.064485416 -0.1988889 -0.027998459
-0.16583444 -0.16247343 0.42776477 0.027709942 -0.2521103 0.25752 -0.5172352 0.05204917
-0.009380839 0.010687757 0.042181626 0.08351191 -0.36700627 -0.025617398 0.039971836 -0.3376781
0.046005413 0.05790473 -0.1678861 0.14469756 -0.301401 0.12966865 0.09378792 0.49212632
-0.31912512 0.03151774 -0.12312914 -0.46175346 0.8079425 -0.34472352 0.0707496 -0.1057533
-0.43663174 -0.085239194 0.06575986 -0.4088753 -0.4745343 0.22418432 -0.06360765 0.42851475
0.37082076 0.07456843 0.45533064 0.068666376 -0.5485251 0.07190231 0.017899519 -0.27401552
-0.37679654 0.25831962 -0.16203836 -0.15182872 0.3328069 0.03857753 0.23886868 0.22618169
0.66060275 -0.14654297 -0.21009526 0.030535778 0.20266508 0.08266114 0.0006693715 -0.36894533
-0.12597609 -0.23944196 -0.36387497 -0.045022212 -0.06435897 0.23103325 0.029352719 -0.16433044
0.31646803 0.34219825 0.03729397 0.029115608 0.09783699 0.6326693 0.40060377 0.29795834
0.56227905 -0.16814123 -0.14125237 -0.42151168 0.075897165 0.17454809 -0.29223177 -0.56843454
-0.31041944 0.02640471 -0.27214575 -0.17931598 -0.04188247 -0.449433 -0.23453717 -0.0068285433
-0.032879353 0.04656089 0.1834294 0.32237473 0.06577654 -0.10452978 0.034334775 0.07564009
0.06517757 -0.43045986 0.16960329 -0.10252634 0.019514555 -0.2377601 0.2086073 -0.16195446
-0.5466972 0.043381445 -0.60743934 -0.064492665 0.022195043 0.26058072 0.28514057 -0.1903707
0.5117402 -0.20489255 0.059756674 0.43212438 -0.29106575 -0.2067913 -0.08321834 0.1156975
-0.048789203 -0.31465977 -0.28038996 0.12142618 -0.21647087 -0.025431084 0.32171154 0.36261567
0.3866414 0.0005750674 -0.064542815 -0.05945322 0.29646003 -0.22750154 -0.04049136 -0.13340594
-0.020616261 -0.16067654 0.049632486 0.17951469 0.37537596 0.04676039 0.013292102 0.15317683
-0.1113583 -0.058361687 -0.5641615 0.08401633 -0.22638878 -0.14697194 -0.19658662 -0.18215805
-0.8587883 -0.16000023 0.7233232 -0.21410881 0.28852648 0.6110463 -0.28128958 -0.0068016653
0.01763688 -0.12742104 -0.34135446 -0.20218171 -0.17971152 -0.17462176 -0.19552699 -0.24569984

lstm.weight_hh_l0 f4 [400, 100]
00000000: 6c0f 383e 5a4b 013e 45fc 68be 04fe 99be
00000010: 8b91 5dbd e4c2 66be 6155 a83d 04b5 bfbc
00000020: b54c fabd 39f8 973d dd4d 823d 569e d4bd
00000030: 78dd 1abc b4da b1bd 9497 19be 6b4f b9be
00000040: 81aa f83d 2ca8 c63d 7d44 ca3d 5448 f53d
00000050: ec3f 953d 80e4 9a3c 314d cabe 396b 103e
00000060: 4d01 063f f981 993e 6e33 cd3d 2bca 273e
00000070: 4bf6 bd3c b2ca 41be 5bc7 18bf 9aa1 3a3e
00000080: 2fdb 22be 36b7 29be 5e61 bdbd d21e 1b3d
00000090: 2673 013f e28b b33e f320 8bbe 39db 4f3e
000000a0: b399 273e cc29 613d 5322 c4bd 1331 a0bd
000000b0: e53f 99bd d37e aa3c a2f9 703d 3e32 85be
000000c0: a51d b03b d554 7a3c 15ac bdbc bcb4 e13c
000000d0: f48c 003d b09a 5ebe f228 35be 0fa0 82be
000000e0: 4e85 e43c ed22 98be fd0c 4cbe f68e e13c
000000f0: ce86 81be 514a c73e 34ed 1bbe cfd4 65be
00000100: db2c 3ebe 1aac 583d 0124 65bb cb61 653e
00000110: d2bf b83d 0e67 b63d 6f6d 743d e3a8 b63e
00000120: dbc9 683d e07e b03d e993 80be 1dfd 3ebe
00000130: 09d6 9f3d 3d4c 9bbe 06bd edbd aa29 953e
00000140: 6af8 473e ea2c 773e 398e ba3d c77b 5bbe
00000150: cc14 b6be 041c 03be 8497 13bd 60f4 4b3e
00000160: f6fe ad3d 4c9b 4cbe 5eee 913d ebd0 143e
00000170: e08e 333e 445e 6b3c 475a b63d 2c74 a03e
00000180: c42f 043e 6a07 da3e 42ca 853d c803 6abd
00000190: cc62 b93e da0d f1bd 4128 193d b72c 03bd
000001a0: 75c4 8e3e 5f76 c43e a28c 3dbe 4dbe 5f3e
000001b0: 66b2 823d b248 4a3e fdd5 b63c a5c5 27be
000001c0: c158 39bd d557 193f a39c 10be b342 a2bd
000001d0: b5fb 753e e040 5f3e 5f39 e3bd 5936 47bd
000001e0: dca0 a23d a886 683c dfed 533d 611b 4f3e
000001f0: 8535 8fbe 6bdd 093d 6c43 89be dcad 6cbd
00000200: 210a abbe 855a c4be bdff 39be 5241 41bc
00000210: 1b4c bfbe 7f81 8ebe 31a7 b0be 69bd 9c3e
00000220: 2e34 d2be 865c 17be 0624 cbbd 424b fcbd
00000230: b26d 133d b421 c8bd af02 e3bc 2f85 243e
00000240: 77db e93d 161f 9a3e 27e0 a23e 1277 693e
00000250: bc6b cc3c 0a27 e5bd 2afe a6bd 1e91 98be
00000260: d46c e2bd e093 fabd bae6 7e3d 2c2f 25bd
00000270: 1673 233e 9aa7 00be d8a8 8e3e b114 c7be
00000280: a222 c23e ba2a c9bd 4ce0 873e 9374 3c3d
00000290: f0e9 f4bd 3c72 a3be d7de 05bd 88f2 553e
000002a0: 3147 3e3d 640e b03d 7743 6bbe 6524 63be
000002b0: 8e31 f7bd a73b 4abe b4ba c73d 59b2 273e
000002c0: aec0 573e 6bb7 af3e da6b 443e 5452 81bd
000002d0: 6030 07be 60a7 263d b767 023e 141b b23d
000002e0: aa2d b33c 4921 283e ccf1 503e 5625 9e3d
000002f0: 6bb0 193e 9690 5bbe c07a b53e 16b2 debb
00000300: c7c3 343e 8b37 fdbd e9bb b2bc 093c dcbe
00000310: bf13 b7be 00fd babd 7712 b7be 9ebd a9bd
00000320: 6455 973e 8f28 31be bedd 633e 3ded 77bd
00000330: 0a91 2abe ad75 65be 5c4a 12be 8e78 4ebe
00000340: eae9 d9bc 5846 153e 23b9 09be 7279 3c3d
00000350: b4fb 9dbe 6307 11be e23f 05be 0ca9 8f3e
00000360: d499 ebbb 1cd5 833e 2fbc c13d 1f44 3f3e
00000370: 65e7 e53e ef5a 47be e4c3 7bbe dd3b 98be
00000380: 2038 0f3e 3b24 8bbc 7ab7 8cbd 18e6 9cbd
00000390: 422e e23d d7ef f03e 2a32 543d 35d4 21be
000003a0: 6cd1 ae3e c1c1 43be 14c1 c83e 03d7 37bd
000003b0: 3b22 d5be fdad d13d 0ddd 4cbe 7ba6 b63d
000003c0: ab90 d53c c5fe 97be a953 a43d 7ed0 61bc
000003d0: cb24 973e af52 2dbd 73d7 b7bd f56c 55bc
000003e0: 264c 81be a4d6 1bbe 94c1 0b3f 2c99 4dbe
000003f0: e527 6d3e 3aa1 b83d 37eb b1be 9d8e 04bd
0.17974633 0.126264 -0.22752483 -0.3007661 -0.05409388 -0.22535282 0.0821941 -0.023401745
-0.12221662 0.074203916 0.063625075 -0.10381763 -0.009452216 -0.086842924 -0.14999229 -0.36193404
0.12141896 0.09700045 0.09876344 0.11976686 0.07287583 0.018907785 -0.39512017 0.14103402
0.52345735 0.29981974 0.10019575 0.16385715 0.02318873 -0.18924978 -0.5967919 0.18225709
-0.15903924 -0.16573796 -0.09247087 0.03787119 0.5056633 0.3506766 -0.27173576 0.2029847
0.16367225 0.0549715 -0.09576859 -0.0782186 -0.0748289 0.020812428 0.05883182 -0.26014894
0.0053746277 0.015279015 -0.023153344 0.027552001 0.031384423 -0.21738696 -0.176914 -0.2551274
0.027895596 -0.29714146 -0.1992683 0.02753399 -0.2529816 0.38923886 -0.15227205 -0.22444461
-0.18571799 0.052898504 -0.0034964087 0.22400586 0.09020962 0.08906375 0.059674677 0.35675725
0.05683313 0.086179495 -0.25112846 -0.18651243 0.07804496 -0.30331603 -0.11608319 0.2913335
0.19528356 0.24138227 0.09109158 -0.21433936 -0.35562742 -0.12803656 -0.03603317 0.1991744
0.084958956 -0.19981116 0.07125543 0.14532821 0.17534971 0.014365736 0.08903938 0.31338632
0.12908846 0.4258378 0.06532718 -0.057132512 0.3620819 -0.1177022 0.037391905 -0.032025065
0.2788426 0.3837156 -0.18510678 0.21849938 0.06381683 0.19754294 0.022318834 -0.16383989
-0.045250658 0.59899646 -0.14122252 -0.07922878 0.240218 0.21802092 -0.11094927 -0.048635814
0.07940838 0.014192261 0.051740523 0.20225288 -0.2797052 0.033658426 -0.2680925 -0.057782993
-0.33406165 -0.3835031 -0.18163963 -0.011795359 -0.3736275 -0.27833173 -0.34502557 0.30613258
-0.41055435 -0.14781389 -0.0991898 -0.12319042 0.035993285 -0.09772053 -0.02771124 0.1606643
0.11418813 0.30101842 0.3181164 0.22799328 0.024953716 -0.11189087 -0.08153947 -0.29798216
-0.110559136 -0.12235236 0.062231757 -0.04032819 0.1596187 -0.12563935 0.27863193 -0.38882974
0.37917048 -0.098226026 0.26538312 0.04600961 -0.119586825 -0.3192309 -0.03268322 0.208933
0.046454612 0.08596495 -0.22974955 -0.22181852 -0.12069999 -0.19749318 0.09752408 0.16376628
0.21069595 0.34319624 0.19181767 -0.06314531 -0.13202047 0.040686965 0.12734877 0.08696571
0.02187236 0.16418947 0.20404738 0.07721965 0.15008704 -0.21441874 0.35445213 -0.006796132
0.17652808 -0.123641096 -0.021818118 -0.43014553 -0.35757253 -0.09130287 -0.35756275 -0.0828812
0.29557335 -0.17300628 0.22252557 -0.060528982 -0.1665689 -0.22408171 -0.14286178 -0.20163175
-0.026600797 0.14577615 -0.1344953 0.046014257 -0.30856097 -0.14162974 -0.1301265 0.2805866
-0.0071899686 0.25748527 0.09459721 0.1867833 0.44903103 -0.19468282 -0.24586445 -0.29733172
0.13986254 -0.01698505 -0.06870933 -0.076610744 0.11043979 0.47057983 0.051805653 -0.15803607
0.3414415 -0.1911688 0.39209807 -0.044882786 -0.41627678 0.10238264 -0.20006199 0.089184724
0.02606996 -0.2968656 0.080237694 -0.013782619 0.29520258 -0.04231518 -0.089766406 -0.013026466
-0.2525341 -0.15218598 0.5459225 -0.20077962 0.2315975 0.090151265 -0.34749767 -0.03236257

lstm.bias_ih_l0 f4 [400]
00000000: 1751 7f3d 503c d4bd 16c9 febd 79f1 a23d
00000010: efc5 94bd feab 27be b2b7 4d3d e33c a43d
00000020: 5d40 bebd f3be 9f3c 691f f13c 97a5 34be
00000030: 649a b4bc 593f 253e fd1f 9c3c 1d33 bfbd
00000040: b2b6 10bd de54 2a3e 6983 343d b134 a13c
00000050: cd5d 0d3e c47c 81bd 13fd 723b b117 75bd
00000060: 52c5 df3c fd32 0fbe d7d7 513d 8126 d33d
00000070: 96b3 8fbe 4e01 30bd c63c e6bd 0a92 423d
00000080: 770f c6bd dc5d 02be 5b9f 4f3c 4088 85bd
00000090: 729e a83d a6fb 34bd a1b4 0c3d 4040 a2bc
000000a0: 48ba 713c ed6e e4bb 0e94 22be a30c 11be
000000b0: e5e7 69bd 5bd7 d63d 9869 12bd cc6c fbbd
000000c0: 055e dcbd ab7c 943c 632c 443d 70df bdbd
000000d0: 26a0 c9bc a760 e8bd 8e55 0ebd e951 15be
000000e0: 9c25 0d3d ebc0 dabd 678b 65be 6bc9 56bd
000000f0: d4b8 5bbe d517 1cbe 474b f33c 30fc b0bd
00000100: d628 c4bc 4ce2 003e f0b1 3e3d a71f 833d
00000110: 630b 113e f42d a0bc a57e c03c 0cc9 a8be
00000120: 054e dfbe f3af 393c e18a 0cbe 5d95 20be
00000130: 300c 0bbc 1e7f cf3c 0e00 a3bc db40 68be
00000140: 550b 34bc e17f 9cbd ef51 943c 8726 043e
00000150: 50a9 ff3d 0499 f03c 7611 0e3e 32b1 83bd
00000160: e1c5 d5bd b6f3 063e 36ec be3c 32ce adbc
00000170: 4672 fa3c 3b91 f7bd b9e2 f13d 20d1 573d
00000180: 564c 3ebd 47c3 6dbe 972e 69be 2965 31bd
00000190: bb8a 913c 13de 203e c7c6 c5bc 2cc4 503c
000001a0: 5fe5 a8bd 78d0 a3bd cf94 973d c6ac f8bd
000001b0: abea 883c 5807 1c3e 0cb1 a73c d693 b53c
000001c0: 4a65 ad3d d807 1cbb 5fef d03d 0705 39bc
000001d0: 45c5 03bc e7d1 523e 1eae 8f3d 93fa 2c3d
000001e0: 59db 42bd 793e 543e 9933 9e3d d2ca 6d3d
000001f0: 47b6 093e 9225 51bd 420e 953d 3341 51bd
00000200: fde7 353d e19e 95bd 2e1c 10bd 5685 0e3c
00000210: d5b9 163d 52f2 783d 8877 58bd 58a0 a53d
00000220: ecec 2e3e 09fa aebc 7f67 923d 5131 e6bc
00000230: 8ade 123d 7af2 343e 78c2 2d3e 0acc e23e
00000240: 256f 813d b15c 3e3e a024 b83d 1886 8e3d
00000250: 9fe1 ec3d b6f9 f3bc 9ee3 50bd 3f58 ddbc
00000260: 4f7e 0e3e 73a7 ad3d 3948 af3d 9a27 1bbd
00000270: 8bef cdbd 7eb8 b13d 5e4e 563e 54c3 8b3d
00000280: b617 e2bc 7e07 e03d ec7a d3bc b4cc 8c3d
00000290: 0706 b63d e567 79bd 6824 9e3d ffbb 103c
000002a0: ae9b 3b3e 9287 2e3d 6985 413e 793b 62bd
000002b0: c0eb fa3e 3672 253d ad56 a2bc 72ea 64bc
000002c0: 569d 693d ba3e 8d3d 587b 86bd 52a1 8b3e
000002d0: 7a70 a53d 3d26 683c fdd0 1fbd 51e9 3b3d
000002e0: f7db 0bbd 51ca 88bd df67 d03d 5338 403e
000002f0: 96bc 3ebd 3fb0 b23d 1e92 c13d f87c 883d
00000300: cf39 a0bd 4950 273e 7d60 1bbd 4983 f13c
00000310: 1c3d 183e c5f2 b1bd 3091 8e3e 4fee 51bd
00000320: 159a 50be 26c3 9c3d bad7 4cbb 3034 b5bc
00000330: 0419 27be 9c60 973c c106 acbd 2550 4bbd
00000340: 2b8d d7bd 7547 733d ae46 a53c 3522 f63d
00000350: 9e00 493d bb4c 96bd 03a4 b43d 82e8 abbd
00000360: 473f 97bd 01dc dabd a742 b2bc ef09 003d
00000370: aa24 a03d 83ff 003d e3e1 823d dac2 88bd
00000380: c7a3 96bd 96dc 503d 6a61 2b3e a31c 42bd
00000390: e83e a0bd b60d 8cbd 1182 4f3d b853 93bd
000003a0: ae9d 643d 9ebb 0c3d a970 59bd cd27 65bd
000003b0: 79e6 033e e91b c7bc 1e84 e43d 6d0f 833c
000003c0: 6bc2 93bd 69a3 5a3d 9f20 b2bc 9659 ddbd
000003d0: 1372 edbd f30d 0abe 9548 763d 5419 dcbd
000003e0: 9738 d6bd 51b7 2e3d 38b7 bfbd be64 fc3d
000003f0: 4321 343d e952 143d 1b40 99bc c7da ea3b
0.062333193 -0.10363066 -0.12440698 0.079562135 -0.07264315 -0.16374204 0.050224014 0.08019426
-0.0928962 0.019500231 0.029433923 -0.17641293 -0.022046275 0.16137446 0.019058222 -0.09335921
-0.03533048 0.16633937 0.044070635 0.019678446 0.13805313 -0.06322625 0.0037077114 -0.059837047
0.02731577 -0.13984294 0.05123123 0.103100784 -0.280667 -0.042969994 -0.1124206 0.047502555
-0.096709184 -0.12731117 0.012672271 -0.06520128 0.08233346 -0.044185303 0.03435195 -0.019806027
0.014753886 -0.006971231 -0.15876791 -0.14164977 -0.057105917 0.104902945 -0.035745233 -0.12276611
-0.1076012 0.018125853 0.047893893 -0.09271133 -0.024612498 -0.1134656 -0.03474956 -0.14582027
0.034459695 -0.106813274 -0.22416459 -0.05243818 -0.21457225 -0.15243466 0.029698981 -0.08641851
-0.023945253 0.12586325 0.046556413 0.064025216 0.141645 -0.019553162 0.023497889 -0.32965887
-0.43614212 0.0113334535 -0.13724853 -0.15681978 -0.008486792 0.025329169 -0.019897487 -0.2268099
-0.01098903 -0.076415785 0.018105475 0.12905322 0.12483466 0.029369839 0.13873848 -0.06430282
-0.10438133 0.13178906 0.023305994 -0.021216486 0.030572068 -0.120882474 0.11810822 0.05268967
-0.04645952 -0.23219024 -0.22771679 -0.043309364 0.017766347 0.15709715 -0.024142636 0.0127420835
-0.08246874 -0.07998747 0.0740143 -0.12142329 0.01671346 0.15237176 0.020470165 0.02216522
0.08466585 -0.0023808386 0.102019064 -0.0112927025 -0.008042638 0.20587884 0.07015632 0.042231154
-0.047572467 0.20726956 0.07724685 0.058054753 0.1344844 -0.05106122 0.0727811 -0.05108757
0.044410694 -0.07305694 -0.035183124 0.008698782 0.036798317 0.06077797 -0.05284837 0.08087224
0.17082566 -0.02135946 0.071486466 -0.028099688 0.03585676 0.17670622 0.16968715 0.44296294
0.06320027 0.18590046 0.08991361 0.0695917 0.11566471 -0.029782157 -0.050998323 -0.027019618
0.1391537 0.08479204 0.08558697 -0.037879564 -0.10055455 0.08677767 0.20928332 0.06824365
-0.027599197 0.10938929 -0.02581545 0.068749815 0.088878684 -0.060890097 0.07721788 0.008833884
0.18321106 0.04260976 0.18898548 -0.0552325 0.49007988 0.040392123 -0.01981672 -0.013971912
0.057034813 0.0689673 -0.06566495 0.27271515 0.08078094 0.014169273 -0.039017666 0.045876805
-0.03414532 -0.06679214 0.10176062 0.18771486 -0.04656657 0.087250225 0.09451698 0.06664461
-0.07823526 0.1633922 -0.037933815 0.029481547 0.14867061 -0.08688883 0.27845144 -0.05125266
-0.20371278 0.07654409 -0.0031256513 -0.022119612 -0.16318136 0.018478684 -0.08399726 -0.04963698
-0.105249725 0.05939432 0.020175304 0.12018243 0.049072854 -0.07338854 0.08820345 -0.08393957
-0.07385116 -0.10686494 -0.021760298 0.031259473 0.07819493 0.031493675 0.06390741 -0.0667779
-0.07355457 0.050991617 0.1673638 -0.04739059 -0.078244984 -0.06838553 0.05066115 -0.071937025
0.055814438 0.034358613 -0.053085957 -0.05594616 0.12880887 -0.0243053 0.11158012 0.015998567
-0.07214817 0.053378496 -0.02174407 -0.10808103 -0.115940236 -0.13481884 0.060127813 -0.107470185
-0.104600124 0.042655293 -0.09361118 0.123239025 0.043977033 0.03621188 -0.018707326 0.0071671936

lstm.bias_hh_l0 f4 [400]
00000000: a518 f63d 8640 00be 084d fcbc 7727 bc3d
00000010: ce7b 2cbd 26df 52be c568 553a c27a 793d
00000020: c325 51bd 2e51 923d 9c78 a3bd dc81 efbc
00000030: 8f6d d0bd f8b3 3bba 383e a43d 6b90 07be
00000040: 9dde 853d 4769 173e 5376 37bd d8c2 593d
00000050: 2937 133e 3253 683a e49d fd3b 0967 f1bd
00000060: da06 fe3c 6d5f d2bd e025 69bc ac07 89bd
00000070: fe77 a3be 0a3e 0fbd 37e6 9b3c 959b 97bc
00000080: dce6 5fbe da51 2a3b ac8a 513d 2211 06bd
00000090: d397 383b 04bb 993d 219e 643d c779 3d3c
000000a0: 24ee c53d 3e27 fdbc d780 06be dc9d 0abe
000000b0: 8486 0a3d 0ec7 633e aa1b a8bd d2b3 08be
000000c0: 938c eebc a756 f03c e13c 023d fe85 7abd
000000d0: b53a 68bd 95a2 18be be71 233c cce6 abbc
000000e0: 38c8 193e 9935 ddbc 266c 5dbe 78c1 13be
000000f0: bd5c 88be f40b 54be 0ea8 09bc 45b8 83bd
00000100: 5d18 9e3d 8aad 023e d3a7 bdbc 1f01 bb3d
00000110: 30a3 413d 3d62 c0bd 7224 a6bd bf01 a1be
00000120: afbb f2be de45 4c3d ac09 ccbd d293 b2bd
00000130: a97f 173e d1c3 9abd 4ff5 37be c3ec 22be
00000140: 46e7 0abe 53c6 e4bd 43e3 5939 3947 673d
00000150: 0397 a13d 07cf 833b 736d 2f3e cb00 5bbd
00000160: a0cb aabd 5759 8dba edf9 b23d b22d b8bd
00000170: 0477 c73d cfe7 f9bd 1a53 80bd a3d7 91bd
00000180: 9362 14be a1d2 62be 3ddf 91be c9ea 1b3d
00000190: 9b37 ac3d e03b a83c 9375 373d 0923 b0bc
000001a0: 7b81 09be 74c9 9dbc 79ad 293e 0384 c8bd
000001b0: 063d 263e b79c 86bc 1a06 1cbd b699 c53c
000001c0: 131c 6fbc 5835 003e e36a 9f3d 54b2 203c
000001d0: a8ae f23c 7ef2 4c3e 79fa 0e3d 7f9b ae3d
000001e0: 74d2 52bd cb69 623e df1c fe3c 8556 173c
000001f0: a6f7 dc3d 7cc2 8c3b a41e 9b3d 87fd 74bd
00000200: 796d 913d 02fd 003d 8406 35bc ac3d 3d3d
00000210: 0976 043d bf92 5f3d da4b 5fbc e30c 543d
00000220: 416f aa3c 32f2 a8bc faa7 d23d 1809 723d
00000230: d8ad 333d 1eaa 6a3d e637 8e3e bd7a 0e3f
00000240: f73f 283e 95a8 293d da10 763d e381 e43d
00000250: 5c64 363e 4f6d 703d fe10 b73c ee3b 3abb
00000260: 3091 053e 1c83 d93d b8d7 72bd 8e00 a6bd
00000270: 6a47 d4bd 60ba 133e b39d 1a3e c787 ef3d
00000280: d024 d83c 917c b53c 20dc afbd 97c9 cdbd
00000290: 63e8 ff3b fca6 33bd 7886 7d3d 4504 8b3c
000002a0: 2821 023e 2588 2cbc 7c20 423d 13ce 983d
000002b0: d24b 1e3f e015 d33d 0094 be3b 2e6b 9e3c
000002c0: d259 663e d8fb a03d 1dc5 903d 42a2 a33e
000002d0: fb8f e63c 83d3 303e 83fb 563d 0d11 babc
000002e0: 5150 78bd 4ef0 99bd ba6b 953d f3bc dd3d
000002f0: 301b 353d 4b8e 9f3a 30d3 d43d 74b5 8f3d
00000300: 52c4 383d 9926 2c3e cd41 90bd 9a84 b0bd
00000310: 31a3 df3d 56aa 413d f622 be3e b9e6 6ebd
00000320: b51c bfbd 1815 ac3d d0dd 2ebc 3cae 83bd
00000330: 6a93 7b3c c5d5 e5bb f8cc a7bd 6e5a 1bbe
00000340: ac96 a33c 9cf2 b73d 2a89 b5bd 68bd c03d
00000350: e433 853d d61b 32be b482 9bbd b58f 363d
00000360: 5800 81bd 6542 01be 23f2 df3d bf56 003d
00000370: 16b3 b03d d15a 313d 030a 72bd e00b 763d
00000380: 2609 f8bc 2f0e bbbd d4a0 3e3e 89e0 edbb
00000390: 5361 22bc 3492 11bd c934 c23c 3769 e43d
000003a0: 92e8 a53d 1a79 2fbd f8c6 aebd da66 2bbd
000003b0: 1eb8 c1bb d246 423d 7e5e dc3d 5dd1 53bd
000003c0: 69f9 99bd be70 b03d cb04 933c e95f efbd
000003d0: f4be 5b3d 26a7 c1bd 1a29 11bc 520b 0fbc
000003e0: 0b9e db3c c241 0dbc 2bd2 84bd 8d30 df3d
000003f0: 4dee d03d 4ce6 0dbd 9fd7 3e3d 53dc 883d
0.12016419 -0.12524614 -0.03079845 0.09187215 -0.042110257 -0.20592937 0.0008140917 0.060908087
-0.051061403 0.0714439 -0.07981989 -0.029236726 -0.10177147 -0.00071603013 0.0801968 -0.13238685
0.06536601 0.14786254 -0.044790577 0.053164333 0.1437651 0.0008862495 0.0077397693 -0.117872305
0.031009126 -0.10272107 -0.0142302215 -0.066909164 -0.31927484 -0.034971274 0.019030673 -0.018506804
-0.2186541 0.0025988729 0.05115764 -0.032731183 0.0028166666 0.075063735 0.055814866 0.0115646785
0.09664562 -0.030902501 -0.13135086 -0.13536781 0.03381969 0.22243902 -0.082084015 -0.13349846
-0.029119765 0.029338194 0.03179634 -0.06116294 -0.056696612 -0.1490577 0.009975849 -0.020984076
0.15017784 -0.027003096 -0.21623287 -0.14429271 -0.26633254 -0.20707685 -0.008401884 -0.06431631
0.07719491 0.12761512 -0.023151314 0.09131073 0.04727477 -0.093937375 -0.0811242 -0.31446645
-0.47408816 0.049871318 -0.09962782 -0.08719601 0.14794792 -0.0755688 -0.17964672 -0.1591063
-0.13564786 -0.1117064 0.00020779394 0.056464408 0.07890131 0.0040224823 0.17131595 -0.053467553
-0.0833962 -0.0010784072 0.08739076 -0.08993091 0.09739497 -0.12202417 -0.0626585 -0.071212076
-0.14490728 -0.22150661 -0.2849063 0.038065705 0.084090434 0.020536363 0.044789862 -0.021501081
-0.13428299 -0.0192611 0.16570081 -0.09790804 0.16234216 -0.01643215 -0.038091756 0.024121147
-0.014594096 0.12520349 0.07784059 0.009808142 0.029624298 0.20014378 0.034906838 0.08525752
-0.051470235 0.2211067 0.031019626 0.009236936 0.10789423 0.0042956453 0.075742036 -0.059812095
0.071009584 0.031491287 -0.011048917 0.046201393 0.03233913 0.054583307 -0.013628924 0.051770102
0.020805003 -0.0206233 0.10285945 0.059090704 0.043866962 0.057291143 0.27777022 0.55656034
0.1643065 0.041420538 0.060074665 0.111575864 0.17811722 0.058697995 0.02234697 -0.0028417069
0.13043666 0.1062071 -0.059287757 -0.081055745 -0.10365184 0.14426565 0.1509922 0.11695819
0.026384741 0.022154124 -0.085869074 -0.10048216 0.007809685 -0.04386042 0.061895818 0.01696981
0.1270796 -0.010530506 0.04739426 0.074611805 0.6183444 0.10306907 0.005815983 0.019338217
0.22495201 0.078605354 0.070688464 0.3195973 0.028144827 0.17268185 0.052485954 -0.022713209
-0.06062347 -0.075165376 0.07295938 0.10827055 0.04421538 0.0012173144 0.10391843 0.07017031
0.0451091 0.16811599 -0.070438005 -0.08619042 0.10919798 0.047281586 0.37136048 -0.058325503
-0.09331647 0.08402461 -0.010673001 -0.06429717 0.0153549705 -0.0070140087 -0.081933916 -0.15171215
0.019969307 0.08981821 -0.088640526 0.094111264 0.06504038 -0.17393431 -0.07593289 0.044570643
-0.06298894 -0.12622984 0.10934856 0.031332728 0.08627908 0.0432995 -0.05909158 0.06006992
-0.0302778 -0.09133565 0.18616039 -0.0072594327 -0.009910899 -0.03553982 0.02370681 0.11152881
0.08101 -0.0428401 -0.08534044 -0.041846134 -0.005911841 0.04743082 0.107602105 -0.051713336
-0.07518274 0.08615254 0.017946621 -0.11688215 0.053648904 -0.09455709 -0.008859897 -0.008730726
0.02680876 -0.008621635 -0.06485399 0.10897932 0.10201702 -0.034643456 0.04659235 0.066826485

layers.0.weight f4 [64, 100]
00000000: b0ea 15bd eb8c e43c 874d 713d de74 a2bd
00000010: cdf6 923d dc4a c3bd c782 073e f480 59bc
00000020: d45f 0dbe 461e 213e a12f 8a3d 2c7e 0e3e
00000030: 8b20 8abe 970e bfbd 617f 00be 9d59 9fbd
00000040: b7aa 5dbe 34b2 bdbd 1951 043e 5b72 32bd
00000050: d7a2 963d 7954 70be 26ee 9d3d 7a6f 5dbb
00000060: 24a1 443e 09cb a23d aacf 593d aab7 45be
00000070: da32 d5bd 3e4b c5bd 4ca0 31be d035 44bc
00000080: 08a2 9d3d f2c0 603a a0c0 693e ad76 533c
00000090: ee0a a33d eb18 983d 0a9d 143c 8cbf 3c3e
000000a0: ad28 003e 3089 c83d 2f31 953d 683f a83d
000000b0: 0422 2e3e a571 39bd b5b4 fb3b 466a bf3b
000000c0: c1e4 243e 49b8 a5bd 0757 a4bd 1d89 533a
000000d0: 0336 9a3e 7b70 163d 2c0d e93b 5ff1 af3d
000000e0: 6aac 603d 5fc1 79be 9a4c cb3d 98ec 3739
000000f0: 7003 f13c 8c08 f2bd b82a ad3d 22e1 053c
00000100: 270d f0bd 2bd6 41be ac31 5b3e f750 e83d
00000110: 1396 5dbd 0502 9cbd b34d 55be 70d6 403e
00000120: ab00 1c3e 4c8f c93d 6500 c8bd 4306 0dbc
00000130: 7914 d93b 6db4 3a3d 9612 17bf c284 8fbe
00000140: ea39 483e be5c ac3d 6410 03be 2c6f 91be
00000150: 5675 2dbc 250d f3bc 3e2e 0fbd c2c0 43be
00000160: ac66 0d3d 4940 b43b edbc cbbe 0964 a6bd
00000170: debf 7cbd 8730 033c 00df 89bd ecc6 f93d
00000180: 0d49 2dbe acf3 d43d 4dce 073b 80df 553e
00000190: 5d8c a33d 4db5 71be f805 cb3d 9ef0 bf3c
000001a0: 2eb2 9bbd 1109 313d e179 47bd 0139 063e
000001b0: b80a 30be 5530 bb3d cec3 ee3c 18b1 9b3c
000001c0: b78d 83be 6bde 9ebb 07a7 45bd 2e00 bbbc
000001d0: 423f 74bd f8bd 483c bda0 313e 12d2 50be
000001e0: dcb6 3f3d 6ce1 ddbe 801d a93c 1e31 5fbd
000001f0: 5f49 923e 1101 6f3d d8fe 273e 9a19 a1bd
00000200: 2438 33bd 463c 043e e457 a0be 4c07 b0bd
00000210: 21b0 3d3e d1b6 7abe 7911 2c3e c809 adbd
00000220: 5f22 493d 349a a63d c2d9 763c 8e18 943e
00000230: ec46 203e c05f 7e3e 0bfd 373e 9df6 4d3e
00000240: f290 973e a1bb 04bd e677 993d 83bf 22be
00000250: e3a1 2ebd 1d51 e3bc a404 423c 7846 a9bd
00000260: ff27 bf3e 07ae b0bb 273e 7c3d 69a3 9a3d
00000270: 2fbd 1a3d 25fb c3be b3fb ca3e 3714 4e3c
00000280: e798 f4bc f9fa 3f3e e1f1 853d 3c7c eabd
00000290: f6b7 b5bd c325 5abe 50fc e63d 00ca 413e
000002a0: 7af8 29be bd75 3d3d 4b84 25be fa15 333e
000002b0: 1cad e43e ef7b f13d afe9 6bbe 5559 063e
000002c0: ea86 debc aa58 efbc 5e31 debe 0a79 d9be
000002d0: 4d2b 873e 95ee 813e 0f0a 55be 6aea 80be
000002e0: 55cd 59be 5108 9bbd 520b 98bc 4399 a4be
000002f0: e0bd 953d e105 b33d 9f51 47be 8b79 58bd
00000300: a619 0ebe 8fa3 98bc dc27 c43d 3478 6d3d
00000310: 9725 4abe 785d f03d eef3 ee3d e5e6 503e
00000320: 1e61 e13d 6897 2a3d 4115 f9bd be59 283d
00000330: 9533 c9bd 0d7f f5bb 2628 3d3c 9387 56bd
00000340: a510 093e af1b 83be 229d d13d 3ee6 653e
00000350: def4 3d3e 18fa 24be 7473 153e ad47 803e
00000360: bafa 04be 7a4f babc 22c2 abbe 6ba9 ab3c
00000370: 19d5 bd3e 7773 3b3e ad6d 2abe af4f 6b3d
00000380: b484 5fbd a980 e1bc 9f09 4dbe 50fe 953e
00000390: 2523 fa3d 7a89 8ebb 1d37 613e 0aa6 f23c
000003a0: f9af 0abe d35f 8dbd 6e8c 42be 8af7 343e
000003b0: 3846 02be 8375 1fbb 2129 393d b6fc 1abe
000003c0: ee0a 51be 1444 05be aef8 7bbe 0022 4fbe
000003d0: 837e 38bd 82b4 57bd 429d 92be f62a 3c3d
000003e0: cb9c be3d fd27 f9bb cf35 4bba 508a 85bd
000003f0: 1fe6 61be dbf6 34be c66b 9a3c e647 cd3d
-0.03660077 0.027899226 0.058911826 -0.07932447 0.0717598 -0.09535763 0.13233481 -0.013275374
-0.13806087 0.15734205 0.06747366 0.13915318 -0.26977953 -0.09328955 -0.12548591 -0.07780764
-0.21647154 -0.09262505 0.12921561 -0.04356609 0.07355278 -0.23469724 0.07711439 -0.003378837
0.19202095 0.07948882 0.05317656 -0.19308344 -0.1041009 -0.09633492 -0.17346305 -0.0119757205
0.07696921 0.0008573673 0.22827387 0.0129067125 0.07961069 0.07426628 0.009070644 0.18432444
0.12515517 0.097917914 0.07284772 0.08215219 0.17005163 -0.045274395 0.007681454 0.005841526
0.16102888 -0.0809179 -0.08024412 0.00080694427 0.30119333 0.036728363 0.007112166 0.0859096
0.054851927 -0.24390171 0.0992672 0.00017540378 0.029420584 -0.118180364 0.084554136 0.008171352
-0.117212586 -0.18929355 0.21405667 0.11343568 -0.0540982 -0.07617573 -0.20830421 0.18831801
0.1523463 0.09841785 -0.097657 -0.00860745 0.006624755 0.045582224 -0.59012735 -0.28030974
0.19553342 0.08416127 -0.12799221 -0.2840513 -0.010587057 -0.029669354 -0.03495621 -0.191165
0.034521744 0.0055008275 -0.39792576 -0.08124549 -0.061706416 0.008007175 -0.06731987 0.121961445
-0.16922398 0.10398039 0.002072233 0.2088604 0.079857565 -0.23604317 0.09913248 0.023430165
-0.076023445 0.043221537 -0.048700217 0.13107683 -0.17191589 0.09140078 0.029146101 0.019005343
-0.25694057 -0.0048482916 -0.048254993 -0.022827234 -0.05963064 0.012252323 0.17346473 -0.20392635
0.046805248 -0.43336046 0.02064395 -0.0544902 0.28571603 0.058350626 0.16405809 -0.07866211
-0.04375471 0.12913617 -0.31317055 -0.08595142 0.18524219 -0.24483801 0.1680354 -0.08449131
0.049105044 0.08134881 0.015066566 0.28924984 0.15652055 0.24841213 0.17967622 0.20113607
0.29602772 -0.0324055 0.07493572 -0.15893368 -0.042634856 -0.027748639 0.011841927 -0.08265394
0.37335202 -0.0053918394 0.06158271 0.07550699 0.037778076 -0.38277546 0.39645156 0.012578062
-0.029858066 0.18748082 0.06540275 -0.11449477 -0.088729784 -0.21303467 0.112785935 0.18924713
-0.16598693 0.046254862 -0.16163747 0.17488852 0.44663322 0.117912166 -0.23038362 0.13120015
-0.027163941 -0.029217083 -0.4339704 -0.42475158 0.26400223 0.25377336 -0.20804618 -0.25178844
-0.21269734 -0.075699456 -0.018560085 -0.3214818 0.073116064 0.08741356 -0.1946473 -0.052850287
-0.13876972 -0.018632678 0.09577915 0.057975963 -0.19740902 0.11736578 0.1166762 0.2040058
0.11004852 0.0416483 -0.12162257 0.04110121 -0.098242916 -0.0074919523 0.011545217 -0.052375387
0.13385256 -0.25607058 0.10235049 0.22451112 0.1855044 -0.16111028 0.14594823 0.25054684
-0.1298627 -0.022742976 -0.3354655 0.020954808 0.37076643 0.18305765 -0.166434 0.05744904
-0.054569915 -0.02752717 -0.20023201 0.29295588 0.122137345 -0.0043498846 0.2199368 0.02962019
-0.1354369 -0.06903043 -0.18998882 0.17672554 -0.12722099 -0.0024331517 0.04520524 -0.15135464
-0.20414326 -0.13014251 -0.24606583 -0.20227814 -0.045042526 -0.05266238 -0.28635603 0.04593941
0.0930725 -0.007603644 -0.00077518536 -0.06520522 -0.2206044 -0.17672293 0.018850219 0.10023479

layers.0.bias f4 [64]
00000000: 5f16 e03d bc86 513e b520 1b3e 1484 523c
00000010: d8c6 b5bd 36db 05bd cc39 d03d ecd6 6a3d
00000020: 392d cb3d 418f 0a3e 0dbd 833d a034 71bd
00000030: 615f 39be c590 553d 39b2 123e 69c5 403c
00000040: 3d3e 573d 916e ce3c f45b 54be 5e3b d43d
00000050: 43de d5bd c7a9 cd3d d689 2a3e a25f 1a3c
00000060: 29e8 033c 5c3f f0bd b17a 6b3d 805d 813d
00000070: de50 d53d 0454 143e bba9 013e a40d 943b
00000080: 99d8 9b3d e9b9 133e b200 57bd 9f39 e63d
00000090: f49f 2a3e cf56 c5bd 0fab f63d 7143 2d3e
000000a0: 4184 3a3e b179 e33d fe55 353e ffd3 bf3d
000000b0: a885 da3d 0d72 603e 1d56 cc3d 6a5c 0d3e
000000c0: d93c e93d 0870 363d 4719 7c3d 5cf6 133e
000000d0: 06f6 0c3e c668 1d3e 68ce 333e 02da fd3d
000000e0: 39e8 dd3d 8e58 ae3d 7f88 1abe a576 bc3c
000000f0: d6f2 193e f59d 52bd a464 103e 2298 42be
0.10941767 0.20461553 0.15149195 0.012848873 -0.08875817 -0.03267976 0.10167274 0.05733387
0.09920735 0.1353121 0.06432543 -0.058888078 -0.1810279 0.052140016 0.14325799 0.011765816
0.05254959 0.025199207 -0.20738202 0.10362886 -0.10442784 0.10042148 0.16654143 0.009422215
0.008050957 -0.11730835 0.057490055 0.06316662 0.10415815 0.14485174 0.12662403 0.0045182277
0.07609672 0.14426388 -0.052490897 0.11241459 0.1666258 -0.09635698 0.120443456 0.16920258
0.18214513 0.11107195 0.17708585 0.09366607 0.10670024 0.21918507 0.09977362 0.13804784
0.11388559 0.044540435 0.061547544 0.14449447 0.13765725 0.15371999 0.17559206 0.12395097
0.108353086 0.08512984 -0.15091132 0.023005793 0.15034041 -0.05142017 0.14100891 -0.19003347

lin.weight f4 [1, 64]
00000000: f2d6 083e 3dd7 883e a801 7fbe ecff b73e
00000010: aa49 bdbe 6335 60be c05e c93e dd6f 9c3e
00000020: 691a 63be fa82 c1be e371 42be 723b d53d
00000030: 0b7f 6e3d c6fc 893e b70d 4ebe b5f8 6b3e
00000040: 80ed 3fbe bdc2 673e 98cc 8c3d f940 6dbe
00000050: c54a 82be 9dd6 483e d216 85be 92a3 86be
00000060: ecb8 bb3e e180 19be ff91 443e f04a 59be
00000070: dae6 6cbe 094e a03e 1a47 82be 1862 94be
00000080: 0815 c8bd 8525 fc3d db49 3e3e 8e2b 6fbe
00000090: 1021 6ebe 07c3 0a3e 682e 7dbe 3e8a 7e3e
000000a0: 56c9 8a3e 6ffa 953e 7a4a 5ebe 6f4f 5f3e
000000b0: a1e5 683e b05b 993e 2e3a 19be 3c88 a4be
000000c0: d892 773e 1189 333e e7b2 a53e fb2a 763e
000000d0: e07f 2a3e 188e 76be fac9 99be d38e 7d3e
000000e0: 0378 3f3e d119 2abe 0a5e d8be 66ce 36be
000000f0: 4698 a93e dbb5 af3e 800c 72be 5b21 38bd
0.13363245 0.26726714 -0.24902976 0.3593744 -0.36970264 -0.21895365 0.393301 0.30554095
-0.22178043 -0.3779524 -0.18988757 0.10411729 0.058226626 0.26950663 -0.2012242 0.23044093
-0.18742943 0.2263288 0.06874961 -0.23169316 -0.2544767 0.19613118 -0.25993973 -0.2629667
0.36664522 -0.1499057 0.19196318 -0.21219993 -0.23134938 0.31309536 -0.2544487 -0.2898109
-0.097696364 0.12311844 0.18582861 -0.23356459 -0.232548 0.1355096 -0.24724734 0.24857423
0.27106732 0.29292628 -0.21708098 0.21807645 0.22743846 0.29952765 -0.149636 -0.3213519
0.2417711 0.17532755 0.32363054 0.24039833 0.16650343 -0.24077642 -0.30036908 0.24761514
0.18698125 -0.1661141 -0.42259246 -0.17852172 0.33123988 0.34318432 -0.23637581 -0.044953685
