versions/86.20/model.pth (torch_old, 270641 bytes, 7 tensors)

lstm.weight_ih_l0 f4 [400, 50]
000000 e6 4b 9b 3b d1 ec c9 3e b7 23 6d be 09 83 91 be
       0.0047392724 0.3943849 -0.23158155 -0.28420284
000010 9e fc 2b 3e d6 5b 20 3e 25 66 c6 3d 73 f1 11 bf
       0.16795585 0.15660033 0.09687451 -0.5700905
000020 2e 71 63 be 3d 0e 3a 3e 7c 7e fe 3d 1c 24 03 3f
       -0.22211143 0.18169494 0.12426469 0.51226974
000030 7c cd 92 3e 27 0c 03 3e 1f 4c a2 3c c0 52 17 3e
       0.28672397 0.12797605 0.019811688 0.1477766
000040 00 40 64 3e 7a 86 a7 3e 43 77 89 bd 9e 80 e2 bd
       0.22290039 0.32719785 -0.067122005 -0.11059688
000050 13 9b 02 3f fe f7 28 be 91 4e 24 3e 75 80 e1 3e
       0.51017874 -0.16500852 0.16045596 0.44043317
000060 ef 1b 28 3e d1 18 86 ba 83 c8 17 be 7a 0e b4 be
       0.16416906 -0.0010230785 -0.14822583 -0.35167295
000070 9c ab 8a 3d ce 4a 88 be a7 af 8c 3d 23 66 8f 3e
       0.06771013 -0.2661957 0.068694405 0.28007612
000080 b2 f5 90 bd 77 a6 09 3e 10 08 1c 3e 82 54 24 3e
       -0.07078113 0.13442408 0.1523745 0.16047862
000090 35 20 ca 3c db 17 95 bd 45 b7 a7 be 45 41 85 bc
       0.02467356 -0.07279941 -0.3275701 -0.016266475
0000a0 a6 77 cf 3d 34 0b 3f be 85 76 0d 3d 0a d5 df ba
       0.10130243 -0.18656617 0.034536857 -0.001707704
0000b0 51 9e 2d bd 1c 21 47 3d 90 41 05 3f 82 34 b7 bd
       -0.04238731 0.04861556 0.52053165 -0.08945562
0000c0 c8 05 55 be 87 c6 43 3e 9c ad 75 3d 6a 54 09 be
       -0.20802987 0.19118701 0.05998002 -0.13411108
0000d0 4a 92 de 3e 6d 22 ba 3d eb 58 b6 be 2f b7 29 be
       0.43470985 0.090885974 -0.35614714 -0.16573785
0000e0 e1 54 a0 bd 0d f9 0c 3f 7d 2d a0 bf a0 e2 80 3e
       -0.07828689 0.5506752 -1.2513882 0.251729
0000f0 a1 b7 1c be 0a 20 92 3d c5 11 13 be e5 5f 19 3c
       -0.15304424 0.07135017 -0.14362247 0.009361242
000100 39 60 ea 3e 1c 9c 10 3f 9b 59 11 be c0 9d 17 be
       0.45776537 0.56488204 -0.14194338 -0.1480627
000110 24 50 e9 3d 66 0a 97 3c 98 ab 4a be 6f ab 53 be
       0.11392239 0.018437576 -0.1979202 -0.20670865
000120 56 a0 78 bd 8c a1 83 3d 6e e8 78 3e e3 34 26 bd
       -0.060699783 0.06427297 0.24307415 -0.04057778
000130 dc e0 ef 3d 75 94 c7 bc f9 b2 ba 3e 99 3e 2b 3e
       0.117128104 -0.024362782 0.3646467 0.16723098
000140 33 da 42 be ee 45 82 3e ed 88 29 bf 0b 4d 0b be
       -0.19028549 0.25443977 -0.6622456 -0.13603608
000150 b0 2b 67 bd 1d 7f 7f be 79 cd 81 3e 7f fd ad be
       -0.056438148 -0.24950834 0.25352076 -0.33982465
000160 cb 52 af be 4a d2 5c be db ff cb be bf 35 9e 3e
       -0.34242854 -0.21564594 -0.3984364 0.3090038
000170 d2 bf d6 bc 39 e9 49 3e 53 9b 00 be 61 98 28 3f
       -0.026214514 0.19717874 -0.12559251 0.6585751
000180 88 26 d7 3d 76 3b 4b 3e d9 cc 89 be 36 ba e7 3d
       0.10505396 0.19846901 -0.269141 0.11314814
000190 16 53 96 be 06 1d 1a be 51 90 02 be be 8c fd bd
       -0.29360265 -0.15050134 -0.12750365 -0.1238036
0001a0 2a aa 67 be 65 2d f2 bd bf 83 b3 3d 79 d8 15 3e
       -0.22623506 -0.118250646 0.08765363 0.14633359
0001b0 e5 0e e0 be 92 4b 5a 3e c9 b3 c8 be 29 5d 5d 3d
       -0.43761364 0.2131789 -0.39199665 0.054043923
0001c0 ac ff 85 3e d9 b7 c7 be 69 87 3d 3e 60 f9 d2 be
       0.26171625 -0.39007452 0.18508686 -0.41205883
0001d0 b4 cb ae bd 0d 92 0f 3d 2f b1 d3 3c 82 57 d9 38
       -0.08534947 0.035051394 0.025841324 0.00010363666
0001e0 ed d9 92 be 09 65 c0 bb 3b 23 b8 3e b2 6f 13 bf
       -0.2868189 -0.0058714193 0.3596438 -0.5759231
0001f0 60 85 cc 3e 40 3c 9e 3d 64 5e 16 be 1a fc 8a bd
       0.39945507 0.077263355 -0.14684445 -0.06786366
000200 98 bc 38 3f 90 52 90 3e ab 28 3e 3c 0e 06 33 3f
       0.7216277 0.2818799 0.011606376 0.69931114
000210 03 c6 27 3f 42 2d ca 3e b0 02 51 bd 73 00 e0 3e
       0.65536517 0.39487654 -0.051027954 0.43750343
000220 75 e9 bd bd 0f f6 33 3e 8d 2b 2e be 1f 82 31 3d
       -0.09273044 0.17574333 -0.17008801 0.043336984
000230 25 3c d9 3d d8 2d 59 be cd 03 dc 3d 12 1d 8c 3d
       0.10607175 -0.21208894 0.107429124 0.06841482
000240 bc 60 b7 be 4a a0 a5 3e 4d aa ac be 1a 35 4b 3e
       -0.3581599 0.32348853 -0.3372368 0.19844475
000250 f9 d5 fd 3e cc 68 2e 3e 6a b2 90 3e 25 61 92 3b
       0.4957731 0.17032164 0.2826112 0.004467147
000260 5b 12 9b 3d 13 30 4d 3c 01 84 ba bc 3f b8 c8 3e
       0.075718604 0.012523669 -0.022768022 0.3920307
000270 75 7a 8b 3c 21 f9 16 bf 61 60 48 3e 30 ea 6c 3e
       0.017026166 -0.5897389 0.19568016 0.2313621
000280 04 89 75 3d 83 b0 db 3c 21 6b 4d 3d 03 e2 9c 3e
       0.05994512 0.026817566 0.050150994 0.30641183
000290 64 b7 35 3e ed f1 b4 3e 71 6d af ba 88 76 bf be
       0.17745739 0.35340825 -0.0013384057 -0.3739512
0002a0 aa 45 af 3e 7e 89 df be 92 96 b6 be a8 da 8c be
       0.34232837 -0.43659586 -0.3566175 -0.2751057
0002b0 93 6f 79 bd 90 2d 32 3f 39 40 cb bd 15 5e 29 be
       -0.06089742 0.6960077 -0.09924359 -0.16539796
0002c0 af 5c bd 3d b0 0b 08 3f 23 8d 0c 3e 51 84 10 3f
       0.092461936 0.53142834 0.13725714 0.564519
0002d0 58 bb 83 3e f5 4e b0 be 6b 09 8e 3e 5d 7f 87 be
       0.2572887 -0.3443524 0.2774156 -0.26464358
0002e0 70 b4 c5 be 04 57 19 bf c5 88 20 3e a2 9f 0c bf
       -0.38614225 -0.598984 0.15677173 -0.5493108
0002f0 50 26 82 bd 6b 6f 8f 3c 04 97 29 3e 23 0d 9b 3e
       -0.06354964 0.017509183 0.16561514 0.3028346
000300 6b c3 a2 3e 5c 99 50 3e 68 81 9d 3e 32 a3 ad 3d
       0.31789717 0.20371002 0.30762792 0.08478393
000310 bd 24 3b be 02 c2 10 3f 42 62 18 3f 83 08 44 3f
       -0.18275733 0.5654603 0.5952493 0.7657549
000320 c6 d7 67 3c 6e eb c8 bd 9f 88 c4 bc 03 b7 5f be
       0.0141505655 -0.0981053 -0.023990927 -0.21847157
000330 af b3 52 3e 92 7e 91 bd 15 31 85 3d ef 30 af 3e
       0.20576356 -0.071042195 0.06503502 0.3421702
000340 49 3c ca be 95 71 a3 3a bf 11 97 be 23 b6 6f 3f
       -0.3949912 0.0012469763 -0.29505727 0.93637294
000350 05 47 13 be 01 7e fb bd 0c 99 fb 3d b2 76 11 bd
       -0.1438256 -0.12279893 0.12285051 -0.035513587
000360 13 92 35 3f 2d bd b3 bd 23 a7 70 3e 08 29 a0 bd
       0.70926017 -0.08776317 0.23501258 -0.07820326
000370 9b a5 3b 39 cd bd cb 3c 73 76 1d be 22 37 09 3f
       0.00017895403 0.024870778 -0.15377216 0.5359975
000380 15 37 9e 3e 4b b6 9b bc 29 01 be 3c 1f 38 1c bf
       0.309014 -0.019007822 0.023193913 -0.61023134
000390 61 5d 00 3e 19 83 07 be d9 b3 6d be 52 a1 ed 3c
       0.12535621 -0.13233604 -0.23213138 0.029007588
0003a0 15 81 a9 bd dc e9 63 bc 5e b7 cd bd 2f d6 fd 3e
       -0.082765736 -0.013910737 -0.1004474 0.49577472
0003b0 2f cb ca be 01 e6 90 bd 22 aa d8 3d cf e1 32 3e
       -0.39608142 -0.0707512 0.10579325 0.17468952
0003c0 df 69 6a 3f 70 b6 26 3f 80 50 23 bf 90 12 84 bd
       0.91567796 0.6512213 -0.6379471 -0.06448853
0003d0 fc cd 87 3e 48 02 80 3e b9 a5 e5 3d 91 8c 4a be
       0.2652434 0.2500174 0.1121325 -0.19780184
0003e0 65 bf 07 be ed e8 36 3c cd 5e da 3d ab 93 bb bd
       -0.13256605 0.011163932 0.10662613 -0.09159025
0003f0 7a f7 37 be 0a c5 3e bd 9a 12 e5 bd 25 de a2 3e
       -0.17965499 -0.04657463 -0.111851886 0.31810108

lstm.weight_hh_l0 f4 [400, 100]
000000 ef 05 c5 3e 36 76 04 bd 9b 52 9e be f8 d7 3a bd
       0.3848109 -0.032339297 -0.30922398 -0.04561612
000010 a4 4f 85 be 92 75 95 3e b0 17 ef be b9 01 8b 3e
       -0.26037323 0.29191262 -0.4669776 0.27149752
000020 01 09 d8 3e 9f cb 48 3e eb 79 af 3e 01 37 9e be
       0.4219437 0.19608925 0.34272704 -0.3090134
000030 b6 30 3f be 0d 04 bb 3e d5 89 f6 3d 66 51 35 bf
       -0.18670925 0.36526528 0.12038008 -0.7082733
000040 3e a2 40 be 6d b8 8d 3e 0f 7a 0e 3e 36 05 81 3d
       -0.1881189 0.27679768 0.13913749 0.06299822
000050 cb e8 1f 3e 5f 47 ac 3e 6f a3 49 3e 1a bd 57 3c
       0.15616147 0.33648202 0.19691251 0.013167644
000060 e3 99 2a 3e 0a 21 04 3d f0 5d 82 be 92 ad e4 3d
       0.16660266 0.03225807 -0.25462294 0.111659184
000070 65 d3 68 39 21 41 98 bd 52 5c 8f 3c 3b 95 99 3e
       0.00022203995 -0.07434297 0.017500076 0.29996666
000080 6c 4e f6 3d b9 90 bd be 69 f3 9b be 00 e9 7b 3d
       0.120266765 -0.37024477 -0.30459145 0.061501503
000090 b5 c1 20 3e fd ab 2a be b8 9b d8 be da 92 0a bd
       0.15698893 -0.16667171 -0.42306304 -0.033831455
0000a0 45 a6 d6 ba af 74 8b be 16 f6 25 3e 44 85 8a be
       -0.0016376456 -0.2723746 0.16207156 -0.270548
0000b0 61 fc 02 3d b1 f7 4b 3e 74 70 70 be 44 2f ee be
       0.03197897 0.19918706 -0.23480397 -0.46520436
0000c0 71 81 d3 bc 74 83 25 be 26 4a 63 be 9a c7 6c 3d
       -0.025818558 -0.16163427 -0.22196254 0.057807542
0000d0 15 8c 87 3e 9d 23 d6 3e 56 36 82 3e 13 23 a2 3e
       0.26474062 0.41824046 0.2543208 0.31667385
0000e0 4e fc 5d 3d 26 16 21 bd ff 3c 59 be 9d 80 95 3e
       0.054195695 -0.039327763 -0.21214674 0.29199687
0000f0 80 60 ce 3d e6 66 60 3e d9 e9 48 3e e3 91 b5 be
       0.10077 0.21914253 0.19620456 -0.35462865
000100 36 c2 f1 bd e2 48 ae be ce 22 ae 3d f1 7a 92 3d
       -0.11804621 -0.3403998 0.08502732 0.071523555
000110 4e 82 09 3e 19 16 a2 bd 65 42 2e be 2b 4b 75 be
       0.13428614 -0.07914371 -0.17017515 -0.23954456
000120 af df 46 3d 69 fe b4 3c d8 a9 99 3e 8e c5 21 3d
       0.048553165 0.022093968 0.30012393 0.039495043
000130 c1 11 57 bd 50 15 94 bd 95 a8 d9 3d b4 75 9b be
       -0.052507166 -0.072306275 0.106278576 -0.30363238
000140 af f2 b4 3e 97 a0 1f be 3f 51 b6 be 78 d3 ab 3d
       0.35341403 -0.15588604 -0.3560886 0.08389944
000150 33 7e 22 3d 39 43 3e 3a ba bf 87 3e 42 4d 89 bc
       0.039671134 0.0007257942 0.26513463 -0.016760472
000160 a3 2c d9 3d 7d 00 7c be 88 9e 4f be 94 89 dd bd
       0.10604217 -0.24609561 -0.20275319 -0.108172566
000170 30 80 2f be ab 3c 8e 3e 71 d1 9b 3d 18 ac 00 3f
       -0.17138743 0.2778066 0.07608307 0.50262594
000180 75 fa 6a bd d5 b2 9b 3e 33 ea 29 3e 7b 83 ca bc
       -0.05736776 0.30409876 0.16593246 -0.024720898
000190 76 e1 65 be 73 9d 93 be cd 12 cd 3e 14 eb 90 bd
       -0.22449288 -0.28831062 0.40053406 -0.070760876
0001a0 59 e4 62 3e 01 13 32 be 51 26 96 3d 21 45 d4 be
       0.2215742 -0.17390062 0.07331527 -0.4145899
0001b0 f2 86 15 be ee 32 ad be cd e4 09 3e 38 0c 46 bd
       -0.14602259 -0.3382792 0.13466187 -0.048351496
0001c0 9e dd 36 3e 17 37 6a be cc b3 3c 3e 42 83 ca 3c
       0.17857978 -0.22872578 0.18427962 0.024720792
0001d0 22 c0 56 bd 3a 77 4b 3d 5a c0 d6 be 90 c0 14 3e
       -0.052429326 0.04967425 -0.41943628 0.14526582
0001e0 b2 30 9a bc e8 fe 22 3e b1 7e 82 bd 05 5b b0 3e
       -0.018822048 0.15917552 -0.06371821 0.34444442
0001f0 8b b7 a0 be 81 5d 23 bf 62 05 93 3e d9 a9 5c be
       -0.31390032 -0.6381455 0.28715044 -0.21549167
000200 a8 18 17 3f cf 37 6f 3e 77 d9 01 be ff a8 8f 3e
       0.59022 0.23361133 -0.12680613 0.2805862
000210 59 4a 64 be d4 ba 1b 3f e8 d3 a0 3e 87 dc 22 be
       -0.22293986 0.6083195 0.31411672 -0.15904437
000220 9d 17 0d 3d 2b e2 98 3c d1 e8 4b bf 6e 5e a3 3e
       0.034446348 0.018662533 -0.79652125 0.31907982
000230 43 db 9c be f6 2f 4f be 94 77 30 bd f1 3b 03 3f
       -0.30636033 -0.2023314 -0.04308279 0.5126334
000240 e8 66 e0 be b0 fd b7 bd f3 94 7c 3e 11 49 f8 3d
       -0.4382851 -0.08983934 0.24666195 0.12123311
000250 1c b9 32 be b7 4f 0b be a2 c8 18 bc 76 0e 79 3e
       -0.17453426 -0.13604628 -0.009325178 0.24321923
000260 39 a5 f1 3d 6b 76 84 bd fe 26 78 be 23 f6 3a 3d
       0.11799092 -0.06467899 -0.24233624 0.04564489
000270 19 85 88 3e a1 d9 a4 bd d6 d4 11 3e 04 ca 0f 3c
       0.26664045 -0.08049322 0.14241347 0.008776192
000280 b5 ef 30 3f bd 0d 4f bd 93 9a bb 3d b2 c2 6e 3e
       0.69115764 -0.05055021 0.09160342 0.23316458
000290 ed 9e f0 3d e6 21 c3 3e 5b aa 20 3f 20 b2 00 3f
       0.11749063 0.381118 0.6275994 0.502718
0002a0 9d e8 98 3e fa 6c a3 3e 46 78 14 3e b8 33 19 3f
       0.2986497 0.3191908 0.14499006 0.5984454
0002b0 38 67 16 be 9d 6a 0a be c9 8b ae bd e7 08 25 be
       -0.14687812 -0.13517232 -0.08522756 -0.16116677
0002c0 ad 6c 65 be 91 4a 42 3e b7 18 78 3e 5e 30 44 bd
       -0.22404738 0.18973757 0.24228178 -0.04789769
0002d0 bd a0 86 be c5 1c ef 3e 9e c7 26 3d 85 53 90 3e
       -0.2629451 0.46701637 0.040717714 0.2818872
0002e0 22 c8 31 bc ea dd 20 be 7a 2e b7 3e 35 ec fb 3e
       -0.010850938 -0.15709653 0.35777646 0.4920365
0002f0 91 2d f9 3e e2 95 77 be d0 6c a2 3e 54 49 64 bd
       0.48667577 -0.2417827 0.31723642 -0.055733994
000300 b3 e8 25 3e bc 40 06 be 24 0b ca 3e dc b3 09 bf
       0.16202049 -0.13110632 0.39461625 -0.5379007
000310 34 56 36 3e 45 5c 4e 3e 87 3f 27 3e 43 6d 46 be
       0.17806321 0.20152386 0.16332828 -0.19377618
000320 61 5f ea bd 83 fb 35 bd 6c cc 86 3c ba 5e 7e bf
       -0.11443973 -0.044429313 0.016454898 -0.9936329
000330 09 91 48 bf 97 98 7b be cc 7f 41 3e 74 8b 09 bf
       -0.78346306 -0.24569927 0.18896407 -0.53728414
000340 01 96 4e bf e8 24 52 bf 6a bf 01 bf c6 39 0a 3f
       -0.8069764 -0.82087564 -0.506827 0.53994405
000350 f6 e8 55 3e cd 3b 1c bf 28 71 c9 be f6 b2 59 3f
       0.20889649 -0.6102875 -0.39344144 0.850387
000360 81 8f 1c 3e 4e bb 9c 3f 79 d3 2a 3d 34 b0 c1 bb
       0.15289117 1.2244661 0.041705582 -0.0059108976
000370 1d cb 4e 3e 4b 34 d7 be 54 72 58 be 27 08 94 3e
       0.20194669 -0.42032084 -0.21137363 0.2891247
000380 2a 81 00 bf c6 86 16 3f c9 07 54 3e 31 cd 80 be
       -0.5019709 0.587994 0.20706095 -0.2515655
000390 8d 9a b5 3e 20 4c 0b 3f ba b5 cb be 63 36 3b be
       0.35469475 0.5441303 -0.39787084 -0.18282466
0003a0 b0 3f 98 3f d4 27 ae 3d e2 40 75 be 28 7c 8f be
       1.1894436 0.0850369 -0.23950532 -0.2802441
0003b0 da 2c ea be eb fb 25 3f 00 3b 60 3e dd 0c e2 3e
       -0.45737344 0.6483752 0.21897507 0.4415044
0003c0 a2 31 80 bd 7c 9e 81 3f dd 6a 62 3d 68 fc 82 3e
       -0.06259467 1.012649 0.055277694 0.25583196
0003d0 15 54 f2 be 64 6c d8 be 20 8e 13 be 5d 1d 1a 3f
       -0.47329774 -0.42270195 -0.14409685 0.60201055
0003e0 20 a0 e6 bd c8 5f 9b be 4e 17 e5 bc b9 78 a7 be
       -0.1126101 -0.30346513 -0.027965214 -0.32709292
0003f0 70 ec 9c be df 88 15 bf 2e 05 1b bf 39 6d 0d bf
       -0.30649137 -0.58411974 -0.6055478 -0.55244786

lstm.bias_ih_l0 f4 [400]
000000 f1 ba 95 3e 99 2d 78 bd 77 f3 f4 be 0a 5b 01 be
       0.29244187 -0.06059036 -0.47842 -0.12632385
000010 c3 ba 8d be 02 fe 4b bc 13 8b 9d 3d 9d 29 9f bc
       -0.2768155 -0.012450697 0.07692542 -0.019429022
000020 2e 71 cb 3d f7 b7 a9 3a 1c 18 30 3e 72 81 57 bd
       0.09933697 0.0012948503 0.17196697 -0.052613683
000030 9a 97 84 3e 03 b2 0e 3e e9 77 2d 3e 6c 24 05 3e
       0.25896913 0.13935094 0.16940273 0.13002175
000040 6b ab 93 3c 49 dd bd bd d6 7f b4 be ac 01 86 be
       0.018026074 -0.092707224 -0.3525378 -0.2617315
000050 e7 95 3c 3e 1b 05 dc 3d c1 7b e0 bd 92 7b 4c bd
       0.18416558 0.10743161 -0.10961104 -0.049922533
000060 e3 fe 1f 3e b4 50 26 be 22 96 c7 bb f0 f4 1a 3d
       0.15624575 -0.16241723 -0.0060908953 0.037831247
000070 cc fc a8 3d 20 7c 36 bd e0 fd bd 3d 8d 10 53 3d
       0.08251342 -0.04455197 0.092769384 0.051529456
000080 bb 44 e3 bc a8 02 fd 3a 6c 68 61 be 54 10 3a be
       -0.027742734 0.001930316 -0.2201249 -0.18170291
000090 0e 92 6e bd 93 4d 98 bd b6 9b 2b bc 12 8e 84 3d
       -0.058244757 -0.07436671 -0.010474136 0.0647241
0000a0 cd 32 ea bc 20 8a b0 be dc 64 f2 3c 43 ef af bd
       -0.028588677 -0.3448038 0.02958911 -0.085905574
0000b0 20 83 d8 bd 26 05 84 3d d2 59 2e 3d 7c b5 f4 3d
       -0.10571885 0.064462945 0.042566128 0.11948678
0000c0 82 39 3d 3e 58 3f e0 bd c1 9f a5 3e 6b eb 34 3d
       0.18478969 -0.10949582 0.32348445 0.044169825
0000d0 05 33 33 3e 76 a4 96 bd 6d cf d0 3b fc d0 b0 bc
       0.17499931 -0.07355587 0.0063723833 -0.021584027
0000e0 0b 92 00 be 01 c0 52 3d bb ee 00 3e 2a 42 7f 3d
       -0.12555711 0.05145264 0.12591068 0.06231896
0000f0 81 62 a4 bd 1f ed ea 3d a8 7f a7 3e aa b2 99 3d
       -0.08026601 0.114710085 0.3271458 0.075047806
000100 09 ce 71 bd 46 e2 20 3c d6 43 22 bd 70 20 99 3d
       -0.05903438 0.009819573 -0.039615475 0.0747689
000110 49 86 4f 3d 5d c8 83 bc ad c9 fa 3c 69 21 ad bc
       0.050665174 -0.016086752 0.030613745 -0.021134095
000120 80 b4 39 bc 22 de 24 3e 93 dd 8c bc 87 52 8b 3e
       -0.011334538 0.16100362 -0.017195499 0.272114
000130 a3 14 89 3d 7e c1 08 3d c0 87 0a 3e 36 70 cc be
       0.06693389 0.033387654 0.13528347 -0.3992936
000140 87 6d 1a be fa ca 9a 3d aa 74 75 bc 42 d8 e0 bd
       -0.15080844 0.07558246 -0.014981428 -0.10978748
000150 8a f0 ba 3d d7 82 20 3d fa 0d 45 3d 46 9f ae bd
       0.091279104 0.03918728 0.048109032 -0.08526473
000160 e2 14 16 3e 30 48 2b bd 97 1b 2b 3d ff b6 d8 3c
       0.14656404 -0.04181689 0.04177436 0.026454447
000170 82 16 0a 3e cf f8 f9 bd b2 1d 90 bd d6 89 0b 3e
       0.13485149 -0.122056596 -0.07036914 0.13626799
000180 14 0f 47 3e d4 d4 da bd 0e f1 a7 3b 5b 70 d6 bd
       0.19439346 -0.10685125 0.0051251715 -0.10470649
000190 f3 18 8a 3d ca de 6e 3e 39 df 4f 3e ad 03 31 be
       0.0674304 0.23327175 0.20299996 -0.17286558
0001a0 44 ea 06 3e d3 54 3f 3d 26 3e 45 bc 80 14 05 3e
       0.13175303 0.046711754 -0.012038743 0.12996101
0001b0 65 68 d1 3d 56 4e 98 3d 20 f8 d1 3c 2e bd 37 3e
       0.1022499 0.074368164 0.02563101 0.1794326
0001c0 1d 32 dd 3d 9a 48 f2 bc 57 5e 6e 3e 59 1a 13 3c
       0.10800574 -0.029575635 0.23278175 0.00897845
0001d0 b2 9a 9d 3c 88 cf 09 3d 6d 48 be 3e e3 bc 55 3e
       0.019238804 0.033645183 0.3716463 0.20872836
0001e0 9f 24 00 3d 79 23 70 3d de 82 ef 3d fa 1a f6 3d
       0.031284925 0.05862758 0.11694883 0.12016864
0001f0 ae 86 4a 3d 25 78 38 3b 3c ff 0b 3e bb ed c9 3d
       0.049444847 0.0028147784 0.13671583 0.098597966
000200 ce 52 a4 3d 05 42 f5 3c 15 3e 8d 3e 2e 7f 92 bc
       0.08023606 0.029938707 0.27586427 -0.01788291
000210 12 90 99 3c e8 24 32 be 0b 5d a3 3c 47 9e 88 3c
       0.018745456 -0.17396891 0.019941827 0.016677035
000220 5e 71 f8 3c d8 4c cb bb 91 8b 5c 3e 7a 58 25 3d
       0.030327495 -0.006204229 0.21537615 0.04036758
000230 35 0f d2 bc 6e cf b8 bc df 92 3f bb ed 7e d4 3d
       -0.025642017 -0.022559848 -0.002923183 0.10375772
000240 d7 44 32 3e 63 9c e5 bc 02 b0 00 3d 9b 8f a5 3c
       0.17409073 -0.028028673 0.031417854 0.020210078
000250 30 a9 ab 3e bb cc c6 3d bc ff b6 3d 17 e4 ed 3d
       0.33527517 0.09707018 0.08935496 0.1161577
000260 3c 1f db bb 41 95 fb bc 7c 42 0e bd 6c 93 2a bc
       -0.006687073 -0.030710818 -0.034731373 -0.010411125
000270 0d 70 8a bd d9 72 06 3e 93 33 05 3e c5 66 5a 3e
       -0.06759653 0.13129748 0.13007955 0.21328266
000280 8d 28 3b 3d e7 e4 21 3d ea 39 d4 3d 87 38 21 3d
       0.04569297 0.03952494 0.10362609 0.03936055
000290 06 3c da bd 85 93 0a be 76 38 c1 3b dc 82 5a bd
       -0.1065598 -0.13532837 0.0058966232 -0.053347453
0002a0 a7 14 e3 bd 7b 80 b5 3c cf 4e f1 3c 29 9a 02 3e
       -0.110879235 0.02215599 0.029456524 0.1275412
0002b0 f3 47 06 bd 10 e1 2b 3e 58 59 6e 3d 07 c5 a7 3d
       -0.03278346 0.16785073 0.058190674 0.08191877
0002c0 88 d8 96 3d c6 06 16 bd e1 27 48 3d f0 71 b1 3e
       0.07365519 -0.036627553 0.048866156 0.3465724
0002d0 d5 28 d5 bb e8 50 bb 3d 72 30 85 ba fe c3 66 bc
       -0.0065051117 0.09146291 -0.0010161533 -0.014084814
0002e0 a2 2a a5 3e a8 00 0e 3e 24 24 a4 3d a1 55 8a 3e
       0.3225909 0.13867438 0.08014706 0.27018455
0002f0 53 af 30 3d 43 4f 3e bc e8 5a 14 3d df 73 2e 3e
       0.043135952 -0.011615577 0.036219507 0.17036389
000300 29 57 81 bd 57 d4 20 be bb a9 f0 3d 51 9c ad 3d
       -0.063154526 -0.15706001 0.117511235 0.084770806
000310 a6 3e 4a 3e 89 8e f0 bd c1 30 04 3e d5 bb e4 3c
       0.19750461 -0.117459364 0.12909223 0.027921597
000320 a4 14 7b 3d 23 18 aa bd 1d 1e 22 bb ae 07 32 3d
       0.06129898 -0.08305385 -0.0024737187 0.043464355
000330 1c 1b 94 bd 7c 30 52 bd 5d 0a 35 3d 9e f7 91 bd
       -0.07231733 -0.05131577 0.044199336 -0.07127307
000340 c4 b0 cd 3d 55 25 90 bc 94 c7 96 3d 28 f1 68 bd
       0.10043481 -0.017595926 0.07362285 -0.05687061
000350 7e 37 04 3d 62 12 52 3b 9d 61 1e 3d a4 b5 39 be
       0.032279484 0.0032054414 0.03866731 -0.18135697
000360 04 39 c6 bd 05 8a 31 3d 85 46 b3 bc 41 59 9b bd
       -0.096788436 0.043344516 -0.021884212 -0.07585383
000370 16 67 1f bd 57 d2 ef 3c 4f f6 42 bc c4 ca 8a 3d
       -0.03891667 0.029275103 -0.011899545 0.06776956
000380 16 c7 20 3e 35 12 96 bd 75 e9 8b 3c 84 76 69 bd
       0.15700945 -0.073276915 0.017079094 -0.05699779
000390 c4 7d 8a 3d a1 19 af bd 48 03 c7 3d ee 0b b3 3c
       0.06762269 -0.0854981 0.09717423 0.021856274
0003a0 52 35 8f 3d 3f 18 2b 3c 0a 63 9d 3d 78 ad 6e 3c
       0.06992592 0.010442792 0.07684906 0.014567725
0003b0 68 ce 6b 3d 2b 3a 87 bc 0d 25 fb bd 44 88 90 bd
       0.05756989 -0.016507229 -0.12262926 -0.070572406
0003c0 13 80 28 3c a2 32 50 bc 94 e9 51 3c 25 c2 f7 3c
       0.0102844415 -0.012707384 0.012812037 0.030243943
0003d0 7d ba 45 bb 38 61 1d bd ac 7f 46 bd d4 7e ba 3c
       -0.003017097 -0.038422793 -0.0484616 0.022765554
0003e0 c4 2d a5 3d fe 5b 13 3d d4 f7 bf 3d 4d cd f3 bc
       0.0806537 0.035976402 0.09373441 -0.029760981
0003f0 f1 df ab 3c a1 8d 0c 3e 86 c1 b1 3d 5f de a6 3c
       0.020980807 0.13725902 0.0867949 0.020369707

lstm.bias_hh_l0 f4 [400]
000000 63 ec 8e 3e 27 e6 87 3c 39 c6 d8 be 54 a5 97 bd
       0.27914724 0.016589237 -0.42338732 -0.07404581
000010 bd 57 5c be 8f f9 2c 3d c1 00 e1 3d 76 87 89 3d
       -0.21517844 0.042230185 0.10986472 0.0671529
000020 9b c1 4f 3d 2c 92 a4 3d 6e 21 06 3e 3b d1 95 bd
       0.050721746 0.080356926 0.1309869 -0.07315298
000030 40 19 2c 3e a3 e0 ae 3d 09 86 d6 3d b7 15 10 3e
       0.16806507 0.0853894 0.10474784 0.14070784
000040 21 80 bf bd 11 98 b1 bb d3 37 a8 be ea d1 64 be
       -0.093506105 -0.005419739 -0.3285509 -0.22345701
000050 9d a4 59 3e 9b 02 07 bd 46 6e da bd 9a 69 da bd
       0.21254201 -0.03296147 -0.10665564 -0.10664673
000060 fc d9 b2 3c 6c 02 6c bd f5 15 5b bd e5 54 1c bc
       0.021832459 -0.057619497 -0.053487737 -0.009541725
000070 20 35 5c 3e 06 3a af 3d ae 62 df 3c 8e da ae 3b
       0.2150464 0.08555989 0.027268734 0.0053361123
000080 39 a6 47 3b 79 b3 70 3d 81 48 5f be 93 32 88 be
       0.0030464067 0.05876491 -0.21805002 -0.26601085
000090 71 6d a0 bd 8b 5f 2a be ef 76 ea 3c f3 72 43 bd
       -0.07833374 -0.16638009 0.028621165 -0.047717046
0000a0 bd 50 af bd c7 5e 73 be 5b c2 b5 3c 92 09 0e be
       -0.085603215 -0.23766623 0.022187402 -0.13870838
0000b0 d7 bd 2a be 24 4d 8a 3d 5e 58 af 3d f4 b0 60 3e
       -0.1667398 0.06752995 0.085617766 0.21942502
0000c0 4d 49 51 3d 81 92 29 bd ce d4 97 3e 7e 0e 90 bd
       0.051095296 -0.041399483 0.29654545 -0.07034014
0000d0 5c 21 9a 3d ca 0d 6f bd e2 a0 d3 3d c7 47 94 bc
       0.07525894 -0.05836276 0.1033342 -0.018100632
0000e0 37 69 d0 bd 47 75 95 3d 91 f6 0d 3d 18 bf 48 3e
       -0.10176318 0.072977595 0.034658972 0.19604146
0000f0 3a 75 90 3d e8 1a fe bc 1e 29 5a 3e b1 23 86 3b
       0.07053609 -0.03101869 0.21304747 0.00409361
000100 b7 f9 14 3c f9 ed c0 3d a1 4b fd 3d fa 0f ba 3c
       0.00909274 0.0942039 0.12367941 0.022712696
000110 6f b9 c9 3d 26 c4 35 3d e8 b8 39 3e d9 3a ad bc
       0.09849822 0.044376515 0.18136942 -0.021146225
000120 6f 30 a0 3d cd 19 05 3e f9 b7 9d bd 99 2d a0 3e
       0.07821738 0.12998123 -0.077011056 0.31284788
000130 89 7f e7 3d 45 3d 33 3d 68 5f 12 3e 42 4a 88 be
       0.11303622 0.043759603 0.14294207 -0.26619154
000140 f6 8c 0f be a0 f4 40 3e 77 ff fc bb 25 de 88 bd
       -0.14018616 0.18843317 -0.0077208835 -0.06682996
000150 e3 7a 0c 3c 47 66 22 bd 85 eb 0b 3d af 0c be 39
       0.00857422 -0.03964832 0.034160156 0.00036249074
000160 ca 08 cc 3b 45 16 a7 bd 79 b2 15 3e 31 3b 3d 3e
       0.0062266337 -0.081585445 0.14618863 0.18479611
000170 70 32 03 3e 4f 17 d4 bd 2d fb ae 3d 41 46 e7 bc
       0.12812209 -0.10356008 0.08544002 -0.028231742
000180 2c 42 0a 3d 97 44 be bd c2 91 f1 bc 50 d8 73 bd
       0.033754513 -0.09290426 -0.029488448 -0.059532464
000190 52 16 a5 3d 57 25 dc 3d 50 99 a4 3e 4f ea 97 bc
       0.08060898 0.107493095 0.32148218 -0.018544344
0001a0 ea b5 f1 3d 94 a9 96 3d be b2 07 3d f6 6e dc 3d
       0.118022755 0.07356563 0.033129446 0.107633516
0001b0 28 63 9b bd 9a 50 0b 3d e7 dc cf 3d 1f 5e 1c 3e
       -0.07587272 0.034012415 0.10149556 0.1527028
0001c0 cd 39 77 3d 5b b6 4e bd a4 03 12 3e fc 08 e9 bb
       0.060357857 -0.050466876 0.14259201 -0.0071116667
0001d0 52 e9 1d 39 1d a9 4f 3d ec 0b 9f 3e 06 e8 c5 3d
       0.00015059605 0.05069839 0.31063783 0.096633956
0001e0 d6 6a f8 3d dc 30 10 3e a5 e7 77 3d dc 9d fc 3d
       0.12129752 0.14081138 0.060523648 0.12334797
0001f0 bd 6d df bc 88 82 09 3e 8e 3c fd 3c 0d ed 05 3d
       -0.027274007 0.134287 0.030912664 0.032696772
000200 56 ab e3 3b 86 52 24 3b d5 de b1 3e c8 61 89 bd
       0.006947915 0.0025073602 0.3474032 -0.067081034
000210 3c 33 f6 3d a6 38 71 bd 57 6b c3 3d 65 a9 ed 3d
       0.12021491 -0.058891915 0.09541958 0.11604575
000220 9f 5f 3a 3d d7 04 0f be 8d 3f 0b 3e 91 ce e1 3d
       0.045501348 -0.1396669 0.13598461 0.110257275
000230 b1 b0 7d 3d bf 89 5d 3d 88 1e 00 3e 50 cc 1c 3e
       0.061936084 0.054086443 0.12511647 0.15312314
000240 b5 74 dc 3d 39 64 a1 bb bf 46 de bc 72 0e a4 3d
       0.107644476 -0.0049252775 -0.027133344 0.08010568
000250 81 99 34 3e c2 83 67 3d 6b 57 74 3d e3 bf 8a 3c
       0.17636682 0.05652214 0.05965368 0.016937202
000260 99 a1 71 3d ab f2 07 ba 76 ab 06 3c a6 bc cb bd
       0.058992002 -0.00051860017 0.00821959 -0.09948091
000270 88 5c af 3d 58 03 a2 3b aa c6 87 3e cd 4f 14 3e
       0.08562571 0.0049442463 0.26518756 0.14483567
000280 81 2f b6 bd 99 06 82 3c e8 48 4b 3e 9c e5 b9 3c
       -0.088957794 0.015872287 0.1985203 0.022692494
000290 09 fa 2c bc f6 1d d9 bc 98 d4 7d bd 25 a3 50 bd
       -0.01055766 -0.026503544 -0.061970323 -0.050936837
0002a0 97 99 06 be 37 c5 24 bc 39 61 1c 3e 5e bd 54 bc
       -0.13144527 -0.010056785 0.15271463 -0.012984602
0002b0 62 64 56 3d bf 7d 89 3d 68 d1 ef 3d b5 70 fa 3d
       0.052341826 0.06713437 0.11709863 0.122285284
0002c0 db ea a6 bc e8 fb d7 3d aa f7 6e 3d 08 4d 7f 3e
       -0.02037566 0.10546094 0.05834166 0.24931729
0002d0 92 f0 60 bd 2c 89 e7 3d 4a e9 76 3d af 3a b4 3a
       -0.054916926 0.1130546 0.060281076 0.0013750399
0002e0 f2 9b ab 3e 4b cd 23 3e a6 db 89 bd e7 74 38 3e
       0.33517414 0.15996282 -0.06731348 0.18013345
0002f0 61 34 11 3e 54 10 c1 3d 68 72 10 3e c0 b2 84 3d
       0.14180137 0.094269425 0.14106143 0.06479406
000300 de 7d cd bd 61 d1 8b bd df a5 97 3d 08 77 38 bd
       -0.10033773 -0.06827045 0.07404684 -0.045035392
000310 85 78 3e 3e 38 ca cd bd da 55 1d 3e 4b 28 0f 3e
       0.18600662 -0.10048336 0.15364781 0.13980214
000320 a0 40 30 bd 6a 76 85 bd eb 33 82 3d 0f 1d 37 bd
       -0.04303038 -0.06516726 0.06357559 -0.044705447
000330 35 cd d8 bd d9 4e 8a bd b5 4e 1b 3d ef 14 da 3a
       -0.10586015 -0.0675332 0.037916858 0.0016638319
000340 f0 ec bc 3d 58 5f 41 3c 8c d3 f9 3d 1c 0b 7e bc
       0.0922488 0.011802517 0.121985525 -0.015505578
000350 19 34 da bd 64 95 39 bc b5 d6 c6 3c d6 ea 80 bd
       -0.10654468 -0.011327121 0.024272302 -0.062947914
000360 f6 57 02 be cc 9f d1 3d b4 8e a9 bd 2a 85 20 bd
       -0.12728867 0.10235557 -0.082791716 -0.039189495
000370 ad 6d aa 3d cb 9a 25 bd bf e6 51 3b cd 7b e0 3b
       0.083217 -0.040430825 0.0032028405 0.0068506957
000380 7a 14 49 bc ed 9b 9d bd b4 48 f1 bd 91 9d 57 3b
       -0.012272948 -0.07695756 -0.11781445 0.0032900313
000390 3d 60 a8 bd 0c 8a 34 3d ab df 3b bc d7 ff fe 3c
       -0.08221481 0.044076964 -0.011466901 0.031127853
0003a0 34 bb bd bd d8 60 88 3d 13 ad f1 3d d3 d0 03 3d
       -0.09264222 0.066590965 0.118005894 0.032181572
0003b0 48 b6 63 3d 2e f2 1b bd 8c 50 5e 3d 84 85 0c bc
       0.05559376 -0.038072757 0.054276034 -0.0085767545
0003c0 65 4a e2 3c 06 e1 d6 3c 9d fb 92 bd 27 2f 31 bd
       0.027623365 0.026230346 -0.07176898 -0.04325786
0003d0 28 ae ac bd 58 36 a0 3d ca 60 91 3c c3 86 8c 3c
       -0.08431655 0.07822865 0.017746348 0.017154103
0003e0 a0 37 9a 3d bf 41 90 bd e0 fc 3b 3e ec be 2b 3d
       0.07530141 -0.0704379 0.18358183 0.041930124
0003f0 df 12 a7 3d 03 bb f8 3d 25 b7 bd 3b 75 09 1b 3e
       0.08157896 0.12145045 0.005789655 0.15140326

layers.0.weight f4 [64, 100]
000000 64 53 04 3e 91 cb 62 bc a6 a3 11 3e 47 fa 04 bd
       0.12922436 -0.013842479 0.14222583 -0.032465246
000010 cc b5 44 be 57 20 14 3c 5b f1 c1 bd 21 9b cf bc
       -0.19209975 0.009040914 -0.09469863 -0.025342526
000020 ef cc c2 bc 8b 7b 3b bd d2 ef 93 3c 87 2e 31 3e
       -0.02377936 -0.045772117 0.018058691 0.17302905
000030 fc 92 88 bd 22 b1 bc bd dd 48 1d 3e 23 13 b6 bc
       -0.0666866 -0.09213473 0.15359826 -0.022225922
000040 81 8c f2 3a 57 f5 47 3e a9 6b 7a bb 0c 1c 15 3e
       0.0018505008 0.19527183 -0.0038211143 0.1456148
000050 05 59 97 3b 5f a7 66 3e 03 8e 8f 3d 46 36 e7 3d
       0.0046187663 0.22524785 0.070095085 0.11289649
000060 fb 2b 0c bd 8e 4b 00 3e 8c db 5f be f6 ac ef bc
       -0.03422163 0.12528822 -0.21861094 -0.029257279
000070 5a 1c db 3c 0c ba 64 bd 4a 6e 98 3d e2 e0 a8 bd
       0.026746918 -0.05584149 0.07442911 -0.08246018
000080 05 57 4c 3e f5 6a b3 bd a3 a8 8d 3e 0c 46 b1 3d
       0.1995507 -0.08760635 0.27667722 0.086559385
000090 eb d4 fa 3d 76 f6 00 be 66 5c 62 3d 07 e9 ab bd
       0.12247642 -0.12594017 0.0552639 -0.08394056
0000a0 36 e9 ff be e2 10 2c 3d 95 b8 86 3d ec 37 b7 bc
       -0.49982613 0.04200829 0.06578175 -0.022365533
0000b0 8b 1e 3f 3e f8 c9 ae 3d dd 0a 97 be 2c 09 98 bc
       0.18663995 0.08534616 -0.29500476 -0.018559061
0000c0 65 f6 10 be 16 a2 5e be 9d 1b 08 be 3c f0 f7 ba
       -0.14156492 -0.21741518 -0.13291784 -0.00189162
0000d0 8b c7 22 3c 20 48 32 be 3b cb 64 3d 0e ab 43 bd
       0.00993527 -0.17410326 0.05585788 -0.047770552
0000e0 e4 e9 33 3e 78 a3 ea 3d 2a 74 a2 bd ff f1 f3 bc
       0.17569691 0.114569604 -0.07932313 -0.029778479
0000f0 52 9e 24 3e 6d e2 30 bd f3 e2 3a bd ac e9 8d bd
       0.1607602 -0.043184686 -0.045626592 -0.06929335
000100 49 29 cd bc 00 6d 62 3d be de 00 be 4c e9 4d 3e
       -0.0250441 0.05527973 -0.1258497 0.20108527
000110 c0 99 25 3e d2 14 25 bc b4 96 25 be 1a 8e ef 39
       0.16171932 -0.010075765 -0.1617077 0.00045691506
000120 4f 6b 55 be 68 23 5d bc f9 c6 85 bd 72 56 99 3c
       -0.20841716 -0.013497211 -0.06532092 0.018717978
000130 72 9f 30 bc 58 1a 89 3c 9f 09 3b 3d 92 03 bf 3d
       -0.010780202 0.016736194 0.045663472 0.09326853
000140 3f ac 19 bc f5 e2 1e 3e e6 7a 7f bd 69 7a 5b be
       -0.009379446 0.15516265 -0.062373064 -0.21433415
000150 37 63 0d be e8 b1 e9 bd 7f f7 59 be 56 d6 c3 3c
       -0.13807379 -0.11410886 -0.21285819 0.023905914
000160 9d 6f 4d be 14 81 18 bc 5d cd b6 bd 72 37 1e bd
       -0.20062108 -0.009308118 -0.08925889 -0.038627096
000170 a4 14 3a 3e 53 7d 82 bd 9f d5 1d 3e 8d 21 14 bd
       0.18171936 -0.0637156 0.15413521 -0.03616481
000180 97 b1 4d bc e2 10 32 be 7c 8f 4b 3e 1a 01 54 3e
       -0.012554548 -0.17389253 0.19878954 0.20703545
000190 57 b5 0b be c4 bf 9b 3d 88 4d 0a 3b b7 36 af bd
       -0.13643394 0.07604936 0.002110334 -0.08555358
0001a0 45 ed e4 3c cc 20 aa 3e bf 8d 80 ba de 57 e3 bd
       0.02794517 0.33228147 -0.0009807869 -0.11100744
0001b0 c3 d6 8e 3c 47 6f 20 be a1 8f 5e bd a7 ca a3 bd
       0.01743639 -0.15667449 -0.054336194 -0.07997637
0001c0 23 05 c6 3d 6c d3 f6 bd cf 21 6e 3d 2a ce d8 3d
       0.096689485 -0.12052044 0.05813771 0.10586198
0001d0 71 61 2f 3e b2 77 61 be b8 a4 b4 bb c8 24 0a be
       0.17127015 -0.22018316 -0.0055128 -0.13490593
0001e0 ce 20 b0 bc b6 e9 a5 3d 86 eb 76 3d 4e 90 4b 3e
       -0.021500017 0.081012174 0.060283206 0.19879267
0001f0 e1 71 15 be 74 36 cb 3e 44 cc 66 3d d3 a4 47 3e
       -0.14594223 0.39689982 0.056347147 0.19496469
000200 f6 85 a4 3e 86 e3 7e bb a2 85 e9 bd a8 ac 47 3e
       0.32133454 -0.0038892939 -0.114024416 0.19499457
000210 26 59 90 3c 6e 79 fd bc 09 ff 44 3e 74 4e a6 be
       0.017620634 -0.030941691 0.19237913 -0.3248173
000220 dd 30 fa 3c aa 2e a9 bd e9 77 88 3e 11 a9 6b 3e
       0.030540878 -0.082608536 0.26653984 0.23013712
000230 ed db df bb 90 1e 3d be e4 21 d4 3d 9b a1 0d be
       -0.006831637 -0.1846869 0.103580266 -0.13831179
000240 cc cc e3 bd 7a c0 37 be fe b0 fe 3b 40 8c 80 3d
       -0.11123046 -0.17944518 0.007772564 0.062767506
000250 1a f4 21 3e 77 db d7 3e 1e 4f 00 bd 4b b3 7d be
       0.15815774 0.42159626 -0.031325452 -0.24775426
000260 76 af 8c bd 8f e4 f0 bc d1 9c 42 3b 71 77 43 bd
       -0.06869404 -0.02940586 0.002969552 -0.04772133
000270 f6 df f6 bd 8f 6d 8d 3d 2d 3c e0 3d 87 e4 8a bd
       -0.12054436 0.06905662 0.109489776 -0.067818694
000280 e7 2c 93 be 30 90 6d be 3e 85 50 be 3f 16 eb 3c
       -0.28745195 -0.23199534 -0.20363328 0.028697131
000290 4a a5 a9 bc 8f 1c 01 3e 95 5a ef bd 18 46 98 be
       -0.020708699 0.1260855 -0.11687199 -0.29740977
0002a0 e7 47 0c be 71 26 c1 bc ff 6d a2 3e 97 b2 49 be
       -0.13699304 -0.0235779 0.31724545 -0.19697033
0002b0 43 22 3c be 6d 99 58 bd 6b 5f 1a 3e 0e 67 08 be
       -0.18372445 -0.052880693 0.15075462 -0.13320562
0002c0 5f b7 a0 3d f9 ed ff 3d f7 69 68 3e 18 3d 64 be
       0.07847475 0.124965616 0.22696672 -0.2228893
0002d0 2a c5 c9 3d 78 57 bf 3d c3 4c 4d bd 36 01 06 be
       0.09852059 0.09342855 -0.050122034 -0.130864
0002e0 5a 16 65 3d d4 d7 8e 3e 6b 03 59 be 33 d7 80 bd
       0.05592952 0.2789904 -0.2119271 -0.06291046
0002f0 16 2d e7 bd 70 6e d8 3c 72 a2 62 bc 5a 11 95 bb
       -0.11287896 0.026419848 -0.013832675 -0.0045491876
000300 7e c9 82 3c 7f ee 6e bd 25 e1 61 bd c7 30 a4 be
       0.01596522 -0.058332916 -0.055146355 -0.32068464
000310 e7 ed e4 bc 1d 39 82 3c e6 15 ea bc 5c 1c 12 3e
       -0.027945472 0.015896374 -0.028574895 0.1426863
000320 f4 2a 65 3b 03 52 7e bd 01 97 81 3d ff 6b c8 be
       0.003496823 -0.06208993 0.0632763 -0.39144894
000330 6f 6d 17 be f9 08 3e bc ba 21 00 3d 30 6c c4 3d
       -0.1478784 -0.011598819 0.031282164 0.09590948
000340 2c fb 09 3e 5d a7 03 be 14 cf 17 be ba 70 52 3e
       0.1347472 -0.12856813 -0.14825088 0.20550814
000350 3c 78 b5 bb 32 e1 0b be e2 46 a7 3c 58 46 8c bd
       -0.0055380147 -0.13660124 0.020419542 -0.068493545
000360 d5 02 d3 3d 8f 15 87 be 24 f8 00 bd 1d cb 22 3e
       0.103032745 -0.26383635 -0.031486645 0.15897794
000370 d8 7e d4 bc 47 71 58 3d a7 eb 1e be 90 fc 9f bd
       -0.02593939 0.052842405 -0.15519582 -0.07811844
000380 e0 91 ce 3d 50 a7 8a bd e4 2b 07 be 14 0a 11 be
       0.10086417 -0.067701936 -0.13200337 -0.14164001
000390 3b 17 37 3e 98 8f 03 3e 03 d5 bd 3c 60 9c c8 bd
       0.17879955 0.12847745 0.023172861 -0.09795451
0003a0 d0 3d ac bb 63 ee 91 bd e1 a8 32 3e a5 9e 78 be
       -0.005256392 -0.07125547 0.17447235 -0.24279268
0003b0 29 28 10 3c d9 bc 7e 3c de e2 77 bd 94 9c 99 3c
       0.008798637 0.0155479545 -0.06051909 0.01875142
0003c0 47 e9 40 be 44 5d 49 3e e3 01 37 be 7d e3 2f 3d
       -0.18838988 0.19664484 -0.17871813 0.04294156
0003d0 60 d3 46 3e c3 a5 1c 3e 65 73 c5 bc 42 ba 9d 3d
       0.1941657 0.15297608 -0.024102876 0.077015415
0003e0 7b 31 1c be 3b ad a2 bd 56 29 4e bd dc a3 d3 bd
       -0.1525325 -0.07943197 -0.05033239 -0.10333988
0003f0 b3 b8 3a 3e f0 53 50 be d8 a3 ff bc 35 92 dc 3d
       0.1823452 -0.2034452 -0.031206056 0.10770074

layers.0.bias f4 [64]
000000 18 a6 08 bd 71 92 c5 bd 6e 2c 5e 3d b8 e9 b0 bb
       -0.033361524 -0.09647072 0.05424159 -0.005398955
000010 95 22 75 bd f5 d1 a4 bd f6 38 56 3e 40 ec 1a 3e
       -0.059847433 -0.080478586 0.20920166 0.15129185
000020 ea 5a 76 bd 4e e3 f8 bd 65 91 e8 3b 21 ca b7 bd
       -0.060145296 -0.1215273 0.0070974105 -0.089741
000030 a4 9f a9 bc f4 ca 0f bd c3 7c 51 3d 62 1f 93 bd
       -0.020706005 -0.03510566 0.051144373 -0.0718372
000040 9e c9 ff 3d 18 90 02 3d a1 d3 56 3c 43 9c 15 3d
       0.12489627 0.0318757 0.01311198 0.036525976
000050 22 f3 e8 bd 49 b6 00 bd 6f 45 0d be 1e 5a 9c 3c
       -0.11374499 -0.03142384 -0.13796018 0.01908594
000060 e4 80 09 be be a3 43 be 0e 1d dc 3c a7 0b 3c bd
       -0.13428074 -0.19105431 0.026869323 -0.04590955
000070 aa 57 e0 bd 85 b3 ed 3d 03 fe d1 3d af 69 89 bd
       -0.109542206 0.11606506 0.10253527 -0.06709611
000080 a5 13 8a bd 1b 1e 19 bd 46 65 37 3d cb 89 5d 3d
       -0.06742028 -0.037382226 0.044774316 0.054086488
000090 73 70 8b bd 64 f9 af 3d 3d 08 0c 3d b1 42 39 bc
       -0.06808557 0.08592489 0.034187544 -0.011307404
0000a0 42 53 6a bc eb 98 86 3d 5e 4e 1b 3e 1c 69 10 3e
       -0.014302077 0.065721355 0.15166613 0.14102596
0000b0 be d1 fa 3c d3 94 88 3d 46 57 b2 bd 57 15 00 be
       0.030617591 0.06669011 -0.08708052 -0.1250814
0000c0 62 da cb bd 06 e4 82 3d a8 f1 23 be 20 ae aa 3d
       -0.099537626 0.06391148 -0.16010153 0.08333993
0000d0 75 2e cc bd 62 df ce 3d fa 58 bc bd 78 89 f1 bd
       -0.099697985 0.10101201 -0.091966584 -0.11793798
0000e0 ad 92 36 bd e3 63 34 3d 06 f6 5b 3d 25 65 5d bd
       -0.044573475 0.044040572 0.053701423 -0.054051537
0000f0 c8 64 a2 bd 80 28 f5 3d 14 5b c9 3d 2e 2b 01 be
       -0.07929379 0.119706154 0.09831825 -0.12614128

lin.weight f4 [1, 64]
000000 f1 22 9a bd 2d 5d 3e 3e fd 10 df bd 7a 8e 4d bd
       -0.07526196 0.18590231 -0.10891912 -0.050184704
000010 26 87 3e 3e be 38 30 bd 81 92 b9 be 53 6f 01 bf
       0.18606243 -0.043022864 -0.36244586 -0.5056049
000020 99 40 8f 3e bf f1 ab 3e 4b a4 37 be 52 c0 9e 3e
       0.27978972 0.33582875 -0.17933767 0.31006104
000030 21 44 cc 3e 71 48 9b be 18 a0 ad be 31 51 8b 3d
       0.39895728 -0.30328706 -0.33911204 0.068025954
000040 7c df d6 be 7e 93 ab 3e a6 e0 8e 3d a6 d7 38 be
       -0.4196738 0.33510965 0.06976442 -0.18051013
000050 ad d2 e5 bb 7c e2 85 be 6b 62 0f 3e 48 36 3a bd
       -0.00701364 -0.26149356 0.14002387 -0.045461923
000060 c5 99 21 3f d3 36 50 3d e1 a0 73 3e de ac 96 3e
       0.6312526 0.050833534 0.23791839 0.29428762
000070 2c 09 5e bc f3 c0 9e be 74 05 a8 be 27 31 1e 3f
       -0.013551991 -0.31006584 -0.3281666 0.6179375
000080 25 8b 90 3d 7c 0a 9f be 41 a1 84 3e ec 78 b2 3e
       0.0705779 -0.31062686 0.25904277 0.3485788
000090 05 c8 a0 3e 99 0c 92 3e 63 e2 7f be 7c 77 9f 3e
       0.31402603 0.28525236 -0.24988703 0.31145847
0000a0 54 c2 4b 3e 94 7a 91 be 75 f4 85 be 07 3d b1 be
       0.19898349 -0.28413832 -0.26163068 -0.34616873
0000b0 03 0b a6 3e 5b a9 9a 3e 43 4b 55 3e 3c 9d f5 be
       0.32430276 0.30207333 0.20829491 -0.47971523
0000c0 65 1f ca 3e 77 e4 ab 3e f5 00 08 be 65 57 ba be
       0.39477077 0.33572742 -0.13281615 -0.36394802
0000d0 1f da 38 3e 27 c3 f7 bd 6b d8 7d 3e f9 cd 5e 3a
       0.18051957 -0.12097769 0.24789588 0.000849932
0000e0 4c 82 b9 3d 1d 11 0c be b7 d2 62 be 2c 54 a3 bd
       0.09058055 -0.13678403 -0.22150694 -0.07975039
0000f0 85 35 42 be b8 be 85 be aa 6a a2 be 63 13 c9 39
       -0.18965729 -0.2612207 -0.31722003 0.00038352152
