versions/87.58/model.pth (torch_old, 270641 bytes, 7 tensors)

lstm.weight_ih_l0 f4 [400, 50]
0	0xbe90bd90	-0.28269625
1	0xbea51e35	-0.3224961
2	0xbe607219	-0.21918525
3	0xbe855825	-0.2604381
4	0xbe482ec6	-0.19549093
5	0x3ec5ad70	0.38608885
6	0x3dd66882	0.10469152
7	0xbb6d5f71	-0.0036220218
8	0x3b93d13b	0.004511026
9	0x3d8ad3ab	0.06778654
10	0x3e05e699	0.13076247
11	0x3e55982b	0.20858829
12	0x3e2bee8c	0.16790217
13	0xbea81d8b	-0.3283504
14	0xbe2145c7	-0.15749274
15	0xbdfe877e	-0.12428187
16	0x3e235ff6	0.15954575
17	0x3e98b359	0.2982433
18	0x3ddbb4e6	0.10727863
19	0x3d5ebc05	0.05437853
20	0xbde4687e	-0.11152743
21	0x3bbad708	0.0057019033
22	0xbe0b2453	-0.13588075
23	0x3c2489b3	0.010042596
24	0x3dca24db	0.09870311
25	0xbe3b9b49	-0.18320955
26	0x3e29b199	0.16571654
27	0xbda3d36a	-0.079993084
28	0x3e60ab03	0.21940236
29	0x3e061f7d	0.1309795
30	0x3dbd65e5	0.092479505
31	0xbe9c0bce	-0.30477756
32	0xbd862ee2	-0.06551911
33	0x3dd8cb3c	0.10585639
34	0xbe526180	-0.20545006
35	0xbeabd480	-0.33560562
36	0x3e0e67d9	0.13906802
37	0x3dbb4103	0.091432594
38	0x3e95e17a	0.29273587
39	0x3e1d302f	0.15350412
40	0x3ea03331	0.31289056
41	0xbce2c573	-0.027682042
42	0x3e272637	0.16323172
43	0x3ef09e5f	0.46995828
44	0xbeeeda9c	-0.4665116
45	0xbf49bce6	-0.7880386
46	0xbebb4551	-0.36576322
47	0x3ef819b4	0.4845711
48	0x3e8356ca	0.25652152
49	0x3f115864	0.567755
50	0xbe15163e	-0.14559266
51	0xbaf83bef	-0.001893876
52	0xbddcebdf	-0.10787176
53	0xbd4aadd3	-0.049482178
54	0x3d82226e	0.06354223
55	0xbb030265	-0.001999044
56	0xbe1ec6f7	-0.15505587
57	0xbd823fb7	-0.06359809
58	0x3d239e2a	0.03994576
59	0xbee93b1c	-0.4555291
60	0xbcc00ad5	-0.023442665
61	0x3ec2657f	0.3796806
62	0x3de6faa3	0.11278274
63	0xbea1c56e	-0.3159594
64	0xbd00ed06	-0.031476043
65	0x3ec9d057	0.39416763
66	0x3e3dabce	0.1852257
67	0xbe4e82bc	-0.20167059
68	0x3e6c2515	0.2306102
69	0x3e0d0191	0.13770129
70	0x3e73e087	0.23816119
71	0xbe90744b	-0.28213724
72	0xbe4fb03d	-0.20282073
73	0xbd621c99	-0.055203054
74	0xbdee5014	-0.116363674
75	0xbe041aa5	-0.12900789
76	0x3bfbd2c1	0.007685036
77	0xbd9bf0de	-0.07614301
78	0xbe5040f9	-0.20337285
79	0x3db878fb	0.0900745
80	0xbca1d192	-0.019753251
81	0xbebad397	-0.36489555
82	0xbe11c7f2	-0.1423643
83	0xbe0e2b7d	-0.13883777
84	0xbcf88cd3	-0.030340588
85	0xbebcff5d	-0.36913577
86	0x3e674efb	0.22588722
87	0xbc5ecce0	-0.013598651
88	0x3e13de9b	0.14440386
89	0x3e5dde84	0.21666914
90	0x3c521dc1	0.012824477
91	0x3e32622f	0.17420267
92	0x3dd6b994	0.10484615
93	0x3e257131	0.1615646
94	0x3d203f43	0.03912283
95	0xbe45796b	-0.19284599
96	0xbec21861	-0.37909225
97	0x3e121aa4	0.14267975
98	0x3c52dea6	0.012870466
99	0x3e51d356	0.20490775
100	0x3e3f5cc7	0.18687735
101	0xbedaf25c	-0.4276303
102	0x3e056af4	0.1302908
103	0x3e7ec7fb	0.24880974
104	0xbd3b9032	-0.045791812
105	0x3e48b1a2	0.19599012
106	0x3f23defc	0.6401212
107	0x3e900ad9	0.28133276
108	0x3e03a4f2	0.1285589
109	0x3d2e6d33	0.04258461
110	0xbe0e33d4	-0.13886958
111	0xbddfdb50	-0.109305024
112	0x3e8b9622	0.2726298
113	0x3d82c003	0.063842796
114	0xbd858554	-0.06519571
115	0xbe1e7fd6	-0.15478453
116	0xbe1847db	-0.1487116
117	0xbebdb102	-0.3704911
118	0x3d922d5f	0.0713756
119	0x3dd09c95	0.10186116
120	0xbea49a7c	-0.32149112
121	0xbdfc654d	-0.12324009
122	0x3eba53ec	0.36392152
123	0x3bf56f19	0.0074900505
124	0xbc8d8d3c	-0.01727926
125	0x3e8361a7	0.2566044
126	0x3d7914cc	0.06081085
127	0x3d63ed88	0.05564645
128	0x3ea432d8	0.3207004
129	0x3e21a6c5	0.15786274
130	0xbe22579b	-0.15853731
131	0xbecaa536	-0.3957917
132	0xbe0cc089	-0.13745321
133	0x3c8eb203	0.017418867
134	0xbe8d45e6	-0.2759239
135	0x3e2e171f	0.17001007
136	0x3d72f994	0.059320047
137	0xbf02ce54	-0.5109608
138	0x3e209510	0.15681863
139	0x3e8ecd71	0.27891114
140	0xbe14e9bc	-0.14542288
141	0xbd17cdba	-0.03706143
142	0x3e0ef033	0.13958816
143	0x3e142380	0.14466667
144	0x3db61420	0.08890557
145	0x3e8619b1	0.26191476
146	0x3e3e003c	0.18554777
147	0x3e0f0179	0.13965406
148	0x3f0294c2	0.51008236
149	0xbe43f1b7	-0.19135176
150	0x3e0bbbe7	0.13645898
151	0xbe95c755	-0.2925364
152	0xbe12f181	-0.14349939
153	0xbd0f1f88	-0.03494218
154	0x3eb73831	0.35785058
155	0x3edb25e4	0.42802346
156	0xbd4f1f3b	-0.050566893
157	0x3e6e2862	0.23257592
158	0xbf2bb4b1	-0.6707259
159	0x3de55477	0.11197751
160	0x3e49ad93	0.1969512
161	0x3d20f2de	0.039294116
162	0x3d890328	0.06690055
163	0xbee1bc9f	-0.4408922
164	0x3e0eb7af	0.13937257
165	0x3ec2e908	0.38068414
166	0xbb9c651c	-0.0047727954
167	0xbf27949c	-0.65461135
168	0x3d1611ac	0.036637947
169	0x3ddc4b76	0.107565805
170	0xbe960539	-0.2930086
171	0x3e38b6db	0.18038504
172	0x3e196b43	0.14982323
173	0xbf2d73c4	-0.6775477
174	0xbe7afaba	-0.24509707
175	0x3dabd03c	0.08389327
176	0xbcaee2dc	-0.02134841
177	0x3c6b0809	0.014345177
178	0xbe4b746c	-0.1986863
179	0x3e05e76a	0.13076559
180	0xbdc22490	-0.0947963
181	0x3d46c70b	0.048529666
182	0x3eefefd2	0.46862656
183	0xbeb9b297	-0.36269066
184	0x3de0fb02	0.10985376
185	0x3e175e75	0.14782126
186	0x3df66ca4	0.1203244
187	0xbe98cabb	-0.2984217
188	0x3e20501b	0.15655558
189	0xbeb5ccfd	-0.35507956
190	0xbedc44bc	-0.4302119
191	0xbdecf310	-0.11569798
192	0xbea0518e	-0.3131222
193	0xbe592cd9	-0.21208514
194	0x3d45d2aa	0.048296608
195	0x3e28526e	0.16437694
196	0xbf2158eb	-0.63026303
197	0x3e8192eb	0.25307402
198	0x3e8bec05	0.27328506
199	0xbe932524	-0.28739274
200	0xbdf4706a	-0.11935504
201	0x3e88101d	0.26574793
202	0xbe99fd0f	-0.3007588
203	0x3e37217e	0.1788387
204	0x3e696284	0.22791487
205	0x3ed2157d	0.4103202
206	0x3d816483	0.06317999
207	0xbcd62438	-0.026140317
208	0x3dc34d56	0.09536235
209	0x3e479594	0.19490653
210	0x3deeb684	0.11655906
211	0xbe8a2353	-0.26980075
212	0x3ec583fd	0.38577262
213	0x3e5e645a	0.21717969
214	0x3e89ee1b	0.26939473
215	0xbec33173	-0.38123664
216	0xbee821f7	-0.45338413
217	0x3f38a2a3	0.72123164
218	0xbe84030b	-0.25783572
219	0x3f11baa0	0.5692539
220	0xbe09395c	-0.13400787
221	0x3eb9fe56	0.36326855
222	0x3f1ec42e	0.62018096
223	0x3eac735a	0.33681756
224	0x3dbbf3b0	0.09177339
225	0xbd8d2991	-0.06892694
226	0xbe589a31	-0.2115257
227	0x3e418e96	0.18902048
228	0x3e7335f9	0.23751058
229	0xbd390f30	-0.0451805
230	0x3c4af0a6	0.012386477
231	0xbf2b687b	-0.669563
232	0x3e2937cd	0.16525193
233	0x3e1e66a2	0.15468839
234	0x3e2c6d92	0.16838673
235	0x3e46ff6f	0.19433378
236	0x3f2dcdf9	0.67892414
237	0xbe282834	-0.16421586
238	0xbd6d608a	-0.057953395
239	0x3ca1f4a0	0.019769967
240	0x3c8af254	0.016961254
241	0xbe570956	-0.20999655
242	0xbdeef7b8	-0.11668342
243	0xbea8eb26	-0.32991904
244	0xbe92f0ec	-0.28699434
245	0x3def1490	0.11673844
246	0xbe803b2e	-0.2504515
247	0xbe88a418	-0.26687694
248	0xbdd3efd9	-0.10348482
249	0x3e0e3f57	0.1389135
250	0x3df8d669	0.121502705
251	0x3eb8828f	0.36037108
252	0xbef006e1	-0.46880248
253	0xbbcb7fd4	-0.0062103067
254	0xbe2cc9e0	-0.16873884
255	0xbf023625	-0.5086387

lstm.weight_hh_l0 f4 [400, 100]
0	0xbdd7360d	-0.10508356
1	0x3ce7dbb9	0.028303014
2	0x3ea84823	0.32867536
3	0xbdf7baa7	-0.12096148
4	0xbe66cb50	-0.22538495
5	0xbe8820ef	-0.26587626
6	0xbe80f5bd	-0.25187483
7	0xbd6dae24	-0.0580274
8	0x3e6a327e	0.22870824
9	0xbdda849b	-0.10669824
10	0xbe141072	-0.14459398
11	0x3cf17e4c	0.029479168
12	0xbd02024b	-0.031740468
13	0xbe057b25	-0.13035257
14	0xbe80b4da	-0.2513798
15	0x3e0e83f5	0.13917525
16	0x3e5a4ae0	0.21317625
17	0xbe038f98	-0.12847745
18	0x3ed0d5b3	0.4078804
19	0x3e108861	0.14114524
20	0xbcfe3fbd	-0.031036252
21	0x3d30c667	0.04315796
22	0x3eb9437d	0.36184302
23	0x3ed5b86f	0.41742274
24	0x3d48865e	0.048956268
25	0x3edce9b9	0.43147066
26	0x3e5cb772	0.21554354
27	0x3e5dabef	0.21647619
28	0x3e1037de	0.14083812
29	0xbcfe72fb	-0.031060686
30	0x3d9d3645	0.07676367
31	0x3ea408aa	0.3203786
32	0x3e0d6f50	0.13811994
33	0x3e86070a	0.26177245
34	0x3e345cc8	0.17613518
35	0xbc8507a4	-0.016238995
36	0x3ce7be77	0.028289063
37	0xbe8fc72c	-0.28081644
38	0x3e1764aa	0.14784494
39	0xbd9d9066	-0.076935574
40	0xbe376dfd	-0.17913051
41	0x3d99f649	0.07517678
42	0x3d942581	0.07233716
43	0xbe6b0a08	-0.22953045
44	0x3d9ac78c	0.07557592
45	0x3be6289b	0.0070238835
46	0x3e9ac306	0.30226916
47	0xbdb3cf1b	-0.087797366
48	0x3e5240a6	0.20532474
49	0x3d2c53d4	0.042072132
50	0x3e6dc07e	0.23217961
51	0xbd765f31	-0.060149375
52	0x3e23be94	0.15990669
53	0xbbee8347	-0.007278833
54	0x3de5caa8	0.11220294
55	0xbdae79d3	-0.0851933
56	0xbd8c418a	-0.06848438
57	0xbe7c45cd	-0.24636002
58	0xbdd43bc1	-0.1036296
59	0xbe1239ad	-0.14279814
60	0x3e17c6d0	0.14821935
61	0x3d6a77bb	0.05724309
62	0x3d519007	0.051162746
63	0x3dc5fd13	0.09667411
64	0xb9748e79	-0.00023322729
65	0xbdf6ff73	-0.12060442
66	0xbdc8c255	-0.09802691
67	0x3e4931f2	0.19647959
68	0x3df13e9f	0.11779522
69	0xbcb92621	-0.02260119
70	0x3e6e4299	0.23267592
71	0x3e5b17ac	0.21395749
72	0xbe5e9da7	-0.21739827
73	0xbea052c4	-0.31313145
74	0x3e017c6c	0.1264512
75	0xbe24a45c	-0.16078323
76	0xbd8625a0	-0.06550145
77	0xbebfb697	-0.37443992
78	0x3e1c512d	0.15265341
79	0xbd5ae00c	-0.053436324
80	0xbdd64757	-0.10462826
81	0x3d6ca3cc	0.057773396
82	0x3d9c571d	0.07633803
83	0xbe5a4d30	-0.21318507
84	0x3d6ec232	0.058290668
85	0x3dcebf73	0.1009511
86	0xbe822890	-0.25421572
87	0x3e12d2c2	0.1433821
88	0x3e68e8ed	0.22745104
89	0x3d3cd749	0.04610375
90	0x3e888b1c	0.26668632
91	0x3e43aab5	0.19108088
92	0x3e66462c	0.22487706
93	0xbc8cc862	-0.017185394
94	0x3d9de891	0.07710374
95	0xbe2bddb0	-0.16783786
96	0xbe3d3a7c	-0.18479341
97	0x3de0e747	0.10981613
98	0x3c9c03bd	0.019044751
99	0x3de2cb1d	0.11073897
100	0xbd349292	-0.044085093
101	0x3b7a918a	0.003823372
102	0x3dc90209	0.09814841
103	0x3d9e960b	0.07743462
104	0xbd1eeb8f	-0.038798865
105	0xbe3b711d	-0.18304868
106	0xbdb99a71	-0.090626605
107	0xbbd4a7f9	-0.0064897505
108	0x3df75413	0.12076583
109	0xbe870687	-0.26372167
110	0x3df61688	0.12016016
111	0xbdfda8e3	-0.12385728
112	0x3c9f9599	0.019480513
113	0xb9c98967	-0.0003844008
114	0xbd34f05c	-0.044174537
115	0x3dec450b	0.115366064
116	0x3d06a102	0.032868393
117	0x3dd6a6ad	0.1048101
118	0x3c62176f	0.013799532
119	0xbc951753	-0.018199598
120	0x3d87287d	0.065995194
121	0x3e43e052	0.1912854
122	0x3c44c51f	0.012009888
123	0xbd301421	-0.042987946
124	0x3c2c7827	0.010526693
125	0xbe01e15b	-0.12683623
126	0x3c54a3af	0.012978478
127	0xbdb84677	-0.08997815
128	0x3e14fa10	0.14548516
129	0x3e28e7bf	0.16494654
130	0x3e0f7402	0.14009097
131	0x3d7c9869	0.061668787
132	0x3d845662	0.06461789
133	0x3d9cc324	0.076544076
134	0xbd8dd2fc	-0.06925008
135	0x3e07f581	0.13277246
136	0x3d3d58d9	0.04622731
137	0x3e1acb68	0.15116656
138	0x3ded0e5d	0.11575005
139	0xbce4cbe5	-0.027929256
140	0xbe88db06	-0.26729602
141	0x3d376a65	0.0447792
142	0x3e4b6230	0.19861674
143	0x3d299b21	0.041407708
144	0xbe62532a	-0.22102037
145	0xbe7944b3	-0.24342613
146	0x3dc1b1ae	0.09457718
147	0xbc3d9b83	-0.011572721
148	0x3d3da6de	0.046301715
149	0x3e506fa2	0.20355085
150	0x3eb5068c	0.35356557
151	0xbd384a90	-0.044992983
152	0x3d516286	0.05111935
153	0xbea1b9ee	-0.31587166
154	0xbdc8c2fd	-0.09802816
155	0xbe521c8a	-0.205187
156	0x3d7b41a5	0.0613419
157	0xbd19209a	-0.037384607
158	0xbe314ba5	-0.17314012
159	0xbe02e61e	-0.12783095
160	0x3df49437	0.11942332
161	0x3d6d0ed4	0.05787547
162	0xbe16fe13	-0.14745359
163	0x3d2213eb	0.039569777
164	0x3d016118	0.031586736
165	0xbe0c4ffe	-0.1370239
166	0x3d4bbf66	0.04974308
167	0xbc090115	-0.008362074
168	0xbde21e7e	-0.11040972
169	0x3e262e7d	0.16228671
170	0x3e955d21	0.29172614
171	0x3da477dc	0.08030674
172	0xbd1fc6d4	-0.039007977
173	0xbc86b207	-0.016442312
174	0x3d00ab42	0.031413324
175	0xbdb42c14	-0.0879747
176	0x3cd8d48b	0.026468536
177	0xbe315ddd	-0.17320962
178	0x3c9c7ccb	0.019102475
179	0xbb0cab1a	-0.002146429
180	0x3e0feff0	0.14056373
181	0x3ce84b1f	0.028356133
182	0x3d1bd054	0.038040474
183	0xbb9d1dcc	-0.004794812
184	0x3e5d2bdf	0.21598767
185	0xbe8c0b5a	-0.2735241
186	0x3cd3fee7	0.025878383
187	0x3ce7ce5e	0.028296646
188	0x3e42e7bb	0.1903371
189	0xbdf21915	-0.1182119
190	0x3dbca8dc	0.09211895
191	0x3e1577f9	0.14596547
192	0x3e02bed1	0.12768103
193	0x3dbec38f	0.093146436
194	0x3e2111d1	0.15729453
195	0xbd4535e8	-0.048147112
196	0xbe85aebc	-0.26109874
197	0xbdb72995	-0.08943478
198	0x3d01cd3f	0.03168988
199	0x3de0b0f3	0.109712504
200	0x3cb57806	0.022151958
201	0xbe88c4f5	-0.26712766
202	0x3de66c3a	0.11251111
203	0x3e2b6394	0.16737205
204	0xbe0b76a6	-0.1361948
205	0xbe8a8802	-0.2705689
206	0x3d9efb70	0.07762802
207	0xbd4de7a5	-0.05026974
208	0xbec2c76a	-0.38042766
209	0xbe289ca9	-0.16466011
210	0x3e0537e0	0.13009596
211	0xbbd995f0	-0.0066401884
212	0x3e17ebe3	0.14836077
213	0x3d678603	0.056524288
214	0xbd14e7f2	-0.036354013
215	0x3cfd42ff	0.030915735
216	0xbc8c14c0	-0.017099738
217	0x3e822a3e	0.25422853
218	0xbe6e4094	-0.23266822
219	0xbe0b1d18	-0.13585317
220	0xbd99a558	-0.0750224
221	0xbe48b9ea	-0.1960217
222	0xbdd6066d	-0.10450444
223	0xbdbfab6c	-0.09358868
224	0x3ecf79de	0.40522665
225	0xbd92c1bc	-0.07165858
226	0x3dea56f1	0.11442364
227	0x3dc15590	0.09440148
228	0x3d36003d	0.04443382
229	0xbd843442	-0.0645528
230	0xbd835066	-0.06411819
231	0xbdf9ee65	-0.12203673
232	0xbe38b232	-0.18036726
233	0xbe9f5b20	-0.3112421
234	0xbe83999c	-0.25703132
235	0x3cb17c2d	0.021665657
236	0x3dbcfe30	0.0922817
237	0xbdb467c2	-0.08808853
238	0xbcd1f2fb	-0.025628557
239	0x3e347ae5	0.17625006
240	0x3e682295	0.22669442
241	0xbdac16c0	-0.08402777
242	0xbb005cbe	-0.0019586529
243	0xbe188c56	-0.14897284
244	0x3d5a60f8	0.053315133
245	0x3dae737a	0.08518119
246	0x3e1c5171	0.15265442
247	0xbcfa01a6	-0.030518364
248	0x3db25524	0.087076455
249	0xbe1453b6	-0.14485058
250	0x3c6d0fcb	0.014469097
251	0xbd62b095	-0.055344183
252	0xbef09b0a	-0.46993285
253	0x3e11b68a	0.1422979
254	0x3eb2716c	0.3485216
255	0x3dac36d3	0.084088944

lstm.bias_ih_l0 f4 [400]
0	0x3d9700d7	0.07373207
1	0x3e483c59	0.19554271
2	0xbe075912	-0.13217571
3	0xbd6be262	-0.057588942
4	0xbd7694f4	-0.060200647
5	0x3e22dc08	0.15904248
6	0x3e6b9a7f	0.23008154
7	0x3db1aaea	0.086751774
8	0x3de93b1f	0.113882296
9	0xbd6d0f62	-0.057876
10	0x3d7be10a	0.06149391
11	0xbec2e26a	-0.38063365
12	0xbe19cd1c	-0.1501965
13	0xbcc73a33	-0.024319744
14	0x3d9c4afb	0.07631489
15	0xbdb59df3	-0.08868017
16	0x3d638c18	0.055553526
17	0x3e25793b	0.16159527
18	0xbdb16560	-0.08661914
19	0xba071d3d	-0.0005154198
20	0xbc11fd5a	-0.008910501
21	0x3df69e83	0.120419525
22	0x3e13f54e	0.14449045
23	0xbda21acd	-0.07915268
24	0xbee7c930	-0.4527068
25	0xbb000985	-0.0019536924
26	0x3e56988d	0.20956631
27	0x3dcd2025	0.10015897
28	0xbcbc2389	-0.022966163
29	0xbef79efd	-0.48363486
30	0x38baac1f	8.901231e-05
31	0xbd4de78d	-0.050269652
32	0x3dc60c48	0.09670311
33	0xbe1dfcd2	-0.15428475
34	0x3e1a25dd	0.15053506
35	0x3da2aed8	0.07943505
36	0xbe0f9a4c	-0.14023703
37	0x3c99b055	0.01876084
38	0xbe2101ff	-0.15723418
39	0x3dd9ecb0	0.10640848
40	0xbdc4f5e9	-0.09617216
41	0x3d9d5582	0.07682325
42	0x3ddd6f5c	0.10812256
43	0x3da1efeb	0.07907089
44	0x3ded3ebc	0.11584231
45	0xbd7b696e	-0.061379842
46	0x3db5e7fe	0.088821396
47	0x3d74d785	0.059775848
48	0x3d68b209	0.056810413
49	0xbe93d3b9	-0.2887247
50	0xbdb5ba21	-0.08873392
51	0x3d8ea59f	0.069651835
52	0xbc013641	-0.00788647
53	0xbd087f6f	-0.033324655
54	0xbbcd28b9	-0.006260958
55	0x3c042b67	0.008066989
56	0xbead68e0	-0.33869076
57	0x3d463cd8	0.04839787
58	0x3e2e9805	0.17050178
59	0x3db0c9ac	0.08632216
60	0xbd268e42	-0.04066301
61	0xbd86d1e3	-0.065830015
62	0x3d1dcd8c	0.038526103
63	0x3d5d4553	0.05402119
64	0x3d84a05c	0.064758986
65	0x3c741b71	0.014899121
66	0x3cf469f5	0.02983568
67	0x3c1257cc	0.008932065
68	0xbdc41444	-0.09574178
69	0xbe456cf3	-0.19279842
70	0xbe1a626b	-0.15076606
71	0x3b31a618	0.0027107056
72	0xbd8d9fe4	-0.06915262
73	0x3e46b19f	0.19403695
74	0xbf0325d9	-0.51229626
75	0x3c924712	0.017856155
76	0x3d74468b	0.059637588
77	0xbd0c593d	-0.03426479
78	0x3e196999	0.14981689
79	0xbe1fbab2	-0.15598562
80	0xbcbd352e	-0.023096647
81	0x3cb45938	0.022015199
82	0xbf147415	-0.5798963
83	0x3e3f123e	0.18659303
84	0x3c80d5ca	0.015726943
85	0xbe0a48c4	-0.1350432
86	0x3de1f417	0.110328846
87	0xbce53387	-0.027978672
88	0x3dce6207	0.10077291
89	0xbda05517	-0.078287296
90	0x3dad3a87	0.08458429
91	0xbd8b6a14	-0.06807342
92	0xbdba8d71	-0.09109009
93	0x3dc3e098	0.09564322
94	0xbc223125	-0.009899412
95	0x3d4de753	0.050269436
96	0x3bdf6216	0.0068171127
97	0xbd1de66f	-0.038549837
98	0xbd56382c	-0.052299663
99	0x3cf8002b	0.030273518
100	0x3d84a8b7	0.06477492
101	0x3e13dcae	0.14439651
102	0x3d6d680c	0.057960555
103	0x3e057f54	0.13036853
104	0x3d4b540a	0.049640693
105	0xbc2d1f41	-0.010566534
106	0x3e31b0f3	0.17352657
107	0xbb5b11fc	-0.0033427468
108	0x3de3e13e	0.11126946
109	0xbd662be6	-0.05619421
110	0x3ddc29f5	0.1075019
111	0x3da2b78f	0.07945167
112	0x3e5661d3	0.20935754
113	0x3d857c1f	0.06517815
114	0x3c8da81b	0.017292073
115	0x3dbb4266	0.09143524
116	0xbd1f3726	-0.038870953
117	0xbd8e94db	-0.06961986
118	0x3d24887d	0.040169228
119	0xbcac298b	-0.021015903
120	0x3e022eea	0.12713209
121	0x3d7ffd1e	0.06249725
122	0x3c962334	0.018327333
123	0x3d8c0b59	0.06838102
124	0x3e3da4ea	0.18519941
125	0x3b87b99c	0.0041419994
126	0x3dda23f0	0.10651386
127	0xbd80ff35	-0.06298677
128	0xbb0f5249	-0.0021869114
129	0x3da07fc6	0.07836871
130	0x3e297e0b	0.16551988
131	0xbd915567	-0.07096367
132	0x3cb19663	0.021678155
133	0x3cd4bc8f	0.025968818
134	0x3e05bae7	0.13059579
135	0x3dc63622	0.09678294
136	0xbce4d3f2	-0.027933095
137	0x3e1ac934	0.15115815
138	0x3db743c1	0.0894847
139	0x3ce7daa8	0.028302506
140	0xbc18b2a3	-0.009319934
141	0x3e064307	0.13111506
142	0x3ce527ca	0.027973074
143	0xbb92a64d	-0.004475391
144	0x3da6f84a	0.08152826
145	0x3ce2ca5b	0.027684381
146	0x3d2ba4a1	0.04190505
147	0xbd5d03a7	-0.05395856
148	0x3e03611d	0.12830015
149	0x3d8e8c7d	0.0696039
150	0x3e2d4104	0.16919333
151	0x3cd52f6b	0.026023587
152	0xbd531f25	-0.051543374
153	0x3c8b06b4	0.01697097
154	0x3e0d24a0	0.13783503
155	0x3d93247b	0.071846925
156	0x3ee440d3	0.44580707
157	0x3e17ba35	0.14817126
158	0x3d132ed4	0.03593333
159	0x3e3ca0ad	0.18420668
160	0x3dacedab	0.08443769
161	0xbd2bcdeb	-0.041944426
162	0x3d41f0fb	0.047348958
163	0xba8630e7	-0.0010237963
164	0xbce7fdc4	-0.028319247
165	0x3ca9c419	0.02072339
166	0xbc9362ba	-0.017991412
167	0x3e123c7b	0.14280884
168	0x3da50dc1	0.08059264
169	0xbdca37dd	-0.09873936
170	0x3d685b9f	0.056728
171	0xbb679d42	-0.0035341536
172	0x3e104829	0.14090027
173	0xbc83a02c	-0.016067587
174	0x3eb5b270	0.354877
175	0x3db7a4bd	0.08966968
176	0xbda54ecf	-0.08071672
177	0x3dc3b1f9	0.0955543
178	0x3cd02b9a	0.025411416
179	0x3e5b7acf	0.21433567
180	0x3d50bdf6	0.05096241
181	0x3e2bb194	0.1676696
182	0x3efded09	0.49594906
183	0x3d979ca7	0.07402926
184	0xbba24d16	-0.004953037
185	0x3cc267fc	0.023731224
186	0x3b92b70a	0.0044773864
187	0x3e08d7b6	0.13363537
188	0x3d6c8a19	0.057748888
189	0x3dcab417	0.09897631
190	0x3e6e776d	0.23287745
191	0x3d918042	0.07104541
192	0xbad89835	-0.0016524853
193	0x3d28ab8e	0.041179232
194	0x3e2ea45f	0.1705489
195	0x3e2af98b	0.16696756
196	0xbc4ac103	-0.012375119
197	0x3e1338aa	0.14377084
198	0x3d923218	0.07138461
199	0xbc1537ba	-0.0091075245
200	0xbde07f66	-0.10961799
201	0x3d84f9e2	0.06492974
202	0xbdd5cef2	-0.10439862
203	0xbd1f9148	-0.03895691
204	0x3df57d51	0.11986793
205	0xbd73f7bd	-0.059562434
206	0x3d135a2a	0.03597466
207	0xbd428c82	-0.04749728
208	0xbd8d5222	-0.06900431
209	0xbd74cbdf	-0.05976474
210	0xbd990aae	-0.0747274
211	0xbe2358e4	-0.15951878
212	0x3df948fd	0.121721245
213	0xbb1172e8	-0.0022193734
214	0x3d63968e	0.055563502
215	0xbdb018ef	-0.08598506
216	0x3e017ba0	0.12644815
217	0xbd8ad175	-0.06778232
218	0xbb2fd1d1	-0.0026827941
219	0xba9d2f53	-0.0011992253
220	0x3bb990bc	0.0056630056
221	0xbded7219	-0.11594028
222	0xbcc29eec	-0.02375742
223	0xbdbf5a61	-0.0934341
224	0x3da26e4e	0.07931195
225	0x3c0e7315	0.00869443
226	0x3d581249	0.052751813
227	0x3d56cd44	0.05244185
228	0xbdfa8ccc	-0.12233886
229	0x3cae592e	0.021282759
230	0x3d6efedd	0.058348525
231	0x3df1fbbd	0.118155934
232	0xbd60dfc4	-0.0549009
233	0xbdb29e57	-0.08721607
234	0x3de346cc	0.11097488
235	0xbcf95cbe	-0.03043973
236	0x3baae7c6	0.005215618
237	0x3c60701f	0.013698607
238	0x3e29b98e	0.1657469
239	0xbde834c9	-0.11338193
240	0x3c60e696	0.013726851
241	0xbdadca37	-0.08485835
242	0xbd052379	-0.032504532
243	0xbca622c5	-0.020280251
244	0x3c304077	0.010757557
245	0x3c905a21	0.017621102
246	0xbc8a6b50	-0.016896874
247	0xbccb4129	-0.024811344
248	0x3d9a0ec7	0.0752235
249	0xbacbd5eb	-0.0015551423
250	0x3db467b8	0.08808845
251	0xbd831275	-0.06400005
252	0x3dbbffbe	0.09179638
253	0x3d9f4363	0.07776525
254	0x3d6ae55b	0.057347637
255	0xbde5405e	-0.11193918

lstm.bias_hh_l0 f4 [400]
0	0x3e40bf2a	0.18822923
1	0x3dc2b954	0.09508005
2	0x3ce32bb1	0.027730795
3	0x3cf2f087	0.029655708
4	0xbdde403b	-0.10852095
5	0x3e1353af	0.14387392
6	0x3e285038	0.16436851
7	0x3e45e121	0.19324161
8	0xbbe0abf0	-0.006856434
9	0xbda36113	-0.079775
10	0x3e437a11	0.19089533
11	0xbedaf673	-0.4276615
12	0xbdb48966	-0.08815269
13	0xbe3f260c	-0.18666857
14	0x3d8fedbf	0.07027768
15	0xbcf48023	-0.029846257
16	0x3d2823c2	0.041049726
17	0x3e16190d	0.14657994
18	0xbd89e197	-0.06732481
19	0xbd86634f	-0.0656191
20	0xbdac2779	-0.08405966
21	0x3de9bf87	0.11413484
22	0x3d89ed6e	0.06734739
23	0x3c8082b7	0.01568733
24	0xbecf80f0	-0.4052806
25	0x3da5bc46	0.08092551
26	0x3e40e572	0.18837526
27	0x3d672e1c	0.056440458
28	0xbcb89cca	-0.0225357
29	0xbe9669ed	-0.2937769
30	0xbda33c51	-0.07970489
31	0x3d30e284	0.043184772
32	0x3d881318	0.06644267
33	0xbd39d7ad	-0.0453717
34	0x3dc41a8c	0.09575376
35	0xbd4bd879	-0.04976699
36	0xbd07400e	-0.03302007
37	0x3a7d1b0f	0.0009655216
38	0xbe2ee27b	-0.17078583
39	0x3e03db46	0.12876615
40	0xbd803c4e	-0.06261502
41	0x3d1b88d4	0.037972286
42	0xbd6b81da	-0.057496883
43	0xbccc553f	-0.024942992
44	0xbc7d5c69	-0.015463927
45	0x3c97c742	0.01852763
46	0x3e076aaa	0.13224283
47	0x3e039afb	0.12852089
48	0xbd0d6b82	-0.034526356
49	0xbe94265d	-0.2893552
50	0xbd9d86d8	-0.07691735
51	0xbd62ba16	-0.055353247
52	0x3daddf0b	0.08489808
53	0xbda79770	-0.08183181
54	0xbd425724	-0.047446385
55	0xbdb7140a	-0.08939369
56	0xbeb90943	-0.3613988
57	0x3e268f04	0.16265494
58	0x3d8e30b9	0.06942887
59	0x3e09c761	0.13454963
60	0x3d56fd00	0.052487373
61	0x39c777b8	0.00038045435
62	0x3d11b914	0.035576895
63	0xbc9c178a	-0.019054193
64	0x3d81e381	0.06342221
65	0x3dbece12	0.093166485
66	0x3e41181f	0.18856858
67	0x3e29c59e	0.16579291
68	0xbe074d54	-0.13213092
69	0xbd99ddb9	-0.07512993
70	0xbd42a297	-0.04751834
71	0xbc4870c1	-0.012233914
72	0x3c1a29d2	0.009409385
73	0x3e9123d7	0.28347656
74	0xbeff471e	-0.49858946
75	0x3d809678	0.062787
76	0x3cf172d4	0.0294737
77	0x3d077837	0.03307363
78	0x3c416be6	0.01180551
79	0xbd8aa333	-0.06769409
80	0xbd9a1bcf	-0.07524835
81	0xbd6ca49a	-0.057774164
82	0xbf0309ea	-0.51187
83	0x3da17039	0.07882733
84	0xbd713988	-0.058892757
85	0xbd43dd74	-0.047818616
86	0x3d8805ca	0.06641729
87	0xbb807d1f	-0.0039211656
88	0xbd1a6e22	-0.037702687
89	0xbe13a308	-0.1441766
90	0x3e5fb3a6	0.21845874
91	0xbdcb4789	-0.099257536
92	0xbd121c11	-0.035671297
93	0x3dde0b2f	0.10841977
94	0x3c52d101	0.012867213
95	0x3dc25006	0.094879195
96	0x3e2396ef	0.15975545
97	0x3ca8c111	0.020599874
98	0x3d62cf53	0.0553735
99	0x3d6243be	0.055240385
100	0x3d6145c0	0.05499816
101	0x3e27f3b0	0.16401553
102	0x3e0c35f9	0.13692464
103	0x3db45602	0.08805467
104	0x3e00aec3	0.12566666
105	0xbb412744	-0.0029472867
106	0x3da2a819	0.07942218
107	0x3e3cf98c	0.1845457
108	0x3cbd558f	0.023112087
109	0xbcc7a946	-0.024372708
110	0x3d389a7b	0.0450692
111	0x3db5cf26	0.08877401
112	0x3e3d35f2	0.1847761
113	0xbc4e37cb	-0.012586544
114	0xbc824157	-0.015900297
115	0x3d55143d	0.052021254
116	0x3ddfc440	0.109261036
117	0xbbc0fdd2	-0.0058896327
118	0xbd9d0d41	-0.076685436
119	0xbceb9020	-0.028755248
120	0x3dc87067	0.09787064
121	0x3c28baee	0.010298474
122	0x3ceb5c79	0.028730618
123	0x3c4f1028	0.012638129
124	0x3df37f3d	0.11889503
125	0x3e1a2786	0.1505414
126	0x3df233ff	0.11826324
127	0x3db01339	0.085974164
128	0x3d02fae8	0.031977564
129	0x3dbc5528	0.0919593
130	0x3de03792	0.10948099
131	0xbd580c75	-0.052746255
132	0xbd408e0e	-0.047010474
133	0x3db45dbb	0.0880694
134	0x3e7bfb42	0.24607566
135	0xbc89d15c	-0.016823463
136	0x3d9ca9c9	0.076495714
137	0x3dfb53ee	0.12271868
138	0xbbc5d68c	-0.006037539
139	0x3d5c2dea	0.053754725
140	0x3da38a99	0.0798542
141	0x3e6c7e7a	0.23095122
142	0xbd347eec	-0.044066355
143	0x3dae427d	0.085087754
144	0xbd4c42a2	-0.049868234
145	0xbb63daf1	-0.003476795
146	0x3d729dec	0.059232637
147	0x3bf135f4	0.007361168
148	0x3c583a67	0.013197518
149	0x3e6328a9	0.2218348
150	0x3d27841e	0.04089748
151	0x3c32c75b	0.010911788
152	0xbc569a03	-0.013098243
153	0x3df13432	0.117775336
154	0x3c5bb7da	0.013410533
155	0xbbb4076e	-0.0054940498
156	0x3eac85de	0.33695883
157	0x3de70bd7	0.11281555
158	0x3deeaf07	0.116544776
159	0x3e7109eb	0.2353894
160	0x3b8c5d24	0.004283564
161	0x3dd9dd95	0.106379665
162	0xbd489d7b	-0.04897831
163	0x3d9f6a05	0.077838935
164	0xbc3de108	-0.011589296
165	0xbddea072	-0.10870446
166	0xbdf5b1ac	-0.11996779
167	0x3e1b2768	0.15151751
168	0xbb09e6ad	-0.0021042034
169	0xbc9d85c3	-0.019228822
170	0xbd410eb2	-0.047133155
171	0x3dacb27b	0.0843248
172	0x3e582b6e	0.21110317
173	0x3d3839e7	0.044977095
174	0x3ec18f58	0.37804675
175	0x3d757a24	0.059930936
176	0x3cce92ac	0.025216423
177	0x3e392b32	0.18082884
178	0xbdb1df9c	-0.08685228
179	0x3e47f926	0.19528636
180	0x3dc0b625	0.09409741
181	0x3ce84244	0.02835191
182	0x3ef32126	0.47486228
183	0x3d83ec7e	0.06441592
184	0x3d684755	0.056708653
185	0x3d1d455d	0.038396228
186	0x3e14c9cf	0.14530109
187	0x3d9ca193	0.07648005
188	0xbd1366c6	-0.035986684
189	0x3e54d965	0.20786054
190	0x3e3c72f9	0.18403234
191	0x3e3fd2b5	0.18732722
192	0x3ca0d730	0.01963386
193	0x3ded6faa	0.11593564
194	0x3d7044b4	0.05865927
195	0x3dfacd69	0.1224621
196	0xbbba9589	-0.0056940955
197	0x3d2188f7	0.03943726
198	0x3dcd764a	0.100323275
199	0x3d976bc8	0.073936045
200	0xbda000a3	-0.078126214
201	0x3cd30858	0.025760815
202	0xbd74277f	-0.05960798
203	0xbdc66d5d	-0.09688828
204	0x3dfdb8ea	0.12388785
205	0xbd39b809	-0.045341525
206	0x3d566025	0.052337784
207	0x3d36a96f	0.04459518
208	0xbd795cc2	-0.060879476
209	0x3d491f60	0.049102187
210	0xbccb1b97	-0.02479343
211	0xbe2ea009	-0.17053236
212	0x3c737b76	0.014860978
213	0x3d13febd	0.03613161
214	0xbd96626b	-0.073429905
215	0x3d19d18b	0.03755335
216	0x3d91c2c4	0.07117227
217	0x3d893bc2	0.06700851
218	0xbdfa7679	-0.12229628
219	0x3e206fa4	0.15667588
220	0xbdc5c7c0	-0.0965724
221	0xbda7579b	-0.08171006
222	0xbdf56ace	-0.11983262
223	0xbe2dae5e	-0.16961047
224	0xbde0ed39	-0.10982747
225	0x3d316d97	0.043317404
226	0x3e415e14	0.18883544
227	0xbdeb2bb2	-0.114829436
228	0x3c6d3cd4	0.014479835
229	0x3d5488b1	0.05188817
230	0x3db3c3cd	0.087775804
231	0xbc4e143c	-0.012578066
232	0x3d0c0099	0.034180257
233	0xbd98f4d9	-0.07468576
234	0x3d4effc1	0.050536875
235	0x3c5f108a	0.013614783
236	0x3d96822b	0.07349046
237	0x3d6d9129	0.057999764
238	0x3e326ad6	0.17423567
239	0x3c71e93d	0.014765081
240	0x3db95307	0.09049039
241	0xbd3e4ad4	-0.04645808
242	0xbb7b146c	-0.0038311733
243	0xbcbb566a	-0.022868354
244	0x3e034c26	0.12822017
245	0xbd39c7a2	-0.0453564
246	0xbd989f5c	-0.074522704
247	0x3ab31794	0.0013663643
248	0x3db72390	0.0894233
249	0xbd9aa74b	-0.0755144
250	0xbd4851ef	-0.048906263
251	0xbd03a594	-0.03214033
252	0x3d079a56	0.03310617
253	0x3de51c50	0.11187041
254	0xbdcfe7b1	-0.101516135
255	0xbb45853e	-0.0030139233

layers.0.weight f4 [64, 100]
0	0x3e726221	0.23670246
1	0xbcc74935	-0.0243269
2	0xbd8fa086	-0.07013039
3	0xbe36928a	-0.17829338
4	0xbe827b71	-0.25484803
5	0x3c3c8080	0.011505246
6	0x3d485578	0.048909634
7	0x3e523faa	0.20532098
8	0xbdece467	-0.11567002
9	0xbdf7ec60	-0.12105632
10	0xbb435f6c	-0.0029811515
11	0x3e0a77d4	0.13522273
12	0x3e75b5c9	0.23995127
13	0xbda552c1	-0.08072425
14	0x3ea8a187	0.32935736
15	0x3b8e26dc	0.0043381285
16	0xbe08d56b	-0.13362662
17	0xbe8b3d99	-0.27195433
18	0x3ecf5737	0.40496227
19	0xbd88d273	-0.06680765
20	0xbe4c04c4	-0.19923693
21	0xbe5c082a	-0.2148749
22	0xbd9e9a97	-0.077443294
23	0xbe831bd7	-0.25607178
24	0x3e88ce30	0.2671981
25	0x3e6925fb	0.22768395
26	0xbde5943d	-0.11209915
27	0x3d5dee7f	0.054182526
28	0xbdb3346a	-0.087502316
29	0xbdad557c	-0.084635705
30	0xbcc1e5e8	-0.023669198
31	0x3e02d47d	0.1277637
32	0x3d130762	0.035895713
33	0xbe0b403d	-0.13598724
34	0xbddfa199	-0.10919494
35	0xbc621a71	-0.013800249
36	0xbde02e8e	-0.109463796
37	0x3e2a41e8	0.16626704
38	0xbd9625fc	-0.07331464
39	0x3cedda22	0.029034678
40	0xbd44400a	-0.047912635
41	0xbe528c53	-0.20561342
42	0x3df9aea7	0.121915154
43	0xbd8006cc	-0.062512964
44	0x3c0f34c4	0.008740608
45	0xbc870069	-0.016479688
46	0xbe39eefd	-0.18157573
47	0xbd5cc2a5	-0.053896565
48	0x3d99d7f8	0.07511896
49	0xbcdf6a11	-0.027272256
50	0xbe3840d6	-0.17993483
51	0x3e0c5052	0.13702515
52	0x3d2952f4	0.041338876
53	0x3cee239b	0.029069712
54	0x3e2e1f74	0.17004186
55	0xbe20cd95	-0.15703423
56	0xbd46f386	-0.048572086
57	0xbd22efe1	-0.039779548
58	0x3e75d20a	0.24005905
59	0xbd8a1d74	-0.06743899
60	0x3d73ae81	0.05949259
61	0xb935713a	-0.00017303685
62	0x3dc08fea	0.094024494
63	0x3e03f2f6	0.12885651
64	0xbe2a8468	-0.16652071
65	0xbe069c15	-0.13145478
66	0x3ddec71b	0.1087782
67	0xbe67388a	-0.22580162
68	0xbe2f99d1	-0.1714852
69	0x3e8b3225	0.27186695
70	0x3e2fcfae	0.17169067
71	0xbd694e36	-0.056959353
72	0xbe22328f	-0.15839599
73	0xbe2a8726	-0.16653118
74	0xbec05c2a	-0.37570316
75	0x3c7aa5bf	0.015298306
76	0x3cc3dfa7	0.023910357
77	0x3e81ad0b	0.25327334
78	0x3d33274d	0.043738652
79	0x3e13e4da	0.14442769
80	0x3e28d75a	0.164884
81	0xbd9c585d	-0.076340415
82	0xbe7c7a39	-0.24655999
83	0xbde7bf62	-0.113158
84	0x3ebb832f	0.36623523
85	0x3de2c263	0.110722326
86	0x3dfe9582	0.1243086
87	0x3dea9a29	0.11455185
88	0xbdde3f78	-0.108519495
89	0xbc6cbf7d	-0.014449951
90	0x3b332b6e	0.0027339119
91	0x3e584fd1	0.21124198
92	0xbc5a9135	-0.013340284
93	0xbe70ff9f	-0.23535012
94	0xbe8f5bd9	-0.27999762
95	0xbe7d5a02	-0.24741367
96	0x3c4133ce	0.011792136
97	0xbdc4ed78	-0.09615606
98	0xbe97bd5d	-0.2963666
99	0xbd95ec1c	-0.07320425
100	0xbc78310d	-0.015148413
101	0xbd9eda54	-0.077564865
102	0x3d10ed39	0.035382483
103	0xbd867e57	-0.06567066
104	0xbdcd1583	-0.10013869
105	0x3bb1aac3	0.0054219677
106	0x3e176b7d	0.14787097
107	0xbd44611c	-0.047944173
108	0xbb881124	-0.004152434
109	0x3e3eed63	0.18645243
110	0x3d8159ea	0.06315978
111	0xbe08f9de	-0.13376567
112	0x3dc3fea9	0.09570057
113	0xbd023258	-0.031786293
114	0xbda43aa0	-0.08018994
115	0x3da7f52c	0.0820106
116	0xbd140c03	-0.036144268
117	0x3d91b230	0.07114065
118	0x3e7ac457	0.2448896
119	0x3ca56811	0.020191224
120	0x3d2290d2	0.039688893
121	0xbcef4def	-0.029211966
122	0x3e24a504	0.16078573
123	0x3efec789	0.49761608
124	0xbdaa158e	-0.083048925
125	0x3d9d1e95	0.07671849
126	0x3d8ae571	0.06782044
127	0xbe144ca6	-0.14482364
128	0x3e0e7aca	0.13914028
129	0xbe2beb93	-0.16789083
130	0x3d8f9163	0.07010152
131	0x3da5195b	0.08061477
132	0xbdc4c7a8	-0.09608394
133	0xbcb2517c	-0.02176737
134	0xbb3d54f8	-0.0028889757
135	0x3aaba9f0	0.001309691
136	0x3e15817b	0.14600174
137	0xbee95c2a	-0.45578128
138	0x3e2c67a4	0.16836411
139	0x3bae7136	0.0053235544
140	0x3ea403ff	0.320343
141	0x3e72aa2a	0.23697725
142	0xbe150aa7	-0.14554845
143	0xbe9b8f99	-0.30382994
144	0xbdf92a80	-0.12166309
145	0x3e968a73	0.29402503
146	0xbe7b6984	-0.2455197
147	0x3e2c1070	0.16803145
148	0x3c5c0236	0.0134282615
149	0x3e498884	0.19680983
150	0x3e4d3c8e	0.20042631
151	0xbc1b0f6d	-0.009464127
152	0x3e411e9c	0.18859333
153	0xbd6fd8c1	-0.058556322
154	0xbcaf7777	-0.02141927
155	0xbe1cdc15	-0.1531833
156	0x3ec13b5f	0.3774061
157	0x3e015901	0.12631609
158	0x3dd126d4	0.10212484
159	0xbd651dae	-0.055936508
160	0x3d17b0b7	0.037033763
161	0xbc49d1d9	-0.012318098
162	0xbc12c3bf	-0.008957802
163	0xbc798475	-0.015229334
164	0xbcfd56ad	-0.03092512
165	0x3de51557	0.11185711
166	0xbcac51e3	-0.02103514
167	0xbd7540f1	-0.059876386
168	0xbe39f750	-0.18160748
169	0xbcc711a5	-0.024300406
170	0xbdd6f8f6	-0.10496704
171	0x3d3edfa2	0.04659999
172	0x3de6a8cd	0.11262665
173	0xbdde9240	-0.10867739
174	0x3e08db68	0.13364947
175	0x3a04e51e	0.00050695415
176	0x3c1527b8	0.009103708
177	0x3d194704	0.03742124
178	0xbe351773	-0.17684726
179	0xbe3ff726	-0.18746623
180	0x3c937098	0.017998025
181	0x3c6978e3	0.014250013
182	0x3e843349	0.25820377
183	0x3d8ba55a	0.06818648
184	0xbd040a36	-0.0322363
185	0x3c1b382c	0.009473842
186	0x3e051bd1	0.12998892
187	0x3cc77a8f	0.024350433
188	0x3e8b42ae	0.2719931
189	0x3dc6fb76	0.09715931
190	0x3d963356	0.0733401
191	0xbe9499ca	-0.29023582
192	0x3ea6d3e5	0.32583538
193	0x3d917671	0.07102669
194	0xbd9ff24f	-0.078098886
195	0xbe221265	-0.1582733
196	0x3e0f8bc4	0.1401816
197	0xbc8d4602	-0.017245296
198	0x3dd61e20	0.10454965
199	0xbd226202	-0.03964425
200	0xbc59cbba	-0.013293201
201	0xbe55fb45	-0.20896633
202	0xbe372d35	-0.17888339
203	0xbd83a587	-0.06428056
204	0x3eaf3ff9	0.34228495
205	0x3e204f4a	0.15655246
206	0xbe239ce8	-0.15977824
207	0xbd55e8df	-0.052224036
208	0xbdeec5ab	-0.11658796
209	0xbe68aaa5	-0.22721346
210	0x3db6b23e	0.08920716
211	0xbccb05d0	-0.024783045
212	0xbd4eab58	-0.050456375
213	0x3d3d73aa	0.046252884
214	0x3e5d69bd	0.21622367
215	0xbe64e60e	-0.22353384
216	0xbe4b502e	-0.19854805
217	0x3da5e520	0.08100343
218	0xbeac595e	-0.33661932
219	0xbdd5a881	-0.1043253
220	0xbdd6386a	-0.10459979
221	0x3eae8f3f	0.34093663
222	0x3de9bd24	0.11413029
223	0x3df1afa7	0.11801081
224	0xbd35fc30	-0.044429958
225	0xbe089a33	-0.13340072
226	0xbe4bd7ec	-0.19906586
227	0x3da0b05a	0.078461364
228	0x3e1dc9d4	0.15409023
229	0x3e361397	0.1778091
230	0x3c799c74	0.015235055
231	0xbeb2c115	-0.34912935
232	0x3d51cf5e	0.05122315
233	0xbe3c274a	-0.18374363
234	0xbd2c636b	-0.042087
235	0xbd3cd268	-0.046099097
236	0x3e19d625	0.15023096
237	0x3e946d08	0.28989434
238	0x3e5adb49	0.21372713
239	0xbe165d0d	-0.14683934
240	0xbda095d9	-0.07841081
241	0xbd5ba220	-0.05362141
242	0x3d334e9b	0.043776136
243	0x3e537cb5	0.2065304
244	0xbe77eddf	-0.24211834
245	0xbe64c0c7	-0.22339164
246	0x3e8b0032	0.27148587
247	0x3cda50dd	0.026649887
248	0xbe3b0fc3	-0.18267731
249	0x3dd0305a	0.10165472
250	0x3e587694	0.21138984
251	0x3da3b40d	0.07993326
252	0x3c397e66	0.01132164
253	0xbd63e4c6	-0.055638097
254	0xbce5a743	-0.028033858
255	0x3e627329	0.22114243

layers.0.bias f4 [64]
0	0x3df36c7e	0.118859276
1	0x3e1729e0	0.14762068
2	0xbd644e35	-0.055738647
3	0x3d51cd6a	0.05122129
4	0x3e28d78d	0.16488476
5	0xbe34c226	-0.17652187
6	0x3cdcedd0	0.026968867
7	0xbe486ead	-0.1957347
8	0x3d0b036c	0.03393881
9	0x3d246b18	0.040141195
10	0x3d86f052	0.06588806
11	0x3ddc0589	0.10743243
12	0xbe0ab762	-0.13546517
13	0x3d318641	0.043340925
14	0xbd8289ca	-0.063739374
15	0xbe492ab3	-0.19645195
16	0xbcdbfdb4	-0.026854374
17	0xbe0b4152	-0.13599136
18	0x3dce5d09	0.10076339
19	0xbe46fe99	-0.19433059
20	0xbe0a9234	-0.13532335
21	0x3e524d31	0.20537259
22	0x3df32f03	0.11874201
23	0x3def5ba3	0.116874
24	0x3d3b10c3	0.045670282
25	0x3ce0f96d	0.027462685
26	0x3d654253	0.055971455
27	0x3e18254b	0.14857976
28	0x3d89cb32	0.067282096
29	0x3dc436d9	0.09580774
30	0xbcb7a188	-0.022415891
31	0x3da81b40	0.082083225
32	0xbd3babb9	-0.045818064
33	0x3e3c0deb	0.18364684
34	0x3d9fc018	0.07800311
35	0xbe01ea57	-0.1268705
36	0xbe039e88	-0.12853444
37	0x3e002952	0.12515762
38	0x3e3877e4	0.18014485
39	0x3da1f360	0.07907748
40	0x3e152f46	0.14568815
41	0x3dfbf0df	0.12301802
42	0x3dc23c0d	0.0948411
43	0xba2096a9	-0.0006125966
44	0xbe19f80b	-0.15036027
45	0x3db45c77	0.08806699
46	0xbcbe550a	-0.02323391
47	0x3d1c8883	0.038216125
48	0x3cda3279	0.026635395
49	0xbe7cb102	-0.24676898
50	0x3df76e9a	0.120816424
51	0x3dd96e30	0.1061672
52	0x3e0098b5	0.12558253
53	0x3e41c949	0.1892444
54	0x3e31a12f	0.17346643
55	0x3d867204	0.065647155
56	0xbc9bebca	-0.019033331
57	0x3d365721	0.044516686
58	0x3db8810d	0.090089895
59	0xbdd089e6	-0.10182552
60	0x3d7a3636	0.061086856
61	0x3cf80cc7	0.03027953
62	0x3e5e57fd	0.21713252
63	0x3d265c56	0.040615402

lin.weight f4 [1, 64]
0	0xbe4967ca	-0.19668499
1	0x3e256465	0.16151579
2	0xbec364e2	-0.38162905
3	0xbe59b2a8	-0.21259558
4	0x3e43efbb	0.19134419
5	0xbb68d967	-0.0035529973
6	0xbda4472b	-0.08021387
7	0xbe44deef	-0.19225667
8	0xbeb45e5d	-0.35228243
9	0x3e7ec85d	0.2488112
10	0x3ebfe251	0.37477353
11	0xbe8e3530	-0.27774954
12	0xbd632a54	-0.05546029
13	0xbe2caad5	-0.16862042
14	0x3e5512c1	0.20807935
15	0xbc16302e	-0.00916676
16	0xbe43e443	-0.19130044
17	0xbd1a3f45	-0.037657995
18	0x3e62bc1c	0.2214207
19	0xbc409815	-0.011755009
20	0xbe3d470d	-0.18484135
21	0x3e6c7258	0.23090494
22	0x3e76b7d8	0.24093568
23	0x3e4b6f4d	0.19866677
24	0x3ea86b85	0.3289453
25	0xbe20cebe	-0.15703866
26	0xbe37d07b	-0.17950623
27	0x3e91db12	0.2848745
28	0x3e49f38d	0.19721813
29	0x3e2eb7d9	0.1706232
30	0xbe3c5bdc	-0.18394417
31	0x3e4ac345	0.19801052
32	0x3dfc62ac	0.12323508
33	0xbe71134b	-0.23542516
34	0x3e5025dc	0.20326942
35	0x3db83e6c	0.08996281
36	0xbc53c603	-0.012925628
37	0xbe44fb39	-0.19236459
38	0x3e6b32e2	0.22968629
39	0xbe43f887	-0.19137774
40	0x3e94fa86	0.29097384
41	0x3e8974e4	0.26846993
42	0xbdfdb297	-0.12387579
43	0x3e149942	0.14511588
44	0xbc88852a	-0.01666506
45	0x3e41ee37	0.18938528
46	0xbe01c980	-0.12674522
47	0xbdc22b77	-0.094809465
48	0xbe205517	-0.15657459
49	0xbcdb133e	-0.026742574
50	0x3e7df34f	0.24799846
51	0x3e9953af	0.29946658
52	0xbe8ab5a3	-0.27091703
53	0xbeb472ea	-0.35243922
54	0xbe418e26	-0.18901882
55	0xbe2df0ce	-0.16986391
56	0xbe26354d	-0.1623127
57	0xbe0e6ad7	-0.13907944
58	0x3e134c46	0.14384565
59	0x3e30d363	0.17268138
60	0xbe155277	-0.14582239
61	0xbe2da6b5	-0.16958125
62	0xbe4eebbd	-0.20207115
63	0xbe668352	-0.22511032
